checkpoint_maddpg_actor_agent_0.pth (torch_old, 164041 bytes, 10 tensors)

fc1.weight f4 [256, 24]
000000 84 36 3e bd dd c2 e9 bd 35 16 81 ba fd 93 d5 3d
       -0.04643871 -0.1141412 -0.0009848537 0.10428617
000010 46 15 12 be 9d 29 0b 3f 41 48 c9 bc 9b 61 d3 3d
       -0.14265928 0.5436037 -0.024570586 0.10321351
000020 0e 9b 60 3d 4d 7a 1b bd b6 97 dc 3c 31 25 0d bd
       0.05483537 -0.037958432 0.02692781 -0.034459297
000030 bf 5a 43 3e c9 2f f1 3d d3 ce 3c bd b8 9a 66 3d
       0.19077586 0.117766924 -0.04609568 0.056299895
000040 b3 09 66 3e 67 26 30 bd 72 74 1a bd 30 32 ca bd
       0.22464637 -0.043005373 -0.037708707 -0.09872854
000050 fb dc 44 40 35 d2 0d bf 85 6d 81 3c e4 82 6e bd
       3.0759876 -0.55398875 0.015799293 -0.058230296
000060 b7 d2 8f 3c e6 83 80 3e 8c d5 b8 3d b5 7c ba bd
       0.017556531 0.2510063 0.09025106 -0.09105817
000070 02 4f cb be 17 23 bd 3d 02 e3 31 3d a4 9f ad bc
       -0.39708716 0.092352085 0.043429382 -0.021194287
000080 90 c4 8f 3d c6 4a 8c 3e b5 a2 97 bd b3 fd 3d 3f
       0.07019913 0.27400798 -0.07404081 0.7421524
000090 05 99 b5 be 6e 34 3a 3e df 0f 06 bd 54 5c 33 3f
       -0.35468307 0.18184063 -0.03272998 0.70062757
0000a0 b2 00 ce 3d e3 b4 c0 3e 21 4d 3e be d7 a6 af 3c
       0.10058726 0.37638006 -0.1858411 0.02144186
0000b0 30 5c 77 be ff 3a 9f 3e d5 20 27 be e7 ea 7c 3d
       -0.2415626 0.31099698 -0.16321118 0.061747458
0000c0 9f bc 7b 3d a2 d7 d4 be ea 17 34 bd e0 38 29 bf
       0.06145918 -0.41570765 -0.04396812 -0.6610241
0000d0 2c 04 89 be e8 73 98 bf 08 93 d3 3c 3c 7c 2c bf
       -0.26760995 -1.1910372 0.025826946 -0.67377067
0000e0 b7 26 be 3d 90 50 84 be 10 26 b4 3c 64 e5 f6 3d
       0.09284728 -0.25842714 0.021990806 0.120554715
0000f0 19 3e 40 be 70 6f b2 bf ce 25 5e bc 58 ac 40 3e
       -0.18773688 -1.3940258 -0.013558818 0.18815744
000100 89 c0 5d 3d 43 ed 5a be 49 3a ba bc 96 4f db 3d
       0.054138694 -0.2137957 -0.02273287 0.10708539
000110 84 af ed bd 10 47 27 bf f8 6d 40 bd d3 f4 ba 3b
       -0.116057426 -0.6534281 -0.046979874 0.005705455
000120 f5 3b bf 3e fd 8a b7 3e 6f 8f 20 3e 4c 1e 8b bb
       0.3735043 0.35848227 0.15679716 -0.004245555
000130 46 c0 86 bd c4 1f 25 be 68 dc 9f 3d 7c 70 94 bc
       -0.06579642 -0.16125399 0.07805711 -0.018120043
000140 3b cf 64 3e 93 5c a9 3e 19 8a 89 be 6a ac 97 3e
       0.22344677 0.3307844 -0.26863173 0.2962373
000150 1c 94 d1 bc b0 04 77 3c 05 13 96 be 60 dc 6e 3e
       -0.02558332 0.015076801 -0.29311386 0.23326254
000160 8e 78 b2 3e 15 b8 ce 3e df a2 10 3b 8a 44 1c 3f
       0.348576 0.40374818 0.0022069735 0.6104208
000170 8b 9a 01 be ee f7 68 3e 0f db bc bb 56 de 37 3f
       -0.1265661 0.22750828 -0.0057634185 0.7182363
000180 fc b3 d9 bd 97 f1 0b 3f b7 9e 97 3b 80 90 13 bd
       -0.106300324 0.5466551 0.0046270746 -0.036026478
000190 e4 7c b7 bd fb 4a b2 3c 16 34 c0 bb 80 d3 01 bd
       -0.08959368 0.02176427 -0.005865584 -0.031695843
0001a0 47 c1 3e bd f8 6e 00 3f 3f 15 07 3c ef f6 72 bc
       -0.046571042 0.50169325 0.008244812 -0.014829381
0001b0 84 62 df 3d 5b a5 0c bf bd a4 e3 bc 86 63 1c bd
       0.10907462 -0.5493981 -0.027788514 -0.03818085
0001c0 d5 78 e1 bd 3b c0 27 3f 22 d6 a8 bb 14 26 8d 3d
       -0.11009375 0.65527695 -0.0051524797 0.068920285
0001d0 d0 44 d9 3e 30 d4 fb bf 6d 3d 34 3d fc c0 e6 3c
       0.42435312 -1.967413 0.044003893 0.028168194
0001e0 79 d7 f6 bd 81 a0 51 bf 9c a8 d4 3c 71 3b 1c be
       -0.12052817 -0.81885535 0.025959305 -0.1525705
0001f0 b4 c7 e3 bd 9c 81 12 bf 64 a0 1f 3d 4f 12 20 be
       -0.11122075 -0.5722902 0.03897132 -0.15631984
000200 a4 a9 56 bd f0 28 67 bf 7f 52 1c 3e 60 b1 bd be
       -0.052407876 -0.9029684 0.15265845 -0.3704939
000210 b3 24 7d 3e 1c cd ae be 56 b8 42 3d d0 cd b4 be
       0.24721031 -0.3414086 0.047539078 -0.35313272
000220 76 08 2d be 25 df 6b bf bc 7d 90 bd 26 44 a6 bc
       -0.16897759 -0.92137367 -0.07055232 -0.020296168
000230 27 cb ff 3e 53 53 bd 3e 34 c2 c9 bd 42 04 34 3c
       0.4995968 0.36977634 -0.098514944 0.010987343
000240 23 2d 31 3f bf d2 e5 3d 16 86 91 bd 6e 1e b4 3e
       0.692095 0.11221837 -0.07105653 0.35179466
000250 df 2b 37 3f c6 a1 d4 be e2 c7 85 bb 7f 67 ac 3e
       0.71551317 -0.41529673 -0.004082666 0.3367271
000260 24 5c 30 3f 0b fe 5b 3c cd c6 52 3c ef 74 fe bd
       0.68890595 0.013427268 0.012864781 -0.12424647
000270 db 50 f1 3e 1a 6d d5 bd 7e 15 92 3b a5 ad 2d bd
       0.47132 -0.104212 0.0044581285 -0.04240193
000280 54 0b f8 3e 7d c1 a0 3d b5 37 17 3d 80 0a 45 3e
       0.48446143 0.07849405 0.03691836 0.19242287
000290 ce 8a 6e 3e 81 83 4c 3f c7 32 72 3d cd bc 67 3e
       0.23295137 0.7988816 0.059130456 0.22630616
0002a0 71 c4 10 3e 61 eb 79 3e b5 44 70 3d 6d 31 64 3e
       0.14137436 0.24406196 0.058659274 0.2228448
0002b0 9f cd 57 3f 9a 76 ef 3e 4d c4 59 3d e2 3f 32 3e
       0.8429813 0.46770173 0.053165723 0.17407182
0002c0 b3 91 09 3e 6d f2 a8 3e ce 9f c6 3c 2a a8 ed 3d
       0.13434486 0.32997456 0.024246123 0.116043404
0002d0 a9 64 72 3f 79 22 8d 3e 65 e9 61 3d 89 7e 35 3e
       0.94684845 0.27565363 0.055154223 0.1772405
0002e0 73 dc 18 bd 0b 83 4e 3e ed de 31 3d e4 47 d8 bd
       -0.03731961 0.20167176 0.04342549 -0.10560587
0002f0 3a cb 33 3f 5f 2a b7 3e ca 1f 8d 3d 03 f7 d3 bd
       0.70231974 0.35774514 0.06890829 -0.10349848
000300 d9 a2 86 bd 17 cb 44 bf 30 64 0c be 74 e8 94 be
       -0.065740295 -0.7687239 -0.13710093 -0.29083598
000310 45 61 b0 3e fa 47 bd 3d 90 bb b9 bd 5f 7f a1 be
       0.3444921 0.09242244 -0.09068978 -0.3154249
000320 a6 8f 27 be 74 92 4e bf 99 c4 66 be bb d4 bf be
       -0.16363391 -0.8069222 -0.22535934 -0.37466988
000330 f2 f0 ad 3e a3 7c b3 be 17 c4 24 be 50 f0 84 be
       0.3397289 -0.35056028 -0.16090427 -0.25964594
000340 f9 34 1e bd 5e 74 36 bf 08 d5 a4 3c 61 e7 a1 3d
       -0.038624737 -0.7127131 0.020121112 0.0790546
000350 09 91 91 3e e6 9c 80 bf 7f fb 28 bd dd ac 0c 3c
       0.28430966 -1.0047882 -0.04125547 0.008586136
000360 40 eb 56 3e a0 f3 46 3e 3d 87 2b be 7e 59 0c be
       0.20988178 0.19428873 -0.16750808 -0.13706014
000370 f1 ad 82 be 48 fa 34 3d 54 6d 55 be 0c 38 0d be
       -0.25523332 0.044184 -0.20842487 -0.13790911
000380 f5 71 8a 3e 9c 78 8b 3e f9 ac bd bc 77 35 79 3e
       0.27040067 0.27240455 -0.023153769 0.24336801
000390 7e 19 f0 be fb 86 b9 3e 33 f8 94 bc 92 04 8c 3e
       -0.4689445 0.36235794 -0.018184757 0.27347237
0003a0 bb 63 4f 3e 4c f5 6a 3e 9e 0c f1 3c a2 96 06 3e
       0.20252888 0.22945136 0.029424962 0.131434
0003b0 15 e2 22 bf 5d f8 df 3e ed 95 b6 3d 1a 87 32 3e
       -0.63626224 0.43744174 0.08915315 0.1743435
0003c0 b6 ff 4b 3e f2 8a 0f bf 4e a0 97 bd a7 d2 00 bf
       0.19921765 -0.5607139 -0.074036226 -0.5032143
0003d0 8f 61 3f 3f 5d e7 b9 3c 57 5d a5 bd ed 55 ed be
       0.7475824 0.02269333 -0.08074444 -0.4635462
0003e0 39 00 13 bc 0d 05 23 bf 06 2f 79 bd 77 2f f3 bd
       -0.008972221 -0.6367958 -0.06083586 -0.118742876
0003f0 a4 13 d3 3d e3 b5 0e 3d 30 d1 0f bd 0f 8b d4 bd
       0.103064805 0.03484143 -0.035111606 -0.10378086

fc1.bias f4 [256]
000000 39 fc f3 bd 05 6d 79 3d 4e ae a7 be d3 f9 fc 3d
       -0.11913342 0.060894985 -0.3275017 0.12352338
000010 81 4d 8d be e4 7b 2c be b2 44 e6 be 45 db 80 3e
       -0.27598193 -0.16844136 -0.44974285 0.2516729
000020 16 8b ff be a3 70 12 bf f9 a9 3e be dc ee f4 be
       -0.49910802 -0.5720312 -0.18619527 -0.47838485
000030 64 96 a1 be d5 39 1f bf 34 1c b8 be 70 fc 29 bd
       -0.3156005 -0.6219762 -0.35959017 -0.04150051
000040 47 31 dc be 4d 7e 1c be ba d9 3c be 97 95 8d be
       -0.43006346 -0.15282555 -0.18442431 -0.2765319
000050 83 83 4c bd d8 e0 3e bf c1 69 01 be d1 5d e2 be
       -0.049930107 -0.74561834 -0.12637998 -0.442122
000060 31 9c 8e be 0d 71 d3 be b0 dc da be 4c f4 85 be
       -0.2785354 -0.41297188 -0.42746496 -0.26162946
000070 63 f5 bd be 5d 15 d5 be ca dc 2d bf aa 3e 59 bf
       -0.37101278 -0.4161786 -0.6791502 -0.8486124
000080 dd fd 03 bf cd 94 00 bf 41 92 3a be 2f cb 1b bf
       -0.5155924 -0.5022705 -0.18219854 -0.6085691
000090 2d 4e 2d bf db a2 08 bf 27 f3 ab bc 6c e9 1e be
       -0.6769741 -0.533735 -0.020989968 -0.15518731
0000a0 45 b6 40 bd 47 47 3a be de ab 15 bf e3 65 00 bf
       -0.047048826 -0.18191253 -0.58465374 -0.50155467
0000b0 ed 6d c0 be 01 59 9a be 75 3a fd be 90 c7 8f be
       -0.37583867 -0.3014603 -0.49458662 -0.28081942
0000c0 d9 12 e3 3c 45 3b 9f bd f1 e4 bd be b9 92 2e 3e
       0.027718948 -0.07774977 -0.3708873 0.17048158
0000d0 e5 34 e8 be 02 4f 62 bf 0f e0 42 be 7b 32 4f be
       -0.45352855 -0.88401806 -0.19030784 -0.202341
0000e0 c8 20 07 3e 01 8d fb be c4 1c e0 be 7a e6 e0 bd
       0.13196099 -0.49131015 -0.43771946 -0.1098146
0000f0 30 19 ea 3b ec cb f8 be 28 47 73 be c8 2d 07 bf
       0.007144116 -0.4859308 -0.23757613 -0.5280423
000100 e9 14 aa be b8 65 b8 be 52 83 9b bd 2e b4 aa 3e
       -0.33219078 -0.36015105 -0.07593407 0.3334059
000110 e7 ff 5a bf 27 8e 9e bd 0d 3c e3 be 0c 26 5c bf
       -0.85546726 -0.07741957 -0.44381753 -0.85995555
000120 70 19 39 bf c7 81 15 bf a4 01 93 be 15 32 ea bc
       -0.7230444 -0.5840115 -0.2871219 -0.028588334
000130 b9 75 cd 3d f3 c6 51 3e 6c fc 42 be 30 a1 4b bf
       0.100322194 0.2048605 -0.19041604 -0.7954283
000140 67 0a 92 be b1 88 2c bf 29 d0 2c bf 0e 21 03 bf
       -0.2852356 -0.67396075 -0.6750513 -0.5122231
000150 57 af 9c 3d 64 79 9f be b4 ff f1 3d 57 07 af be
       0.07650631 -0.311473 0.118163496 -0.34185287
000160 00 94 b2 be 3e 33 7d bc c1 6b ad bd 0c ca 81 be
       -0.3487854 -0.015454112 -0.08467818 -0.25349462
000170 86 4b 22 be d0 5c 0c bf fe b5 e0 be a0 5b 72 be
       -0.15849122 -0.5482912 -0.4388885 -0.23667765
000180 bc 27 93 be 86 38 ec be ea 9e 2f bd f1 4f e7 be
       -0.28741252 -0.46136874 -0.04287616 -0.45178178
000190 35 01 4e be 64 d2 db 3d 6e 56 82 be e6 46 28 bf
       -0.20117648 0.10733488 -0.25456566 -0.6573318
0001a0 7d d2 33 bf 77 ef 48 bd 05 7c 0c bf 2d d5 15 bf
       -0.70243055 -0.049056496 -0.5487674 -0.58528405
0001b0 b9 8e c6 be 8b 28 21 bf 24 79 2f bf 8f d0 32 bd
       -0.38780764 -0.6295249 -0.6854422 -0.04365593
0001c0 9e 3c d1 be 4d ce 2f bf cf dc af be 6a 04 65 bd
       -0.4086656 -0.68674165 -0.3434815 -0.055912413
0001d0 95 53 4a 3e ca a5 10 bf b0 47 ee be 49 16 12 be
       0.19758447 -0.56502974 -0.46539068 -0.14266314
0001e0 d6 e0 e5 3c fb 0e fe be 95 53 20 bc 29 ba 1d be
       0.028061312 -0.49620804 -0.0097855525 -0.15403046
0001f0 fb f3 8d be 33 e9 48 be 54 10 3e bd 72 8c d1 be
       -0.27725205 -0.19620208 -0.04640229 -0.40927464
000200 53 ef 65 3d 94 56 3f be 9d 1e 06 bf 54 22 46 bd
       0.05613644 -0.1868537 -0.5239046 -0.04837258
000210 dd 99 3a bf 1f 8b 62 be 56 e6 e6 bc 69 b9 6b 3e
       -0.72891027 -0.22123383 -0.028186005 0.23019947
000220 27 5d 1d bd 38 79 b1 bd af 28 b7 be 0f 06 d8 be
       -0.038418915 -0.08665699 -0.35773227 -0.42192122
000230 f7 ff 34 3e fb d6 e3 be 23 2e 6d 3d a7 4a 2a bd
       0.17675768 -0.44499955 0.057905328 -0.0415751
000240 38 a5 cd be 00 fa cb be 17 e3 72 be cc 0e f4 be
       -0.40165114 -0.39839172 -0.2371944 -0.4766754
000250 4e 95 d4 bd b7 9f 8e bc d3 e1 33 3d 2a 4d 55 be
       -0.1038004 -0.017410142 0.043916535 -0.20830217
000260 a2 5f 4e be 7a 4d e4 be 1c b0 31 be f8 f3 0f bf
       -0.20153669 -0.4459036 -0.17352337 -0.5623164
000270 b8 88 ef 3e 44 f1 37 3c 8c b2 b4 be 1a b2 4a 3e
       0.46783996 0.011226956 -0.3529247 0.19794503
000280 0b 1d 0f bf d9 e0 81 be 7d 33 6c 3d 73 e6 9e be
       -0.5590369 -0.25366858 0.05766629 -0.31035194
000290 ca 7e 8f be 43 f9 0c bf 36 17 de be 52 49 2a bf
       -0.2802642 -0.55067843 -0.43377084 -0.6651813
0002a0 a5 80 87 be f1 89 01 bf f1 89 c9 bd a7 63 5f bc
       -0.26465335 -0.50601107 -0.09840763 -0.013634599
0002b0 15 a5 74 bf 1f 13 0c be 6d 80 19 bf 0d d0 54 3d
       -0.95564395 -0.13679169 -0.5996159 0.051956225
0002c0 e4 63 ec be 28 e1 8b be 34 7b 3e bf a9 6d 45 bd
       -0.4616996 -0.27320218 -0.74406743 -0.048200283
0002d0 30 34 df bd 64 d1 b3 be d5 eb 47 be 54 e6 4e be
       -0.10898626 -0.3512069 -0.19523557 -0.2020505
0002e0 0b a8 70 bd 86 9a 3a bf e6 f2 8c bd 37 91 5e bc
       -0.05875401 -0.72892034 -0.06882267 -0.013584427
0002f0 ea 82 07 be 68 e4 9f 3c 10 36 08 be 7d 4b b2 be
       -0.13233534 0.019518092 -0.13301873 -0.34823218
000300 59 18 04 bf 39 2a 10 bf e4 44 2a bf ed e1 1d be
       -0.5159965 -0.56314427 -0.6651137 -0.15418215
000310 d4 62 8e be 89 1a 23 3e fc 08 f5 3d f6 7b d4 bd
       -0.27809775 0.15928091 0.11964604 -0.10375206
000320 e0 c4 fe be 7b 75 42 be 26 b8 8e be d1 6d d1 be
       -0.4975958 -0.18990128 -0.2787487 -0.40904096
000330 f0 37 96 3c c1 e0 d2 3d 71 24 f8 be 87 4f fe bc
       0.01833722 0.10296775 -0.48465303 -0.031043781
000340 77 ac 2d bf f6 75 a8 be 92 7f 40 be af 95 f3 be
       -0.67841285 -0.32902497 -0.18798664 -0.47575137
000350 09 21 bd be c9 c4 b6 be b0 dd ac 3e c4 c2 47 be
       -0.36939266 -0.3569701 0.33762884 -0.19507891
000360 82 cb 34 be f7 e0 cc bd f1 84 55 be f3 48 30 be
       -0.17655757 -0.10003846 -0.20851494 -0.17215328
000370 c8 a7 e7 be 83 7c 11 be da a2 a2 be 96 63 c1 bd
       -0.45245194 -0.14207654 -0.3176487 -0.09442823
000380 f8 39 2b bd ae d1 18 bf 69 3f c3 be ca 11 d1 bd
       -0.04180333 -0.59694946 -0.38134316 -0.10208471
000390 5a 26 42 bf 8e 5f 1c bc 49 27 99 be 39 d8 ab bd
       -0.7583977 -0.009544266 -0.29912785 -0.083908506
0003a0 52 9f 30 be 12 5c 04 bf c5 8b 1f 3e 78 ce 11 be
       -0.17248276 -0.5170299 0.15580662 -0.14238918
0003b0 f4 d3 73 be 1c 98 cd be f1 4f ac be fe 81 ad bd
       -0.23811322 -0.40155113 -0.3365474 -0.0847206
0003c0 92 55 3b bf 23 5d 23 bf e6 20 12 be 05 5a 40 bf
       -0.73177445 -0.6381399 -0.14270362 -0.7513736
0003d0 b1 d7 f3 be c7 9d 8e 3d b2 f9 d4 be 5d 2a 01 bf
       -0.47625497 0.069636874 -0.41596752 -0.50455266
0003e0 e9 a9 d6 bc 3e ed 4b bf b3 fd 0b bf 18 ed 66 be
       -0.026204066 -0.7965888 -0.5468399 -0.22551382
0003f0 03 46 72 be 26 e5 cd be 8a 2e 0c be de eb 4d 3c
       -0.2365952 -0.4021389 -0.13689628 0.012568442

fc2.weight f4 [128, 256]
000000 ef ef ab 3e d5 33 13 3e d5 ce 18 bf fc 5c 05 be
       0.33581492 0.14375241 -0.596906 -0.13023752
000010 2d 21 72 be 60 48 84 3e 96 6c 96 be 2a 42 32 be
       -0.23645468 0.25836468 -0.2937972 -0.17408052
000020 4f 2f d6 3e ad 09 d6 be da 0e 5c 3e 96 91 b7 be
       0.4183297 -0.41804257 0.2149004 -0.3585326
000030 1c ca 20 3d d0 34 e2 3b 51 e5 31 bf ee 72 b5 bd
       0.039255247 0.0069032684 -0.69490534 -0.08859812
000040 2b 36 7a be 0e 14 36 be 23 24 b1 3d 3d 85 ab be
       -0.24434726 -0.17781088 0.08649471 -0.3350009
000050 58 60 58 be 97 8d 4d be c5 9e 15 3d f6 82 44 3e
       -0.21130502 -0.20073543 0.036528368 0.19190583
000060 35 f9 f5 be 71 3e 76 3d 27 89 6e be 0d 1e cc bd
       -0.48041692 0.060118143 -0.23294507 -0.09966669
000070 15 ba a1 be 6d 0d 54 3c 3c f5 b9 be 05 19 16 be
       -0.31587282 0.012942654 -0.3631991 -0.14657982
000080 e1 6a bf 3e 23 99 6f be cc 48 98 be bc 41 77 be
       0.3738623 -0.23398261 -0.2974304 -0.2414617
000090 fa ef 8e 3e 83 b1 fd 3d 08 92 68 be 50 1c 18 bd
       0.27917463 0.12387373 -0.22711957 -0.037136376
0000a0 1f 0a 8f 3e e7 9b fe be 7d 62 a7 be d9 c9 08 bf
       0.2793741 -0.4972832 -0.32692328 -0.53432995
0000b0 88 22 29 be f3 7d 50 3e d2 46 dd 3e e3 dd 10 bb
       -0.16517079 0.20360546 0.43218094 -0.002210491
0000c0 2e c7 71 3c fa 85 1d 3e f9 b4 c6 be 06 fd 60 3d
       0.014756961 0.15383139 -0.38809946 0.054928802
0000d0 81 9d 2c be 9d 6a 43 3e 8f f6 3f be 27 df 15 bf
       -0.16856958 0.19083638 -0.18746398 -0.5854363
0000e0 50 ba 7c bd 80 4f 5a be 52 7b 5c 3c 4f c7 89 be
       -0.06170112 -0.2131939 0.013457136 -0.26909873
0000f0 a1 ba c0 3e a0 84 bc bc 76 1c 44 be 4a 9a 42 3e
       0.37642387 -0.02301246 -0.19151482 0.19004169
000100 62 0c 70 be e9 4c a2 3d bb 13 00 3f b1 1b 8f 3e
       -0.23442224 0.07924826 0.50030106 0.27950814
000110 33 55 94 bc dd 9a 95 3e d9 2a 5d be 86 7c 68 bd
       -0.018107032 0.29219714 -0.21598376 -0.05675938
000120 9d 75 6f be 48 ce 81 3d eb 89 85 be ee 21 73 3d
       -0.2338471 0.06338173 -0.26081786 0.05935853
000130 7b b7 8d 3d 63 a5 90 3e 32 11 1a bd e7 95 03 bf
       0.06919762 0.2825118 -0.037614055 -0.5140061
000140 e7 ba a6 be 70 f4 99 3e e1 9b b1 3e 19 5e b9 3d
       -0.3256447 0.30069304 0.3468924 0.09051151
000150 13 56 69 be 73 c6 72 bd d7 ac 53 3e bd 77 14 3f
       -0.22786741 -0.059271287 0.20671402 0.57995206
000160 78 cc a5 be 7d f4 8c bd 1f 3d ae be 6b 05 14 bf
       -0.3238256 -0.0688257 -0.34031007 -0.5782077
000170 bf 66 fa 3e 95 b4 1f bf fc a4 b6 be 56 30 14 3d
       0.48906514 -0.6238492 -0.35672748 0.03617891
000180 57 5f 81 be b8 35 3b 3c d2 8c 92 bc 77 fa bf be
       -0.2526805 0.011426382 -0.017889414 -0.37495777
000190 05 3e bb be e5 38 10 bb 65 47 91 be 7c ff 06 3e
       -0.36570755 -0.0022006568 -0.28374782 0.13183397
0001a0 80 85 e5 3e ef a5 89 be 9a b5 84 3e 9e ac 85 bf
       0.44828415 -0.2688441 0.259198 -1.0443304
0001b0 fd fa 95 3b 57 f4 11 3f 5c 7d 76 3d d8 6d 30 3e
       0.0045770393 0.5701346 0.060178146 0.17229402
0001c0 04 68 3c bd 9a b3 c0 be b4 22 7d 3d 68 c9 9c 3e
       -0.045997635 -0.37637025 0.061800674 0.3062241
0001d0 4e cb a8 bd 59 10 2c 3e ae 68 4d 3d 1e 70 07 bf
       -0.08241902 0.16803111 0.05014866 -0.5290545
0001e0 bc 2c 9f bd 85 cf 04 bf dc 06 1e be f5 bd 1a 3f
       -0.07772204 -0.5187915 -0.15432304 0.604461
0001f0 9e 8d a4 bd 90 d2 28 bd 6d f0 95 3e 81 a7 25 3e
       -0.08034824 -0.041216433 0.29284993 0.16177179
000200 58 cd d0 bc 08 20 fb bc 86 cb 29 3e a9 e2 39 3d
       -0.02548854 -0.030654922 0.16581544 0.045382176
000210 43 9b 86 be e7 a1 ed be 6c 80 ec 3c e2 8f 2c be
       -0.2629033 -0.46412584 0.02886983 -0.16851762
000220 18 fa 77 be fe 91 9b 3d 9c 9c 94 3e 8e f7 1c bd
       -0.24216497 0.07596205 0.29025733 -0.038322024
000230 21 00 c8 3d b1 05 4f 3e 66 6c 12 bd 9f ce af 3e
       0.097656496 0.20217015 -0.035747908 0.34337327
000240 76 15 00 3e 66 dc 90 be 58 0f 22 be c2 64 89 3e
       0.12508187 -0.2829315 -0.15826166 0.26834685
000250 f4 2a b1 3e a3 76 bc 3d f9 2f 98 be d3 30 18 3c
       0.34603083 0.09202316 -0.297241 0.009288984
000260 21 c4 0b 3f 27 e4 05 bf f3 53 31 bc 4a e1 cd be
       0.54596144 -0.5230126 -0.010823238 -0.40210944
000270 d3 96 b6 bc 07 e7 9b 3c 38 2c 79 3e c6 dd c5 be
       -0.022288715 0.01903106 0.24333274 -0.38645762
000280 0a 27 9f 3e e7 0c 0c 3f 28 88 d7 3e 19 cb 2f be
       0.31084472 0.5470719 0.42096066 -0.1716732
000290 58 fa 77 3e 2e 3c 30 be 45 13 ca be 1f ee 0e bf
       0.24216592 -0.17210457 -0.39467826 -0.55832094
0002a0 36 8b 94 be e6 07 79 3d a1 74 88 bd c3 0b c8 be
       -0.2901246 0.06079855 -0.0666287 -0.39071473
0002b0 86 3c 46 bd 74 7f 69 3e d8 43 c9 3d 39 9f df bd
       -0.048397563 0.22802526 0.09827393 -0.10919041
0002c0 39 3d fd bd b4 e1 67 bd 87 0f bf be 31 b9 80 be
       -0.12365193 -0.05661173 -0.37316534 -0.2514129
0002d0 a6 cb 6f 3e 84 96 a5 3e 0b da 6f 3d cf d5 bd be
       0.2341753 0.32341397 0.05855755 -0.37077186
0002e0 67 be d6 3d c8 10 de 3d 73 f9 be bd 1e 0b 4d 3e
       0.10485535 0.108430445 -0.093249224 0.20023772
0002f0 a8 aa 6f bd f0 08 d5 be 8d 4a 38 be e8 3f 3e bf
       -0.05851236 -0.4160838 -0.17997189 -0.74316263
000300 a9 40 04 be 59 8e 33 be 26 31 56 3e 98 08 d4 bd
       -0.12915291 -0.1753477 0.20917186 -0.10353202
000310 ab 27 36 be 4a a9 c3 bd f8 e8 82 be b3 2f 96 3c
       -0.1778857 -0.09553774 -0.25568366 0.018333292
000320 9d 2a 6d 3e 35 5e c9 bd 03 87 0a be 9b fa ac be
       0.23160787 -0.09832422 -0.13528065 -0.33784947
000330 4f bd 5e bc 67 f7 6d be ef ee c6 bd af e3 ff 3d
       -0.013594939 -0.23238908 -0.09713542 0.12494599
000340 42 bc b8 be 7c 95 55 be de 25 06 be 7b 82 eb 3e
       -0.3608113 -0.20857805 -0.13100383 0.45997986
000350 cc eb 95 3a 01 cb 98 bd 01 b8 b5 be f3 75 5a be
       0.0011438071 -0.07460595 -0.35491946 -0.21334057
000360 a8 af 53 be ed 9a a0 3d 4a a5 a3 be 07 ad 91 3e
       -0.20672476 0.0784205 -0.31962043 0.28452322
000370 0a 56 43 bf d3 54 02 3e 50 4c 14 3d da ac 09 bf
       -0.7630316 0.1272767 0.03620559 -0.53779376
000380 56 da 1a 3d 26 53 3f bf a6 17 34 bd 6d 00 c0 be
       0.037805878 -0.7473625 -0.043967865 -0.37500325
000390 12 50 12 bf 22 63 74 3d dc 1c 65 3e f3 41 49 3d
       -0.5715343 0.059664853 0.2237429 0.04913516
0003a0 ff 0d 49 3e 66 c5 ee 3d 6c d9 52 3d c4 c6 39 3e
       0.19634245 0.116587445 0.05147688 0.1814223
0003b0 7c ee 22 bf fb 53 e5 bd a4 c2 0e 3d 7c c3 c8 bd
       -0.6364515 -0.11197659 0.034853593 -0.09802911
0003c0 0b 60 7e 3e 17 9d 4e bd 15 da 16 be 66 ab 47 bd
       0.24841325 -0.05044278 -0.14731629 -0.048747443
0003d0 69 15 16 3e ef 58 bf be c7 64 45 be e6 f6 ff be
       0.14656605 -0.37372538 -0.19276725 -0.49993056
0003e0 53 17 fa 3c cb 51 0a bf d6 21 4e be db 52 2f 3e
       0.0305287 -0.54031056 -0.20130095 0.1712145
0003f0 3f a1 1c be ed 39 4d 3e 1d 18 37 be 07 dc 5a be
       -0.15295886 0.20041628 -0.17880292 -0.21372996

fc2.bias f4 [128]
000000 2e ae c2 bd 67 da 63 be 2b ba 11 3d 8e 33 99 3d
       -0.095058784 -0.22251283 0.035577934 0.074805364
000010 98 cf 46 be 6e 2d c9 bd cb 97 2e bd 20 98 c3 be
       -0.19415128 -0.09823118 -0.04262523 -0.38202
000020 b0 30 b3 be 71 0d 1c be d6 7a 3a be 5f 3e 93 bc
       -0.34998083 -0.15239502 -0.1821092 -0.017974077
000030 e0 75 35 bd e8 a2 9e bd 72 a8 39 be 7f 6a 4a be
       -0.044301867 -0.07745916 -0.18130663 -0.19767188
000040 76 80 c1 be a2 b5 9d be 5d b4 89 be a3 56 0e be
       -0.3779332 -0.30802637 -0.2689542 -0.13900237
000050 bd 4e ff 3c 5e 85 63 be 3a f9 a6 bd 34 ba fc bc
       0.031165475 -0.22218844 -0.08153005 -0.030850507
000060 99 ab 40 be b8 9c 52 bc 1a 83 9d be c8 e8 26 3b
       -0.1881546 -0.0128547475 -0.30764085 0.0025468338
000070 c5 c2 03 be bd 6a 00 bf 08 e6 4c be 47 20 80 be
       -0.12867267 -0.5016287 -0.20009625 -0.25024626
000080 bf ce 89 be 6e 87 4b be 55 d8 0c be 12 39 4e bd
       -0.26915547 -0.19875881 -0.13754399 -0.050347395
000090 bd 90 42 3e db 84 4d be 71 55 fd 3b b5 ea 89 bd
       0.19000526 -0.20070212 0.0077311327 -0.0673422
0000a0 8a cc d0 bd 47 49 0b be 21 b3 5a be 6e af 94 bd
       -0.10195263 -0.13602172 -0.21357395 -0.07260023
0000b0 e6 38 5d 3c 82 9f e6 be 88 ec 08 bf 01 f5 b6 3c
       0.013502335 -0.4504357 -0.5348592 0.022333624
0000c0 dc 6e 53 be 45 9a 5b 3d 6e 9f 81 bd 3f d9 2a 3e
       -0.20647758 0.05361392 -0.06329237 0.16684435
0000d0 a7 1b 60 3d 75 af e6 bd 61 fb 75 3d 74 32 80 bc
       0.05471387 -0.112639345 0.060054187 -0.015649058
0000e0 54 4d 69 be 6a f3 43 bc 6f 22 67 3c 96 f5 60 3e
       -0.22783405 -0.01195989 0.014107331 0.21968684
0000f0 db 09 ac bd 5e b4 cb 3d b1 1a 74 be fa 73 3e bd
       -0.08400317 0.09946512 -0.23838307 -0.046497323
000100 be 59 04 3d 3a 41 fc bd 41 c2 57 be e3 0d 01 3e
       0.032312147 -0.123171285 -0.21070196 0.12602954
000110 99 d9 0c be 6b 8b 63 bd 4f a6 82 3e ba b6 d5 be
       -0.13754882 -0.05555288 0.25517508 -0.41740972
000120 19 18 5e 3d d9 bc 88 be 6c 1f 8e 3d 20 c7 bf be
       0.0542222 -0.2670658 0.06939587 -0.37456608
000130 2e 5d 9c be 1a 6a ad be a0 25 8d be 75 26 b9 be
       -0.3053984 -0.33870012 -0.27567768 -0.36162153
000140 d4 17 2f 3c c6 f2 22 3d dc 9b 15 bd 5e c1 84 3c
       0.010686833 0.039782308 -0.036525592 0.016205486
000150 62 4d 65 be d2 d7 8d bd 82 6e 64 be be 8b 7f be
       -0.223928 -0.0692593 -0.2230778 -0.24955651
000160 e8 f5 0f be 18 a3 95 be 00 fd b8 bd c2 08 f6 bd
       -0.1405865 -0.29225993 -0.09032631 -0.12013389
000170 02 d2 91 bd 13 11 94 3d a7 a1 98 be 77 ef 21 be
       -0.07120134 0.07229819 -0.2981083 -0.15814005
000180 78 34 7c bd dd 16 fd bc 41 97 90 3d 6e 66 96 3d
       -0.061573476 -0.030894691 0.070600994 0.07343756
000190 64 1e 4b be 9e aa 0e bd ff 6b 25 be fd ce 87 bd
       -0.19835812 -0.034830682 -0.16154478 -0.06631277
0001a0 24 02 cb be 5e 45 1f be 12 8a 10 be ef 09 4c bf
       -0.3965007 -0.15553805 -0.1411517 -0.7970266
0001b0 35 5b 8c be b4 c5 49 3d 2d a6 2b be ce 54 18 be
       -0.27413335 0.04926081 -0.1676261 -0.148761
0001c0 49 42 b5 be e6 4b be be 74 bc 55 3e 3d 6b 81 be
       -0.35402134 -0.3716728 0.2087267 -0.2527713
0001d0 ca f4 bd be f0 69 4e be 28 08 13 bc d0 f7 13 3d
       -0.37100822 -0.201576 -0.008974113 0.036125004
0001e0 7a 5d 1b be d2 78 69 be 98 02 83 bd 74 00 dd 3d
       -0.15172377 -0.22799996 -0.06396979 0.10791102
0001f0 83 ae 8a bc 95 30 b7 bd e2 16 8d 3d fb a3 87 be
       -0.016928917 -0.08944813 0.0688913 -0.26492295

fc3.weight f4 [2, 128]
000000 05 8f 6f 3e 2d cf 0a 3e 84 04 0a be 7e 99 6a bd
       0.23394401 0.13555594 -0.13478285 -0.057275288
000010 7c 0e 8e 3d 32 21 a6 bd 8a 4d ce be b4 65 00 bf
       0.069363564 -0.081118 -0.40293533 -0.50155187
000020 31 68 d9 be 56 07 06 bf 23 1e 9b 3e b0 b5 e0 be
       -0.42462304 -0.52354944 0.3029643 -0.43888617
000030 20 68 d2 3c c8 f9 b8 3e 55 55 85 be fd 7b 9c 3e
       0.025684416 0.36128068 -0.26041666 0.30563346
000040 2f bc 3d bf 61 3b 43 be 5c 1b 27 bf 7e e5 c0 3e
       -0.7411527 -0.1906562 -0.6527612 0.3767509
000050 0c 3c 99 bb 86 e4 b5 be e2 43 65 be 9f c6 3c 3c
       -0.0046763476 -0.35525912 -0.22389176 0.011521964
000060 99 84 5c be 8b 67 8f 3c 4f ba 38 3f c4 09 8c 3e
       -0.21534957 0.017505428 0.72159284 0.273512
000070 27 3c fa be 74 80 86 3e 84 b9 c3 be 37 ef 2d be
       -0.48874018 0.26269877 -0.38227475 -0.16985784
000080 4d c7 f6 be 4a 9f fa 3d 62 ea c6 3e 6a 93 c2 3d
       -0.4819893 0.12237413 0.38850695 0.09500773
000090 c7 21 86 be 5b e7 9f 3e 50 13 67 3e 15 be be bd
       -0.26197645 0.31231198 0.22565961 -0.09313599
0000a0 c7 9d c5 3c 20 ac 47 3d 82 7d 55 3e bf 6c 18 3f
       0.024123086 0.048748136 0.20848659 0.59540933
0000b0 6f f6 a5 3d 21 2e d5 be 7b 23 ec 3e 51 7d 79 be
       0.08103644 -0.41636756 0.4612082 -0.2436421
0000c0 8a bc 16 bd fc ae 19 3e a1 ce ca bd 02 3c f4 bd
       -0.0368009 0.15008157 -0.099026926 -0.11925508
0000d0 84 7e 54 be 71 fc 78 3e 97 6e cb be 64 35 a4 be
       -0.20751387 0.24315049 -0.3973281 -0.32071984
0000e0 26 2c 14 3d ce 5c 15 3e e8 87 03 3f d9 49 cf be
       0.036174916 0.14586183 0.5137925 -0.4048603
0000f0 19 d7 04 3d fd 35 c7 3d 31 f9 4c bf c6 71 03 bd
       0.032431696 0.09727094 -0.80067736 -0.032090925
000100 45 e2 fa bd 2a e9 00 be 07 05 08 bd e3 5e bc bd
       -0.12250189 -0.12588945 -0.03320792 -0.09197786
000110 77 07 0b 3d 30 b8 2e be 4a dc 5c bd 8b 94 c7 3e
       0.033942666 -0.1706245 -0.05392102 0.38980517
000120 4e 3b a2 3e c3 57 dc 3e 1f 7a 83 be 32 8e 25 bf
       0.3168587 0.43035707 -0.25679109 -0.646701
000130 42 af 66 3e 39 05 46 bf 9e 1f 0c bd 96 f6 51 bf
       0.22527793 -0.7735172 -0.03420984 -0.82016885
000140 ab 58 8d 3c 7a e8 64 be a6 cd 15 3d 5f dc 18 3f
       0.017254194 -0.22354308 0.036573075 0.5971126
000150 ff 66 ae 3e f9 d7 ea 3d d7 bb 9d 3e 4a c8 f1 3c
       0.34062955 0.11466975 0.30807373 0.02951445
000160 c7 36 17 3f 85 94 34 3f dd b4 23 3d f9 84 af 3e
       0.5906796 0.7053912 0.039967407 0.34281138
000170 f5 aa d3 3e 47 d8 d3 3d ce f2 32 3f c4 03 34 3e
       0.41341367 0.10343986 0.6990174 0.17579561
000180 df e9 bc 3d ad 06 a5 be 2a bc 0f bd 42 e0 9e 3d
       0.09224295 -0.32231656 -0.035091557 0.077576175
000190 b1 9c 55 3e 91 cc 0d bf 8b 8a d6 3e 4a a3 92 be
       0.20860554 -0.5539027 0.41902575 -0.28640205
0001a0 05 34 03 3f 05 20 72 3e 60 46 15 3e 5e f2 a6 3e
       0.5125125 0.23645027 0.14577627 0.32606786
0001b0 ef 5d 5f 3f c2 52 aa be aa 81 40 3e e5 00 80 be
       0.87252706 -0.33266264 0.18799463 -0.25000682
0001c0 67 5f 2a bf 3e 05 15 3f 76 4b 15 be 6d 46 d0 be
       -0.6655182 0.58211124 -0.14579567 -0.4067873
0001d0 93 07 34 bf e9 b9 be 3d 47 0a 00 3f 8f e5 09 be
       -0.7032406 0.09312803 0.5001568 -0.13466476
0001e0 57 03 e4 3e 53 ad 9b bc 8e b9 10 3f 22 ec aa be
       0.44533798 -0.019003546 0.56533134 -0.3338328
0001f0 44 02 cb 3d 30 97 ab 3d d6 20 64 be d9 28 04 bf
       0.099125415 0.08378446 -0.22278151 -0.5162483
000200 e6 e8 05 bf 92 aa ba 3f 08 55 b6 bd 89 b9 5d bd
       -0.523085 1.4583304 -0.08902937 -0.05413202
000210 3a a3 38 3f e4 4e 90 be 7b 17 07 3e 74 d6 95 be
       0.72124064 -0.2818519 0.13192551 -0.29265177
000220 63 e8 9b be 51 0d fb 3d 78 06 02 3f 0b 4c ba 3d
       -0.30450734 0.12258399 0.5079112 0.09096535
000230 34 d6 ae 3e 3f 5b dd 3d 72 ea be 3e 4f 52 04 3e
       0.341478 0.108084194 0.37288243 0.12922023
000240 ae 3c 99 be d4 b3 e7 bc 96 6b e2 be 5c 23 de 3d
       -0.29929107 -0.02828399 -0.44222707 0.10846588
000250 22 b8 50 bf 9c 7a 02 3e 76 8b 19 bf c9 63 01 3f
       -0.81530964 0.12742084 -0.59978426 0.50542885
000260 a4 36 1d bf 04 d8 d2 3e 6f 3d 4f bf db 02 56 be
       -0.614115 0.41180432 -0.80953115 -0.20899527
000270 32 37 cf 3e 63 e7 3f 3f c1 3f 3c be 73 f9 08 bf
       0.40471798 0.74962443 -0.18383695 -0.5350563
000280 a8 fa ff bd 8f 7a 25 bf d4 8d 10 bf 9b a2 ba 3e
       -0.12498981 -0.64640135 -0.5646641 0.36452183
000290 37 56 b0 be 71 91 2e 3f 2d 83 4b 3d 34 86 08 bf
       -0.34440777 0.68190676 0.049685646 -0.5332978
0002a0 ae d0 1a bf a1 84 35 bf bb c3 87 be c3 e0 9a 3f
       -0.6047467 -0.709055 -0.26516518 1.2099842
0002b0 ea 49 8a 3e b6 b7 d0 be 72 77 dd 3e b5 06 f3 be
       0.27009517 -0.4076516 0.43255192 -0.47466055
0002c0 ba 2d df be 46 21 75 bf 62 f7 52 3f aa 64 e0 be
       -0.43589574 -0.95753896 0.82408726 -0.438268
0002d0 49 c2 4a be 04 5d 80 3e 6e 9a 62 be af 35 9c 3d
       -0.19800676 0.25070965 -0.22129223 0.07627427
0002e0 80 df a7 3d 7e 94 ec be 5c eb 23 bf 27 f5 3f be
       0.08196926 -0.4620704 -0.64031005 -0.18745862
0002f0 b3 c1 14 bf 59 60 1b 3f 6d 6f 13 3f aa d3 8a be
       -0.5810806 0.6069389 0.575919 -0.27114612
000300 bf f2 1f be 24 94 0e bf 7c 5a 06 3f 8c 18 cb 3e
       -0.15619944 -0.55694795 0.5248182 0.39667165
000310 ee ea c9 3e 9c 18 16 be 7a 01 dc be ca 4c cc 3e
       0.3943705 -0.14657825 -0.42969877 0.39902335
000320 a3 6f b2 be c7 69 54 3f 3a 26 17 be b4 e6 12 be
       -0.34850797 0.82973903 -0.14760676 -0.14345819
000330 4a 4c 66 3e f0 8b a5 3e 3c 65 08 3f e3 64 dc 3d
       0.2249004 0.32333326 0.5327947 0.1076143
000340 4e 5f ea be 7b 22 4b 3e af 55 59 3e f1 39 27 be
       -0.45775837 0.19837372 0.21224092 -0.16330697
000350 06 86 f4 bd f7 80 90 3e b2 2b 4b 3f cd 48 ce 3e
       -0.119396254 0.28223392 0.7936355 0.40289918
000360 1b d5 4b 3f 16 0f 2e 3f 70 61 28 3f 6d b7 ec 3e
       0.7962205 0.6799177 0.6577368 0.46233693
000370 8d 9b 90 be 10 14 2e 3f 4c 4a 8f be 98 b5 25 be
       -0.28243676 0.6799936 -0.27986372 -0.16182554
000380 64 1f ba 3e e5 b1 37 bf 01 8b cb 3e a9 bf e1 be
       0.36352074 -0.7175582 0.3975449 -0.44091538
000390 45 46 81 be 61 c9 80 3e f4 6d 9b 3b 75 fe dd 3d
       -0.25248924 0.2515364 0.004743332 0.108395495
0003a0 50 fb b2 3d ad f8 e7 3e 2b 5f 56 be eb 41 ec 3e
       0.0873934 0.45306912 -0.20934741 0.4614404
0003b0 28 0a 3b 3d e9 85 47 be f3 bf 03 3f d6 7b e6 3e
       0.045663983 -0.19484676 0.51464766 0.45016354
0003c0 5b 46 2b be 6e 15 46 3f ca ef ce be c6 22 af bc
       -0.16726057 0.7737645 -0.4041732 -0.021378886
0003d0 7f 2c 87 bd 34 52 1a 3f c4 6b 29 be ec 69 ce be
       -0.06600284 0.6028168 -0.16545016 -0.40315187
0003e0 b5 bd 60 3f c4 61 5c 3f ff c2 92 be 7c 7f 0d bc
       0.8778947 0.8608668 -0.28664395 -0.008636352
0003f0 b3 32 fd 3e 0a 5f 08 bf 01 23 93 3d 75 6d 7d 3f
       0.49452743 -0.5327002 0.07184411 0.98995143

fc3.bias f4 [2]
000000 8d e8 70 be e4 ed d9 3d
       -0.23526211 0.10641077

bn.weight f4 [256]
000000 ff bb e5 3f 5a 82 30 3f a9 5a 73 3f c7 22 99 3e
       1.7947997 0.689489 0.9506021 0.29909346
000010 4f b6 2c 3f 0c f0 e0 3e bd fd 6c 3f 68 87 9b 3f
       0.6746568 0.4393314 0.92574674 1.2150698
000020 40 ff 6e 3f 12 a9 58 3f 18 4d 04 3f ac fd 17 3f
       0.9335823 0.8463298 0.51680136 0.5937145
000030 c7 67 7a 3f eb e2 81 3e fe f1 90 3f 53 69 61 3f
       0.978146 0.25368437 1.132385 0.88051337
000040 ae 1b 8a 3f 0f 1f f5 3e d9 9b 3c 3e 03 b3 52 3f
       1.0789697 0.47875258 0.18418826 0.823044
000050 e2 33 96 3e a3 d2 d5 3e 69 ae 83 3f 83 60 97 3e
       0.29336458 0.41762266 1.0287601 0.2956582
000060 76 7d ea 3e d8 cc e8 3e 77 c6 f2 3c 4d 47 96 3f
       0.45798844 0.45468783 0.029635651 1.1740509
000070 ea 10 12 3f 78 ff 2f 3f 49 8d ea 3e da 0d 21 3f
       0.5705706 0.6874919 0.45810917 0.6291176
000080 41 35 6d 3f d9 3a 7a 3f 57 3a 55 3f 71 b6 13 3f
       0.92659384 0.97746044 0.83292145 0.5770026
000090 71 f2 51 3e 0c d3 50 3f 49 bd 9c 3e e0 2f 62 3f
       0.2050264 0.8157203 0.30613163 0.883543
0000a0 3e 0f 32 3f a5 5c 10 be 79 8d b7 3e a8 d8 41 3f
       0.6955451 -0.14097841 0.35850123 0.75721216
0000b0 2d c1 e4 3f d6 29 4f 3f ae 46 30 3f a5 d0 2b 3f
       1.7871453 0.8092321 0.6885785 0.6711524
0000c0 49 5c f7 3e aa c0 6c 3f 11 c1 57 3f cb ea be 3c
       0.48312595 0.9248148 0.8427897 0.023305317
0000d0 67 32 5d 3f d5 44 88 3f c9 fe 31 3e 19 89 92 3e
       0.8640503 1.0646006 0.17382349 0.28620222
0000e0 9d 10 a8 3e 54 60 95 3f 16 41 30 3e 3d e8 06 3e
       0.32825175 1.1670022 0.17212328 0.1317453
0000f0 03 2a 54 3f 33 a8 d0 3f 4f c0 5c 3f cf f5 d4 3d
       0.82876605 1.630133 0.8623094 0.10398447
000100 8b 6a 6a 3f 23 6b d1 3e 7d 6a 00 3f cf 48 2b 3e
       0.9156882 0.4090205 0.5016249 0.16726993
000110 55 b0 c8 3f 6d b5 da 3e 21 fc 18 3f 9d a6 d8 3f
       1.5678812 0.42716542 0.5975972 1.6925846
000120 c8 f4 82 3f 52 e9 4a 3f 38 44 31 3f c2 38 92 3e
       1.0230951 0.7926227 0.6924472 0.28558928
000130 12 e8 93 3e e8 92 98 3f e4 09 09 3f 6d 7d e5 3e
       0.28887993 1.1919832 0.53530717 0.44822255
000140 f6 ca e6 3e 20 49 66 3f 07 d9 2f 3f 1c 0d a2 3e
       0.45076722 0.8995533 0.6869053 0.31650627
000150 2f 1d 2e 3f 05 d0 36 3f bd ab 99 3b 45 c1 39 3f
       0.6801328 0.7141116 0.0046896623 0.7256053
000160 5d 54 3f 3f 02 b4 6d 3e 8b ce 15 3f 41 f7 5c 3f
       0.74738103 0.23213199 0.58518285 0.8631478
000170 50 6c cc 3e c7 0b ae 3f 21 bc 74 3f b3 4b 36 3f
       0.39926386 1.3597344 0.9559956 0.7120926
000180 6b d8 36 bf 1a 0d 00 3f 6a 61 9d 3f c1 c5 6c 3f
       -0.7142398 0.5001999 1.2295353 0.9248925
000190 bc 6a 37 3f d0 92 b1 3e 09 fa b5 3e 98 8a 0b 3f
       0.7164724 0.34682322 0.35542324 0.5450835
0001a0 e8 98 34 3f 9a 37 00 3f 9e 1b 78 3f 72 53 21 3f
       0.70545816 0.5008484 0.9691714 0.6301795
0001b0 64 f9 a4 3f 81 c1 56 3f 9c 48 92 3f 27 00 6a 3f
       1.2888608 0.83889014 1.1428409 0.9140648
0001c0 25 a5 44 3f 6a d1 48 3f ec b3 46 3f d5 82 63 3e
       0.7681449 0.7844454 0.7761829 0.22217877
0001d0 e0 c7 84 3d 4c ed 60 3f c6 46 55 3f 19 b4 1a 3f
       0.06483436 0.87862086 0.83311117 0.6043106
0001e0 e5 c4 19 bc a8 0e 38 3f 76 d7 51 3e 9e bf 5d 3e
       -0.009385322 0.71897364 0.20492348 0.21655127
0001f0 1d cc 0b 3f 8a 43 60 3f e7 66 0c 3f 11 30 33 3f
       0.5460833 0.87603056 0.54844517 0.6999522
000200 97 a8 44 3e 99 38 71 3f 9a e5 57 3f 2c 84 81 be
       0.19204937 0.94226986 0.8433472 -0.25296152
000210 22 b8 0d 3f 10 76 87 3f cc 74 82 3f 0b 8e 08 3e
       0.5535909 1.0582905 1.0191894 0.13335435
000220 2c 91 de 3e 56 72 14 3e 3d 6a 79 3f 2e 42 5c 3f
       0.43470132 0.1449674 0.9742773 0.8603848
000230 76 04 2d 3e 69 7b 31 3f af 24 d0 3f 01 23 89 3e
       0.16896233 0.69328934 1.6261195 0.26784518
000240 e8 bc 90 3f 64 fa 7e 3f 16 ef 80 3f 94 6c a8 3e
       1.130765 0.99600816 1.0072963 0.3289534
000250 4c 0b 36 3f 6e 1a bf 3e bf e4 46 3f fd 86 29 3f
       0.7111099 0.37324852 0.7769279 0.662216
000260 50 54 24 3f ca a0 3a 3f 68 8d 58 3f 0a 0e 3c 3f
       0.6419115 0.72901595 0.8459077 0.7345892
000270 0b 43 33 3d dc c4 95 3f 7d 2f ef 3e fc 5b 3b 3d
       0.04376511 1.1700702 0.46715918 0.04574202
000280 1b 94 f1 3e 1e 05 4a 3f ef cd be 3f 69 a1 37 3f
       0.47183308 0.7891406 1.4906596 0.7173067
000290 a4 63 67 3f 19 62 e8 3e 70 88 5b 3f 4d f6 87 3f
       0.90386415 0.45387343 0.8575506 1.062204
0002a0 62 6a 2a 3f 1c bb 81 3f 3c 2f ac 3e 89 57 c5 3e
       0.6656858 1.0135226 0.33629787 0.38543347
0002b0 fb 4f 6b 3f 73 00 21 3f 89 62 f0 3e 06 b4 05 3d
       0.91918916 0.6289131 0.46950176 0.032642387
0002c0 08 70 4d 3e c6 01 65 3f a2 17 a6 3e 50 48 4a 3c
       0.20062268 0.8945583 0.32439905 0.012346342
0002d0 22 ee 9e 3d ea b1 9f 3f 87 82 e1 3e 66 6b 97 3f
       0.07760264 1.247617 0.44044897 1.182965
0002e0 f1 36 44 3e 79 80 1f 3f 65 fd 39 3f 8a 78 6a 3f
       0.19161583 0.6230541 0.72652274 0.9159018
0002f0 1b b1 dd 3e 01 ba 8f 3e a9 a8 92 3f 78 71 42 3f
       0.43299183 0.28071597 1.1457721 0.7595439
000300 f0 b6 b7 3e 7a e2 5d 3f 90 e6 3f 3f 86 32 2d 3f
       0.35881758 0.866737 0.74961185 0.6765522
000310 f4 7a b1 3e 14 28 04 3f 75 98 8e 3f dc c6 c1 3e
       0.34664118 0.51623654 1.1140276 0.3784703
000320 c5 88 6d 3f 14 c7 63 3f 91 a6 36 3f f7 62 d7 3e
       0.9278682 0.88975644 0.7134791 0.42067692
000330 dc 54 84 3f 0a 82 45 3f 3f 4b 6c 3f f1 40 ed 3e
       1.0338397 0.7715155 0.92302316 0.4633861
000340 e4 48 84 3f fd 64 15 3f ff b2 34 3f 58 d2 1b 3f
       1.0334744 0.5835722 0.70585626 0.60867834
000350 72 6f 29 3f c8 c3 9e 3f e4 b1 97 bd 6d c3 3d 3e
       0.6618568 1.2403498 -0.07406977 0.1853158
000360 3b c8 1f 3f 75 bf 69 3f 8f dc 4a 3f 12 8d 86 3e
       0.624149 0.91307765 0.79242796 0.26279503
000370 16 6d 1a 3f be ef 59 3f 62 14 2d 3e b8 9a 6a 3f
       0.603227 0.8513144 0.16902307 0.9164233
000380 b5 ca b2 bd ad 7f 63 3f 87 e2 82 3f ed 16 4f 3f
       -0.087300695 0.8886669 1.0225381 0.80894357
000390 c3 07 1f 3f 31 6e c0 3f 68 3f 3f 3f 83 df 12 3f
       0.6212122 1.5033628 0.74706125 0.573723
0003a0 84 e7 f6 3e 7f 84 16 3f dc 73 7e 3f 79 8f 83 3f
       0.48223507 0.58795923 0.9939554 1.0278159
0003b0 78 ca 34 3f fb dd fb 3e 81 94 9c 3f b4 6b 9c 3f
       0.7062144 0.49192795 1.223282 1.2220368
0003c0 c4 7b 0b 3f d6 35 fd 3e 01 6d 9b 3e 45 2f 4e 3f
       0.54485726 0.49455136 0.303566 0.8054088
0003d0 94 67 52 3f b1 76 87 3f cb 8d 06 3f 79 a3 cb 3e
       0.821893 1.0583097 0.5256011 0.39773157
0003e0 f0 2e 7a 3f 9b 22 84 3f 06 9f 63 3f f8 d4 85 3f
       0.9772787 1.0323061 0.88914526 1.0455618
0003f0 5b 1e a3 3f 94 72 01 3f de e8 7e 3e 5e 37 16 3f
       1.2743639 0.5056546 0.2489352 0.58678234

bn.bias f4 [256]
000000 2c 77 5e 3e 1c 2f e0 3e 45 d4 94 3d f4 2a ae 3e
       0.21725148 0.43785942 0.0726705 0.34017146
000010 20 a0 8c 3d 40 b0 5f bd aa ac ba bc bf 16 f9 3d
       0.06866479 -0.054611444 -0.02278741 0.121625416
000020 db 70 07 3e 40 71 9e 3c 64 bc 22 3e f9 8e 49 3e
       0.13226645 0.019341111 0.15892178 0.19683446
000030 cd 34 67 3e 3e 94 da 3d b8 0b 39 3e eb da 11 be
       0.22578736 0.10672806 0.18070877 -0.14243667
000040 d0 7f 98 3d a2 a9 55 3e 87 78 95 be 5e c9 65 3e
       0.07446253 0.20865491 -0.29193518 0.22440097
000050 c2 60 b4 3d 81 45 90 bd 4c 8a bb 3d 63 a1 b1 3d
       0.088075176 -0.07044507 0.091572374 0.0867336
000060 42 7d 8e 3d 31 ba 27 be 9a 43 c4 3e fc c4 c5 3e
       0.06957485 -0.1637962 0.38332826 0.3862685
000070 23 a7 8a 3e a6 75 e0 3e b7 35 5d 3d 3d 9f 42 bd
       0.2708064 0.4383976 0.054006305 -0.047515143
000080 8a 61 57 3e 73 fc e3 3d 2d 5d f8 3e 02 a8 84 3d
       0.21033302 0.11132135 0.48508587 0.064773574
000090 47 85 61 3d cc 4b c1 3d 69 9f 3f 3e 39 6c 23 3e
       0.055058744 0.09438285 0.18713154 0.15959252
0000a0 65 dc dc 3e 8b e8 90 3e f3 4d 04 3e fa a1 54 3e
       0.43136898 0.28302416 0.1292036 0.20764914
0000b0 f4 58 b4 3e 0f 08 e0 bd c3 25 1c bd cd 2b 07 3d
       0.35224116 -0.10939037 -0.03812195 0.033000756
0000c0 ca 8f 6b 3e 9f 08 10 3e 2b 9f c7 3e a0 19 5b 3b
       0.2300407 0.14065789 0.38988623 0.0033432022
0000d0 56 15 71 3e f7 02 ff 3d 2e c2 5f be 81 a6 ae 3e
       0.23543295 0.124517374 -0.21851417 0.34111407
0000e0 b9 e4 8c 3e 8c 34 00 3e 9a 5b ba 3d ad 36 2b 3e
       0.27518252 0.12520045 0.09099503 0.16720076
0000f0 c0 bd 1b bd 4b 3a c6 3d e4 fd 79 3d 08 7a e4 3c
       -0.038022757 0.09679087 0.061033145 0.02789022
000100 7c 3c 27 3d db 2a 94 be ae 23 46 3e af a9 6f bd
       0.040829167 -0.28938946 0.19349548 -0.058511432
000110 00 a2 2f 3e fe 5e 1e 3e 48 3f a2 3d d5 bb 68 3e
       0.17151642 0.15465924 0.07922226 0.22727902
000120 98 66 7d 3d 93 72 bb 3d 29 8d 89 3e a6 71 f9 3e
       0.06186542 0.09152713 0.2686551 0.4871952
000130 71 2b 97 be 78 43 c8 bd 54 50 39 3e 6e 9e 41 3d
       -0.2952533 -0.09778494 0.18097049 0.04727023
000140 10 e0 44 3e a3 51 23 3e e8 bf a4 3d 9a 59 4f 3e
       0.19226098 0.1594911 0.08044416 0.20249024
000150 68 46 0e 3d 2f 86 17 3e 6f d4 5b bc ca 58 4c bd
       0.034735113 0.1479728 -0.013417347 -0.049889363
000160 32 10 1b 3e ae 0f 21 bd 9d a4 6d 3e 9b a8 8e 3e
       0.15142897 -0.039321594 0.23207326 0.2786301
000170 7d c5 a0 be f2 3e 09 3e 7c 1c c0 3d 18 15 14 3d
       -0.31400672 0.13402918 0.09380433 0.03615293
000180 f6 09 9d be 01 22 9e bd 36 68 87 3e 16 b1 9a 3e
       -0.30671662 -0.077213295 0.26446694 0.3021323
000190 ff 86 84 3e b4 de d0 bd ca 52 97 3e 09 35 5e bd
       0.25884244 -0.10198727 0.2955535 -0.054249797
0001a0 c0 e8 6a be d7 fe 30 3e f7 5f ab 3d 3a 8b dc 3c
       -0.2294035 0.17284714 0.08367913 0.026921857
0001b0 1b 94 91 3d c4 8f 6d 3e b7 83 b1 bd 58 69 d3 3d
       0.07108327 0.23199373 -0.08667701 0.10322827
0001c0 a1 d1 64 3d d2 b2 85 3e 6b 05 a9 3e 98 16 cb bd
       0.05586398 0.26112992 0.33011946 -0.09916419
0001d0 19 5e 8d 3e 6b 8b aa 3c 13 c7 5c bd 84 61 c4 3c
       0.27610853 0.020818433 -0.05390079 0.02397228
0001e0 d5 b9 16 bc ed e7 52 3e 6a b5 b8 3e 37 d7 e4 bc
       -0.009199579 0.20596285 0.36075908 -0.027934654
0001f0 5d b7 3f bd 17 78 50 bd 9e 35 0c 3d 13 1f af 3e
       -0.04680573 -0.050895777 0.03423082 0.34203395
000200 da 8e a2 3e 65 96 20 3d 54 6b 90 3e 15 04 b6 be
       0.31749612 0.039205927 0.28206885 -0.3554999
000210 4c 88 d7 3e 8d 32 a2 3d 02 ff 16 3e 09 03 a5 3d
       0.42096174 0.07919798 0.14745715 0.080572195
000220 0f 71 9a 3d a9 b6 05 bf 5a 48 31 be 4a 44 1e 3e
       0.075410955 -0.5223184 -0.17312756 0.15455738
000230 a2 d4 9f bc 18 0a 78 3e 9c 6f bb bc f0 7c bf be
       -0.01951057 0.242226 -0.022880368 -0.37400007
000240 b4 f9 86 bd af c7 30 3d 3c 85 36 3e 51 cd 53 3e
       -0.06590596 0.043159183 0.17824262 0.2068379
000250 1a d2 85 3e 53 96 32 3e a4 e1 0f 3e 7f 32 52 3e
       0.26136857 0.17440157 0.14050919 0.20527075
000260 8f 73 15 3d 4b 76 98 3e cd 9f e6 3b 2c a0 1c 3e
       0.03648716 0.2977775 0.0070380927 0.15295476
000270 e7 ff 72 bc 19 52 03 3e 0d ca 4f 3c 6c c6 d4 3b
       -0.01483152 0.12824287 0.01268245 0.0064933803
000280 a0 ab 88 3e 42 20 26 be 89 8e 6e bc 2f 22 45 3e
       0.2669344 -0.16223243 -0.01456035 0.19251321
000290 a3 4a ae bb f7 d5 b9 3d d3 97 e4 3d a9 73 14 be
       -0.005318956 0.09074014 0.11161771 -0.14497246
0002a0 e9 a6 15 3e 57 c4 9a 3e f6 da 58 3e 3c c3 0d 3d
       0.14614452 0.3022792 0.21177277 0.034610018
0002b0 ac 77 37 3e 25 94 a2 bd 16 24 06 3e 47 a8 20 bd
       0.17916745 -0.079384126 0.13099703 -0.03922298
0002c0 58 d3 fd 3d f8 96 b8 3d 99 55 00 3d a3 ba 7f bb
       0.12393826 0.0901317 0.031331632 -0.0039021156
0002d0 4d 47 5b be c3 48 5c 3d fd 9f 24 3e 23 b3 03 3e
       -0.21413918 0.05378033 0.16076656 0.12861304
0002e0 8d 0b a1 3d c5 b7 ca ba 16 ac b1 3c ae 69 3d be
       0.07863531 -0.0015466145 0.021688502 -0.18497345
0002f0 9f c0 44 3d 49 b0 84 bd bc 63 c5 3e b4 76 51 3e
       0.04803526 -0.06478936 0.38552654 0.20455438
000300 bc 71 e0 bd 91 0c ea bc cf 65 b6 3d 50 39 98 bd
       -0.10959193 -0.028570445 0.08906137 -0.074328065
000310 a0 95 47 be 90 53 11 3e 2d d4 99 3e 5b 9a f0 bd
       -0.19490671 0.14192033 0.3004469 -0.11748191
000320 3f a2 3c 3e 77 fa e8 bc 4e 5a b6 bb a0 26 48 be
       0.18421267 -0.028439743 -0.0055649644 -0.19545984
000330 a6 dc 24 3e af e7 9b 3e 54 08 fc 3c 39 dd 91 3e
       0.16099796 0.30450198 0.03076569 0.28489092
000340 f2 2f 12 3f 66 02 3a 3e bb 05 fa 3c 30 01 0e 3e
       0.5710441 0.18164977 0.03052031 0.1386764
000350 93 14 f5 3d e3 e2 a9 3d 7a 8c df 3e 10 ca c4 3e
       0.11966815 0.08295228 0.43661863 0.3843541
000360 42 84 0b 3e 3b f7 dc bb 6f 2b 28 3d 48 2a d1 bd
       0.13624671 -0.0067433394 0.041057047 -0.10213143
000370 12 db 78 3e 30 40 e0 3e 08 ae 4c 3c 92 3e 15 3d
       0.24302319 0.4379897 0.012492664 0.036436625
000380 2c 2c 3e be c7 53 4e 3e 83 bb 2c 3f 54 1a 9b be
       -0.18571538 0.20149146 0.6747362 -0.30293524
000390 9a 44 62 3e ad 4d b3 bd 9f 6a 8b 3d 1f e9 c9 3e
       0.22096482 -0.0875505 0.06807446 0.3943567
0003a0 79 70 bd bc 7b 07 af 3e f5 1f 12 bc 68 0e c4 3e
       -0.02312492 0.34185395 -0.008918752 0.3829224
0003b0 65 11 54 3e 8c fd 02 3e b5 dd c9 3c 12 46 db 3c
       0.2070976 0.12792033 0.024641851 0.02676681
0003c0 a1 bf 26 3e d3 ca b4 3d 60 a7 6b bd dd d4 2e 3e
       0.16284038 0.08827748 -0.057532668 0.17073388
0003d0 99 9f b8 3e 85 d7 67 bc d1 a7 b6 3d 20 3a 02 3e
       0.36059263 -0.014150505 0.08918727 0.12717485
0003e0 19 c1 bc 3c 3b ab b3 bd 77 37 fd bd d0 cc 1a 3d
       0.023041295 -0.08772894 -0.12364095 0.03779298
0003f0 32 a8 6e 3e 56 09 f1 bd 49 1f 81 3e 3a 2b 63 3d
       0.23306349 -0.11769359 0.2521918 0.055461146
