checkpoint_maddpg_critic_agent_1.pth (torch_old, 192202 bytes, 9 tensors)

fc1.weight f4 [256, 52]
-0.11564501 -0.3149802 0.12548345 -0.3084416 -0.14330325 -0.62756634 0.122748666 -0.32637
0.18789168 -0.13333069 0.098263174 -0.014540209 -0.17059578 -0.003367767 0.16407585 -0.06585226
0.28024605 0.037549302 -0.03589415 -0.110102445 -0.33714226 0.9867135 0.036621038 -0.17855453
-0.274866 -0.3686714 0.08937991 -0.23543993 0.1366859 -0.5114823 0.018269321 -0.25742516
-0.06152164 -0.14340761 0.044382267 -0.25264752 0.1732514 0.027335975 -0.050559632 -0.1663294
0.026299216 -0.25890812 -0.0063837874 -0.045103267 0.41987604 0.9838629 0.042452246 -0.03128995
1.0210695 -0.37223554 -0.35244825 -0.35036626 0.59485084 0.2658128 0.00020358499 -0.20669438
-0.24029146 0.026463287 0.036606282 -0.25912407 0.22757243 0.10221648 -0.052549485 -0.45796284
-0.11984653 -0.06067492 -0.020433204 -0.55695635 0.2853116 0.05603172 0.12362088 -0.03880784
-0.08665305 -0.5083537 0.19202957 -0.047181576 0.2262016 0.6532053 0.1811315 -0.06861499
0.23760262 -0.046959803 0.073325984 -0.1722696 0.10570096 0.4235759 0.05098661 -0.45733333
0.22367935 -0.040658943 0.07406996 -0.42215773 0.32823515 0.38990042 0.14692959 0.37188852
0.055550344 -0.4675086 0.15188071 0.4167636 0.6137144 -0.7850781 -1.668672 -0.046826977
0.06995966 -0.09362831 -0.012307703 -0.07436301 0.93331814 -0.08048574 -0.08098709 -0.09766027
0.58595186 -0.1710313 -0.02101362 0.07632729 0.30097207 -0.33533758 -0.02322826 0.054838978
0.49718276 -0.16141714 -0.0029212313 0.0671016 -0.54020804 -0.39506984 -0.013561588 0.053310566
-0.1410867 -0.15549982 0.048919067 0.5794125 -0.90602624 -0.10062256 -0.016528286 0.5624527
-0.18115097 0.055535927 -0.051339407 0.25916874 -0.32747808 -0.38000113 0.058434337 0.15076202
-0.21810889 0.05410169 0.018544309 0.16723672 0.6368538 -0.32839113 0.010825068 0.15385558
0.07765971 0.06824649 0.7243389 -0.44054937 -0.16473673 0.09033726 -0.0058377143 -0.27726007
-0.19920632 -0.25005084 0.076882996 -0.25409946 -0.06811665 0.043571893 -0.1729258 -0.2624407
-0.06474549 -0.36985782 -0.13194491 -0.27536955 -0.12669499 0.11650225 -0.037491634 -0.06103512
-0.04898618 -0.9542644 -0.07678818 -0.10603076 -0.011300392 -0.2315885 -0.104372084 0.21353523
0.19075169 -0.23065245 -0.1882203 0.2219726 0.1697118 -0.18214752 0.27396533 0.27717513
0.12729329 -0.3568869 0.19074257 0.28051627 0.12742989 -0.24824591 -0.01711566 -0.050261404
0.035942975 -0.95257556 0.059281576 -0.08324237 -0.8233914 1.4877661 1.1182866 0.5919307
0.57491434 0.10504362 0.0020827265 0.18222879 -0.16651517 -0.04078542 -0.008301762 0.26546007
0.6117681 0.2558927 -0.04880531 0.028198779 -0.13107271 -0.14483003 -0.04374359 -0.005413181
0.5598941 0.5002687 -0.047740955 0.8134026 -0.076006085 -0.20833097 -0.102232404 0.77190745
0.2794714 0.44049832 0.17447637 -0.12399042 0.14931904 -0.04078504 0.14812902 -0.03161769
0.32055038 0.44302654 -0.041933745 0.026769415 0.11742845 -0.10264857 0.0065251617 0.06938644
0.34367558 0.25966108 -0.051964417 -0.4491263 0.12953942 -0.1953933 0.0041597504 -0.50195324
00000000: 4ad7 ecbd 1645 a1be bc7e 003e 0fec 9dbe
00000010: 16be 12be 30a8 20bf a763 fb3d f819 a7be
00000020: ad66 403e d787 08be 343e c93d 0f3a 6ebc
00000030: a9b0 2ebe c1b5 5cbb 8003 283e 8ddd 86bd
00000040: 697c 8f3e 4ccd 193d bf05 13bd 647d e1bd
00000050: e99d acbe 4299 7c3f f1ff 153d 00d7 36be
00000060: 3dbb 8cbe 7fc2 bcbe d00c b73d 2a17 71be
00000070: 63f7 0b3e 81f0 02bf 8ba9 953c 3bcd 83be
00000080: 1dfe 7bbd 72d9 12be 2eca 353d 045b 81be
00000090: d168 313e b2ef df3c 9e17 4fbd 4152 2abe
000000a0: 7471 d73c 9b8f 84be 172f d1bb 34be 38bd
000000b0: fef9 d63e 70de 7b3f 68e2 2d3d e429 00bd
000000c0: 68b2 823f a895 bebe 1974 b4be 3563 b3be
000000d0: 2548 183f 9e18 883e 6e79 5539 b1a7 53be
000000e0: f70e 76be 89c9 d83c 78f0 153d e9ab 84be
000000f0: bf08 693e e056 d13d 213e 57bd 1b7a eabe
00000100: 1972 f5bd 4486 78bd 8963 a7bc b194 0ebf
00000110: 5d14 923e 8481 653d f22c fd3d f8f4 1ebd
00000120: 2777 b1bd 7823 02bf 66a3 443e 7841 41bd
00000130: 64a1 673e 7638 273f 897a 393e 0486 8cbd
00000140: 1a4e 733e ec58 40bd ef2b 963d 7167 30be
00000150: bf79 d83d f1de d83e 56d7 503d 9827 eabe
00000160: 330c 653e fe89 26bd feb1 973d 0f25 d8be
00000170: 700e a83e 07a1 c73e b674 163e 2c68 be3e
00000180: c288 633d 4a5d efbe 9e86 1b3e 0a62 d53e
00000190: 631c 1d3f e1fa 48bf 0b97 d5bf a5cd 3fbd
000001a0: 0347 8f3d 33c0 bfbd 3fa6 49bc a24b 98bd
000001b0: f0ed 6e3f b5d5 a4bd 8fdc a5bd 1c02 c8bd
000001c0: f100 163f d422 2fbe c124 acbc 7b51 9c3d
000001d0: 0319 9a3e 5eb1 abbe 3149 bebc d69e 603d
000001e0: bd8e fe3e 894a 25be 2172 3fbb 906c 893d
000001f0: 134b 0abf 9846 cabe 6c31 5ebc 2e5c 5a3d
00000200: 0879 10be 583b 1fbe 5c5f 483d 6154 143f
00000210: 56f1 67bf 3313 cebd 5466 87bc e6fc 0f3f
00000220: a47f 39be a479 633d 4549 52bd c4b1 843e
00000230: 35ab a7be 828f c2be d858 6f3d 5c61 1a3e
00000240: f057 5fbe bc99 5d3d 3cea 973c 1a40 2b3e
00000250: da08 233f e222 a8be a05b 313c 518c 1d3e
00000260: 0e0c 9f3d d1c4 8b3d 466e 393f b08f e1be
00000270: bfb0 28be be02 b93d 4c4a bfbb 08f5 8dbe
00000280: befc 4bbe aa06 80be d574 9d3d 5319 82be
00000290: be80 8bbd 7178 323d 7613 31be a15e 86be
000002a0: 4999 84bd 015e bdbe 911c 07be 3dfd 8cbe
000002b0: 55bc 01be bb98 ee3d d490 19bd f6ff 79bd
000002c0: bca5 48bd ac4a 74bf 1f43 9dbd a826 d9bd
000002d0: 4825 39bc 8925 6dbe 08c1 d5bd fba8 5a3e
000002e0: 6954 433e 2830 6cbe d3bc 40be c94c 633e
000002f0: eec8 2d3e e184 3abe 2f45 8c3e e6e9 8d3e
00000300: 2c59 023e e1b9 b6be 0552 433e d49f 8f3e
00000310: fb7c 023e 2d34 7ebe 2436 8cbc e7de 4dbd
00000320: f138 133d fedb 73bf 3dd1 723d fa7a aabd
00000330: c7c9 52bf 1f6f be3f 0424 8f3f c588 173f
00000340: 962d 133f 1c21 d73d 5a7e 083b 2f9a 3a3e
00000350: f482 2abe 9d0e 27bd 1d04 08bc 62ea 873e
00000360: d69c 1c3f 5e04 833e 14e8 47bd 2001 e73c
00000370: ed37 06be 534e 14be 7b2c 33bd 0e61 b1bb
00000380: 3855 0f3f 9c11 003f 058c 43bd 273b 503f
00000390: 14a9 9bbd b754 55be 395f d1bd ba9b 453f
000003a0: e016 8f3e ff88 e13e efa9 323e b0ee fdbd
000003b0: 17e7 183e 370e 27bd 22af 173e 8d81 01bd
000003c0: 2e1f a43e 60d4 e23e b8c2 2bbd 884b db3c
000003d0: 547e f03d 6a39 d2bd 06d1 d53b 7a1a 8e3d
000003e0: 3ff6 af3e 4cf2 843e a4d8 54bd e2f3 e5be
000003f0: fba5 043e 2e15 48be 844e 883b 0280 00bf

fc1.bias f4 [256]
-0.5448098 -0.00474476 -0.40058503 -0.12894933 -0.15698531 -0.118381254 -0.29989153 0.12863433
-0.77558047 -0.55878335 -0.29982483 -0.11392742 -0.46225458 -0.14979185 -0.14507778 -0.23060283
-0.26940754 -0.0768368 -0.48816997 -0.24553487 0.10671956 -0.20815378 -0.19390152 -0.11850717
-0.7152909 -0.7259635 -0.57597584 -0.044886313 -0.1395607 -0.37866774 -0.13277897 0.03779519
-0.3660162 -0.32862613 -0.32843846 -0.10781279 0.01939313 -0.12611392 -0.08598612 -0.23317166
-0.19597481 -0.48913366 -0.96617407 -0.17938034 -0.32314286 -0.21340428 -0.15125275 -0.39315888
-0.32673988 -0.0045530177 -0.0009278035 -0.05333814 -0.114555 0.064987645 -0.26655838 -0.334976
-0.30977234 -0.2527698 -0.26694563 -0.47956118 -0.3844269 -0.1980582 -0.15283957 -0.034785647
-0.04838642 -0.22250761 -0.20137988 -0.09816972 -0.13858274 -0.33200717 -0.6373585 -0.2556871
-0.54589957 -0.33750686 -0.21330348 -0.28058594 0.06839159 -0.23856904 -0.1416359 -0.24786873
-0.009135911 0.021599742 -0.035892323 0.076508895 -0.23778585 -0.078590766 -0.543968 -0.41310406
-0.5118003 -0.5563791 0.03578351 -0.18236344 -0.56596255 -0.69207346 -0.27756384 -0.07667899
-0.05781814 -0.12810203 -0.238856 -0.83275044 -0.2283225 -0.021590384 -0.21514761 -0.5363868
-0.34938493 -0.28196698 -0.20568231 -0.38677683 -0.38490006 -0.33762956 -0.30263138 -0.39256984
0.15129521 -0.22861245 -0.62628114 0.046147306 -0.2679135 -0.22980724 -0.42824247 -0.5421059
-0.08564052 -0.19982503 -0.03777371 0.066396266 -0.6413389 -0.51248956 -0.4948754 0.2159025
-0.22832483 -0.1517115 -0.14370921 -0.0037063565 -0.17942807 -0.0008130464 0.10924724 -0.041913815
-0.13218977 -0.13994169 -0.07096631 -0.22474673 -0.34229502 -0.41617578 0.12936582 0.16744292
-0.04993606 -0.089859076 -0.16410066 -0.43314368 -0.58355814 -0.35977292 -0.20092018 -0.24938335
-0.12445861 -0.20221642 -0.31298596 0.15422402 -0.29698098 -0.3091983 -0.47841173 -0.32342547
-0.18274637 -0.10872389 -0.31311327 -0.13862893 0.039692547 -0.2861175 -0.7139153 -0.79422545
-0.22643706 -0.23338126 0.17920332 -0.25924346 -0.60580003 -0.5664777 -0.013895283 -0.07099916
-0.027212743 -0.03892895 0.041066155 0.07156597 -0.15375525 -0.43596414 -0.019455137 -0.2919296
-0.0024412891 -0.06256668 -0.071167484 -0.16058192 -0.30634794 -0.46993488 -0.15923041 0.020157298
-0.25444302 -0.08108725 0.07104627 -0.20333949 -0.07401473 -0.11635011 -0.02895836 -0.42269677
-0.43770695 0.2792936 -0.20040494 -0.43772787 -0.1776847 -0.19636092 -0.15851928 -0.31284013
-0.9408736 0.05368894 -0.2092882 -0.98247945 -0.019372828 -0.46666026 -0.49436975 -0.08046995
-0.33802074 -0.17264372 -0.30761886 -1.6506232 -0.53244084 -0.12689546 -0.22237408 0.18382688
-0.31564575 -0.20517488 -0.45547155 -0.24084288 -0.20556313 0.05759373 -0.20619783 -0.38299432
-0.35118115 -0.18641654 0.15073745 -0.056034505 -0.11408909 -0.19396417 -0.23245735 -0.9103901
-0.2846049 -0.057713438 -0.08111559 -0.36946622 -0.32176962 -0.05000167 -0.49768502 -0.26571763
-0.11676924 -0.2875532 -0.327932 -0.2940624 -0.40028575 -0.12162671 -0.21049944 -0.2907811
00000000: a878 0bbf ef79 9bbb 7b19 cdbe 4b0b 04be
00000010: c2c0 20be df71 f2bd 628b 99be b8b8 033e
00000020: 718c 46bf 6d0c 0fbf a482 99be c752 e9bd
00000030: a2ac ecbe 0963 19be 458f 14be 2623 6cbe
00000040: c9ef 89be 9d5c 9dbd 6af1 f9be 7e6d 7bbe
00000050: c98f da3d 4426 55be 1f8e 46be e3b3 f2bd
00000060: 4e1d 37bf bed8 39bf 2773 13bf b6da 37bd
00000070: 00e9 0ebe bde0 c1be 36f7 07be 21cf 1a3d
00000080: 7a66 bbbe af41 a8be 1629 a8be f4cc dcbd
00000090: 57de 9e3c 0224 01be 7e19 b0bd 8dc4 6ebe
000000a0: 9fad 48be ba6f fabe 2f57 77bf 7baf 37be
000000b0: fb72 a5be a786 5abe 00e2 1abe 1f4c c9be
000000c0: 734a a7be 7b31 95bb d737 73ba 1879 5abd
000000d0: d09b eabd 3e18 853d 577a 88be f981 abbe
000000e0: 7b9a 9ebe 0b6b 81be 19ad 88be 0b89 f5be
000000f0: 9ad3 c4be c5cf 4abe fa81 1cbe 657b 0ebd
00000100: d730 46bd 09d9 63be 8736 4ebe 350d c9bd
00000110: a2e8 0dbe d8fc a9be ed29 23bf 6be9 82be
00000120: 13c0 0bbf b3cd acbe 3a6c 5abe f6a8 8fbe
00000130: e410 8c3d 714b 74be 0009 11be 4dd1 7dbe
00000140: caae 15bc f1f1 b03c d403 13bd b2b0 9c3d
00000150: 227e 73be 32f4 a0bd 7d41 0bbf 6082 d3be
00000160: 5805 03bf dc6e 0ebf bb91 123d 7bbd 3abe
00000170: ece2 10bf ba2b 31bf d91c 8ebe e009 9dbd
00000180: b7d2 6cbd 2e2d 03be ab96 74be 222f 55bf
00000190: 60cd 69be 51de b0bc a84f 5cbe a550 09bf
000001a0: 95e2 b2be fa5d 90be 629e 52be 9d07 c6be
000001b0: 9f11 c5be c8dd acbe 80f2 9abe eafe c8be
000001c0: 22ed 1a3e 6219 6abe f653 20bf f504 3d3d
000001d0: f52b 89be 9752 6bbe 9942 dbbe 74c7 0abf
000001e0: 4c64 afbd ef9e 4cbe 9bb8 1abd c4fa 873d
000001f0: c92e 24bf 8432 03bf 4f60 fdbe 8c15 5d3e
00000200: fccd 69be 425a 1bbe 8228 13be 58e6 72bb
00000210: febb 37be 9f22 55ba 04bd df3d d2ad 2bbd
00000220: c15c 07be e04c 0fbe c956 91bd 0224 66be
00000230: 4b41 afbe fe14 d5be 7978 043e 2876 2b3e
00000240: c189 4cbd 0908 b8bd 010a 28be 02c5 ddbe
00000250: 1164 15bf 2834 b8be 05be 4dbe 595e 7fbe
00000260: 28e4 febd d211 4fbe b23f a0be e7ec 1d3e
00000270: e40d 98be 3d4f 9ebe 62f2 f4be 0698 a5be
00000280: dd21 3bbe a1aa debd 6250 a0be bef4 0dbe
00000290: a794 223d fe7d 92be 27c3 36bf 5c52 4bbf
000002a0: 1edf 67be 7ffb 6ebe 1381 373e 8fbb 84be
000002b0: b615 1bbf af04 11bf 0ba9 63bc 0268 91bd
000002c0: 42ed debc f673 1fbd fc34 283d 2e91 923d
000002d0: 0472 1dbe b136 dfbe 6160 9fbc cc77 95be
000002e0: 09fe 1fbb f622 80bd 42c0 91bd 966f 24be
000002f0: a3d9 9cbe 4e9b f0be 4c0d 23be eb20 a53c
00000300: 5b46 82be 1211 a6bd b580 913d 3a38 50be
00000310: 0995 97bd f748 eebd 153a edbc b66b d8be
00000320: 201b e0be 92ff 8e3e f436 4dbe de1d e0be
00000330: faf2 35be d612 49be e152 22be 952c a0be
00000340: 18dd 70bf efe8 5b3d a54f 56be c683 7bbf
00000350: c4b3 9ebc 18ee eebe 081e fdbe 6ecd a4bd
00000360: 0e11 adbe 84c9 30be 3880 9dbe 9f47 d3bf
00000370: 0b4e 08bf e2f0 01be 08b6 63be 1d3d 3c3e
00000380: 529c a1be 5d19 52be 9133 e9be 849f 76be
00000390: 247f 52be 67e7 6b3d 8625 53be d517 c4be
000003a0: 04ce b3be fae3 3ebe eb5a 1a3e 7084 65bd
000003b0: 8aa7 e9bd 8b9e 46be 4d09 6ebe 530f 69bf
000003c0: bcb7 91be ed64 6cbd ee1f a6bd ad2a bdbe
000003d0: fdbe a4be 8dce 4cbd 92d0 febe 240c 88be
000003e0: b624 efbd 2c3a 93be b4e6 a7be 598f 96be
000003f0: 41f2 ccbe 6d17 f9bd 2a8d 57be 43e1 94be

fc2.weight f4 [128, 256]
-0.007736687 0.042355362 0.012925215 -0.023465136 -0.0017378011 -0.12597516 0.00743159 -0.029250778
0.008692776 -0.033385906 0.06062093 0.043698106 -0.042194385 -0.008498759 0.015328773 -0.0012382462
-0.07111839 -0.018401962 -0.048556272 0.041192193 0.09802973 -0.027922649 0.0115956515 0.01431661
0.11677986 0.013613396 -0.047943067 -0.0799288 -0.00016721239 0.08671426 -0.061922297 -0.25438777
0.060975052 0.031835526 0.019590512 -0.022742549 0.037507158 -0.057684056 0.07713914 -0.06229018
-0.21256296 -0.15707925 -0.04816944 -0.08057294 -0.08008708 0.044725396 0.013451833 -0.12928522
-0.009276704 0.00418086 -0.056073345 -0.09866242 -0.11541797 -0.0075482605 -0.0006497011 -0.06853118
-0.09888174 -0.10734029 -0.069720216 0.014703792 -0.044643957 0.013819152 0.11356797 -0.017653901
-0.05878003 0.11220511 -0.090835795 -0.076246694 0.08219652 -0.0024865728 0.023468865 -0.053889956
0.021945385 0.028471546 -0.092181966 -0.0043526078 -0.0023078143 0.049625773 -0.20167264 0.05538781
-0.05953125 -0.044564333 -0.0059051677 0.02309432 0.016915917 0.015946265 0.013862537 -0.20891547
-0.21935242 0.15952942 -0.11514811 -0.0763056 -0.068111666 -0.060928028 -0.07079958 -0.007904987
-0.07978374 0.01276435 -0.031252675 -0.07876874 0.03417565 0.03577726 -0.03539471 0.080046125
-0.004975072 0.071702845 -0.07827948 0.100887135 -0.05533764 -0.21916878 -0.029082937 0.0018029757
-0.0057883603 -0.10507812 -0.123240426 -0.11327604 -0.06458611 -0.10175814 -0.066313855 -0.060407024
0.11755343 -0.08447407 -0.18852618 -0.040997367 0.022489283 0.027318526 -0.033642463 -0.052861664
-0.0022672522 -0.030324087 -0.020547219 0.058799826 -0.017410178 -0.07773891 0.04621894 0.07460463
0.016331816 -0.073701516 0.046371866 0.039504476 -0.0009240091 -0.009809188 -0.0989813 -0.0048327907
0.034071304 -0.011813831 -0.009570712 0.029587202 -0.092556104 -0.00074999215 0.14360937 0.05970442
-0.00598207 -0.16031599 -0.025347251 -0.13345468 -0.04824909 0.003892161 0.041649647 -0.13358694
0.07229768 -0.014423593 -0.005638628 -0.08497375 0.04944414 -0.09173383 0.011568967 0.022397537
0.02528457 0.078495376 -0.011321408 -0.022869116 0.02253951 -0.035650745 -0.020805227 -0.06667718
0.031719513 0.18147989 -0.03400379 -0.0162969 -0.14691737 -0.17383799 0.08279494 -0.063099734
0.02456669 0.0069687585 -0.09887161 -0.06732543 0.016960034 -0.049693707 0.0004837598 -0.040051557
0.0070669986 -0.015110448 0.0944549 0.025886942 -0.078111984 -0.14082287 0.006980957 -0.111062296
-0.018002328 -0.058377903 -0.063490875 -0.064600445 0.08866212 -0.023962857 0.011452151 -0.11949726
0.055334393 0.15561314 0.049219985 0.111275986 0.022305334 0.0033239042 0.17588222 -0.046972416
-0.16451415 0.09843027 0.07844497 0.011680432 0.0020929596 0.016143959 0.009660463 0.1528879
0.10716619 0.11710805 -0.00617878 0.041190367 -0.004558783 0.09348944 0.059693106 -0.04085641
-0.01106571 0.037035443 -0.014316563 -0.008160084 -0.007621963 -0.13327897 -0.06707705 0.038513396
-0.15689872 0.0033189207 -0.03949658 0.05634471 -0.008046146 0.07539636 0.013811658 -0.022608083
0.060452733 -0.1344521 -0.28360182 -0.18501267 -0.09927213 -0.049431857 -0.10880476 0.17321672
00000000: 0984 fdbb d17c 2d3d 48c4 533c f539 c0bc
00000010: eec6 e3ba a2ff 00be b284 f33b 549f efbc
00000020: 256c 0e3c a9bf 08bd a74d 783d c9fc 323d
00000030: 05d4 2cbd 613e 0bbc 8925 7b3c a64c a2ba
00000040: 85a6 91bd b6bf 96bc f1e2 46bd 25b9 283d
00000050: d0c3 c83d 0abe e4bc b0fb 3d3c 3790 6a3c
00000060: 472a ef3d b90a 5f3c f35f 44bd b6b1 a3bd
00000070: bc55 2fb9 3f97 b13d 3ca2 7dbd 1d3f 82be
00000080: fac0 793d f865 023d 487c a03c 954e babc
00000090: 1ba1 193d 1e46 6cbd 20fb 9d3d fd23 7fbd
000000a0: 1baa 59be 62d9 20be 524d 45bd 6d03 a5bd
000000b0: b204 a4bd fa31 373d 1465 5c3c 5863 04be
000000c0: 51fd 17bc 98ff 883b 2aad 65bd 860f cabd
000000d0: 4260 ecbd 6657 f7bb b450 2aba 135a 8cbd
000000e0: 8282 cabd 3ad5 dbbd 79c9 8ebd 2ce8 703c
000000f0: 95dc 36bd b969 623c 5396 e83d ea9e 90bc
00000100: 54c3 70bd cbcb e53d 1e08 babd 3a27 9cbd
00000110: a656 a83d c5f5 22bb c741 c03c b7bb 5cbd
00000120: cfc6 b33c 293d e93c e6c9 bcbd 52a0 8ebb
00000130: b33e 17bb 6544 4b3d 4683 4ebe 54de 623d
00000140: 0ad7 73bd 1789 36bd 2380 c1bb 4d30 bd3c
00000150: 4093 8a3c bea1 823c b21f 633c f0ed 55be
00000160: ec9d 60be ae5b 233e c6d2 ebbd 1c46 9cbd
00000170: 217e 8bbd ab8f 79bd 5fff 90bd eb83 01bc
00000180: a865 a3bd 9021 513c ce02 00bd 8151 a1bd
00000190: c4fb 0b3d 2d8b 123d 0bfa 10bd 39ef a33d
000001a0: ee05 a3bb f1d8 923d fe50 a0bd ea9d ce3d
000001b0: b9a9 62bd c86d 60be 573f eebc d351 ec3a
000001c0: 49ac bdbb 3333 d7bd 7a65 fcbd 45fd e7bd
000001d0: b945 84bd 9266 d0bd 8fcf 87bd 5b6d 77bd
000001e0: dabf f03d be00 adbd 020d 41be dbec 27bd
000001f0: 723b b83c 1acb df3c aecc 09bd 7985 58bd
00000200: 2e96 14bb 386a f8bc a452 a8bc 16d8 703d
00000210: ca9f 8ebc 9435 9fbd 1250 3d3d 50ca 983d
00000220: 4dca 853c d2f0 96bd 6df0 3d3d 72cf 213d
00000230: 3339 72ba b7b6 20bc b5b6 cabd 635c 9ebb
00000240: 5a8e 0b3d cc8e 41bc 7ace 1cbc dc60 f23c
00000250: 0e8e bdbd 1f9b 44ba 560e 133e 9f8c 743d
00000260: 3e05 c4bb e029 24be 0aa5 cfbc 58a8 08be
00000270: d6a0 45bd a013 7f3b d298 2a3d 04cb 08be
00000280: ce10 943d ef50 6cbc 3dc4 b8bb b806 aebd
00000290: f085 4a3d f2de bbbd c48b 3d3c 0a7b b73c
000002a0: 9621 cf3c 2fc2 a03d 6d7d 39bc 0358 bbbc
000002b0: c7a4 b83c 8406 12bd b96f aabc 0c8e 88bd
000002c0: 52ec 013d ddd5 393e 8f47 0bbd 1481 85bc
000002d0: 8271 16be 9602 32be 6590 a93d 6f3a 81bd
000002e0: 1540 c93c 2f5a e43b 337d cabd eae1 89bd
000002f0: c5ef 8a3c a18b 4bbd 24a1 fd39 1a0d 24bd
00000300: 4892 e73b d091 77bc 9271 c13d da10 d43c
00000310: 2df9 9fbd df33 10be 83c0 e43b a174 e3bd
00000320: 9e79 93bc ab1d 6fbd 8107 82bd 3d4d 84bd
00000330: 7c94 b53d c14d c4bc cea1 3b3c fbba f4bd
00000340: 51a6 623d 0d59 1f3e e59a 493d aae4 e33d
00000350: adb9 b63c dcd5 593b 781a 343e 2666 40bd
00000360: 6676 28be cf95 c93d c2a7 a03d 485f 3f3c
00000370: 092a 093b 5640 843c eb46 1e3c a58e 1c3e
00000380: f379 db3d 58d6 ef3d 5d77 cabb 3bb7 283d
00000390: d861 95bb 6477 bf3d c280 743d 0d59 27bd
000003a0: f44c 35bc 7ab2 173d 0490 6abc dfb1 05bc
000003b0: a9c1 f9bb 487a 08be b15f 89bd 39c0 1d3d
000003c0: 0faa 20be 4082 593b 2ac7 21bd b6c9 663d
000003d0: fbd3 03bc 6869 9a3d 4b4a 623c 9634 b9bc
000003e0: 499d 773d d0ad 09be 4234 91be f673 3dbe
000003f0: 304f cbbd 0f79 4abd 08d5 debd b95f 313e

fc2.bias f4 [128]
-0.09330661 -0.12834097 -0.27532837 -0.18603057 -0.1124921 -0.20649713 -0.15905444 -0.15544389
-0.03897303 -0.32126287 -0.19745404 -0.14453946 -0.23590474 -0.17965518 -0.08576469 -0.09175227
-0.1663641 -0.1206746 -0.1769864 -0.15240908 -0.152373 -0.13874783 -0.21221447 -0.18440108
-0.23016383 -0.112961635 -0.1518168 -0.20555072 -0.13587904 -0.08494092 -0.07395805 -0.1317534
-0.12736936 -0.2202048 -0.009712904 -0.43318254 -0.15098079 -0.23024812 -0.10041705 -0.21138386
-0.09029252 -0.33671084 -0.0071862643 -0.18247032 -0.1505378 -0.075707786 -0.15986155 -0.20925179
-0.12801406 -0.1290668 -0.12816107 -0.20861895 -0.19204071 -0.21756111 -0.16944726 -0.311563
-0.18398774 -0.08251759 -0.21345438 -0.23340552 -0.19925706 -0.090708815 -0.2064438 0.01558228
-0.22206871 -0.091584586 -0.14101064 -0.11951392 -0.061477795 -0.10906055 -0.11413737 -0.18945035
-0.13660054 -0.14814273 -0.30013183 -0.25917304 -0.07139603 -0.11037756 -0.21200876 -0.06783109
-0.20975582 -0.06286786 -0.1492929 -0.1901069 -0.22951962 -0.12355781 -0.31676933 -0.16813566
-0.031957917 -0.25829414 -0.20533471 -0.26205003 -0.13504818 -0.1486805 -0.2031094 -0.22332984
-0.16165777 -0.20986198 -0.17959242 -0.017603794 -0.25634393 -0.17948328 -0.043334216 -0.18371776
-0.10878411 -0.10955035 0.09816076 -0.21603331 -0.2138498 -0.23744963 -0.16654998 -0.17699608
-0.23936091 -0.17247261 -0.14642848 -0.17360343 -0.11627216 -0.1426675 -0.31778473 -0.21696885
-0.28124025 -0.24357903 -0.21319506 -0.14620525 -0.19818799 -0.08864658 -0.27306244 -0.23403995
00000000: 8917 bfbd d16b 03be d7f7 8cbe cc7e 3ebe
00000010: 4262 e6bd fc73 53be 2bdf 22be af2c 1fbe
00000020: 2fa2 1fbd 917c a4be 6431 4abe 2702 14be
00000030: 0391 71be 87f7 37be 66a5 afbd 9de8 bbbd
00000040: 5a5b 2abe 3f24 f7bd ec3b 35be 2011 1cbe
00000050: ab07 1cbe e913 0ebe c04e 59be a3d3 3cbe
00000060: 11b0 6bbe 6e58 e7bd dd75 1bbe e37b 52be
00000070: e023 0bbe 81f5 adbd 5177 97bd 5dea 06be
00000080: 1d6d 02be 5e7d 61be df22 1fbc 1aca ddbe
00000090: b59a 1abe 2ac6 6bbe 74a7 cdbd 0375 58be
000000a0: 49eb b8bd 5d65 acbe c17a ebbb 80d9 3abe
000000b0: 9526 1abe af0c 9bbd bfb2 23be 1a46 56be
000000c0: 1e16 03be 162a 04be a83c 03be 35a0 55be
000000d0: 52a6 44be 57c8 5ebe 9583 2dbe 2f85 9fbe
000000e0: 4867 3cbe fbfe a8bd c993 5abe db01 6fbe
000000f0: 0b0a 4cbe 8bc5 b9bd 0166 53be d24c 7f3c
00000100: fb65 63be b390 bbbd 1865 10be b7c3 f4bd
00000110: 24d0 7bbd 235b dfbd dac0 e9bd 46ff 41be
00000120: 03e1 0bbe bab2 17be e1aa 99be 54b2 84be
00000130: 1538 92bd a10d e2bd d318 59be 07eb 8abd
00000140: 3bca 56be ddc0 80bd 3de0 18be 62ab 42be
00000150: 3107 6bbe e10b fdbd 972f a2be c12b 2cbe
00000160: 4ee6 02bd 213f 84be 4343 52be 6c2b 86be
00000170: 124a 0abe b33f 18be e9fb 4fbe 94b0 64be
00000180: 9d89 25be 0fe6 56be 13e7 37be d535 90bc
00000190: 833f 83be 77ca 37be 387f 31bd 8220 3cbe
000001a0: 34ca debd ef5b e0bd 8208 c93d d637 5dbe
000001b0: 71fb 5abe ff25 73be 148c 2abe 763e 35be
000001c0: 071b 75be a99c 30be 59f1 15be 19c5 31be
000001d0: 1920 eebd 6e17 12be aeb4 a2be 152d 5ebe
000001e0: b9fe 8fbe c86c 79be ce4f 5abe d4b6 15be
000001f0: cbf1 4abe 578c b5bd d7ce 8bbe 2ba8 6fbe

fc3.weight f4 [1, 128]
-0.010983598 0.018579718 0.04436444 0.075749114 0.011433706 -0.0017737008 -0.0514348 -0.027946617
-0.023901338 0.030443847 0.005855244 0.013073645 0.024280353 -0.032084323 -0.022966424 -0.043531418
-0.02524478 0.011237443 -0.0045803576 0.010353575 -0.002967308 -0.037142586 -0.0396765 -0.07746644
0.023121092 0.051098026 0.011568006 -0.0471013 0.034489933 0.0038964327 0.021035135 0.017934166
-0.04291199 0.06644612 0.01855959 0.035105 -0.0012959525 -0.005537484 0.037566807 -0.06625959
-0.034939833 0.012618739 0.013793294 0.0014046511 -0.06668744 0.023683872 0.0315099 -0.03166272
-0.05010329 0.028602717 -0.069096066 -0.099573165 0.0070530293 0.035543345 -0.060389858 -0.048724514
-0.06968322 -0.016836764 0.025812875 0.064225376 -0.0023629686 -0.038100664 -0.027957326 0.03293585
-0.024066227 0.0060951416 -0.04074742 0.005548301 0.0026534155 0.057659872 0.05235886 0.018413894
0.025467834 0.02273147 0.08505311 -0.05508182 -0.017429486 0.0106148645 -0.0340647 -0.027442005
0.0046641654 -0.045445595 0.027653553 -0.00195244 -0.0135792075 0.01602704 -0.059743393 0.02779573
0.02057542 0.06904981 0.0052069863 0.06954423 0.01403945 -0.014732996 -0.022588344 0.057299275
-0.07787827 0.02956796 0.013755778 0.023266364 0.042456016 -0.058081985 -0.0062769274 -0.03038087
-0.0054184 -0.00069894805 -0.03434959 -0.003595395 0.011075975 -0.032290503 0.008871021 -0.083260715
0.032095175 0.029032905 0.0026610435 0.030921245 0.005821975 -0.07076056 0.06193759 0.05162938
0.032060552 0.012730258 0.00095655984 -0.01775495 -0.0019996595 0.0029859017 0.04665162 -0.025948748
00000000: 8df4 33bc 7e34 983c 7db7 353d 5a22 9b3d
00000010: 7054 3b3c 867b e8ba 4cad 52bd 4ef0 e4bc
00000020: bdcc c3bc 6065 f93c 59dd bf3b d732 563c
00000030: 97e7 c63c da6a 03bd 1524 bcbc 004e 32bd
00000040: 24ce cebc 411d 383c d316 96bb 0ba2 293c
00000050: 2b77 42bb d322 18bd d383 22bd baa6 9ebd
00000060: 7268 bd3c 2a4c 513d bc87 3d3c 4bed 40bd
00000070: 5145 0d3d 4b5b 7f3b e051 ac3c acea 923c
00000080: 7cc4 2fbd e714 883d 480a 983c 43ca 0f3d
00000090: f3dc a9ba c873 b5bb a7df 193d 1cb3 87bd
000000a0: 121d 0fbd d4be 4e3c 45fd 613c 451c b83a
000000b0: 6d93 88bd ae04 c23c 8610 013d c5b0 01bd
000000c0: 1b39 4dbd 3f50 ea3c 3d82 8dbd 04ed cbbd
000000d0: 191d e73b e695 113d 5b5b 77bd 5b93 47bd
000000e0: 13b6 8ebd 41ed 89bc 8675 d33c 9888 833d
000000f0: 09dc 1abb 710f 1cbd c306 e5bc bee7 063d
00000100: 8926 c5bc c1b9 c73b c4e6 26bd 86ce b53b
00000110: ede4 2d3b c22c 6c3d 3e76 563d bcd8 963c
00000120: eba1 d03c 5937 ba3c 5330 ae3d 799d 61bd
00000130: 48c8 8ebc f8e9 2d3c 6d87 0bbd 0ece e0bc
00000140: dbd5 983b 2925 3abd b489 e23c 04e9 ffba
00000150: 537b 5ebc 244b 833c 7db5 74bd dfb3 e33c
00000160: c98d a83c fd69 8d3d 5e9f aa3b 356d 8e3d
00000170: b905 663c aa62 71bc 310b b9bc a5b2 6a3d
00000180: a47e 9fbd 8238 f23c ea5f 613c 1a99 be3c
00000190: 5ce6 2d3d 60e7 6dbd afae cdbb 4de1 f8bc
000001a0: d58c b1bb 9c39 37ba 28b2 0cbd b8a0 6bbb
000001b0: 0278 353c 0c43 04bd c257 113c 9884 aabd
000001c0: 3b76 033d 6ad6 ed3c e764 2e3b 8d4e fd3c
000001d0: 44c6 be3b eaea 90bd 45b2 7d3d 5479 533d
000001e0: ed51 033d 9292 503c a5c1 7a3a d472 91bc
000001f0: b80c 03bb 1eaf 433b c515 3f3d 7892 d4bc

bn1.weight f4 [256]
0.1682789 0.28932893 0.2300935 0.18301438 0.23593631 -0.16879368 0.14258027 0.37933674
0.22838275 0.2572388 0.19391322 0.28286174 0.533156 0.16326241 0.18282838 0.14134116
0.11135605 0.097807735 0.27929714 0.2919819 -0.002662769 0.14741309 0.10482259 0.89178866
0.13691479 0.47012344 0.29004872 0.20133944 0.22257335 0.14651605 0.33759606 0.061421722
0.09534689 0.24346621 0.24487513 0.7162345 0.2292168 0.22585846 0.07869704 0.257451
0.15716016 0.07452153 0.65545607 0.21895595 0.4456402 0.30730695 0.7831985 0.11178869
0.30933774 0.1396081 0.315334 0.12701604 0.226508 0.13844381 0.45436364 0.33821493
0.23635668 0.14601733 0.14489022 0.120378524 0.15020536 0.096384324 0.05031255 0.30944532
0.22972015 0.047281355 0.25261003 0.07788493 0.37851393 0.18862617 0.25063515 -0.17071292
0.3360864 0.3473779 0.21218628 0.25508285 0.2626536 0.10358293 0.20932454 0.15585177
0.34053648 0.17115581 0.27608496 0.36834762 0.20448843 0.22019972 0.3880463 0.29225895
0.3051569 0.10798925 0.33448842 0.60387635 0.25509167 0.3575127 0.12999652 0.33806768
0.22724268 0.14778107 0.10323334 0.32212964 0.3495439 0.080729105 0.32298133 1.022968
0.11566023 0.21367788 0.3442909 0.1210613 0.11788967 -0.15631998 0.20978703 0.087056294
0.28125045 0.22738463 0.29089603 0.13864483 0.28202325 0.30992958 0.22029535 0.16592938
0.18438955 0.25788745 0.2540876 0.20654663 0.43266624 0.12110464 0.27604038 0.3744509
0.11482233 0.30751 0.10591239 2.2526543e-05 0.21413141 0.20890838 0.0016104925 0.23636734
0.48308903 0.47065568 0.1280647 0.11454959 0.5595861 0.3901392 0.37837505 0.6544063
0.32697746 0.48661688 0.16592504 0.38750267 0.55857646 0.33773237 0.2770818 0.13193375
0.38468498 0.36501163 0.20580523 0.27775085 -0.1553446 0.13396876 0.21195586 0.13179596
0.110014096 0.44411486 0.34751585 0.15973099 0.18695274 0.43894964 0.31628594 0.17825028
0.1242175 0.21238431 0.3322798 0.33901638 0.40005457 0.191171 0.17434086 0.23251672
1.0776324 0.050232176 0.28191155 0.35539997 0.14951932 0.18575197 0.11939598 0.37758097
0.19903484 0.26685342 0.32658857 0.25352228 0.11386965 0.16808651 0.17179824 0.16994208
0.1988143 0.20859861 0.18600729 0.1793932 0.4272846 0.18120858 0.24530548 0.46872026
0.33370963 0.2801889 0.2767705 0.16595349 0.2603698 -0.090208665 0.18340446 0.21396434
0.6729843 -0.0010245868 0.1406415 0.33262914 0.30830398 0.19077015 0.11052643 -0.16217208
0.3297431 0.15596087 0.22117774 0.65612924 0.21116093 0.079252355 0.20537016 -0.14059888
0.39240748 0.17605382 0.4314798 0.2385889 0.25212175 0.0010764208 0.12553862 0.3686288
0.13717835 0.19268535 0.13753267 0.46419325 0.1578928 0.144815 0.13962291 0.70276177
0.072985604 0.28980628 0.38642555 0.2667861 0.12073967 0.16930117 0.09903556 0.2056155
0.13497727 0.033416264 0.0746313 0.46538758 0.1557502 0.15104969 0.14820598 0.12402962
00000000: 4e51 2c3e ec22 943e a19d 6b3e 1f68 3b3e
00000010: 4a99 713e 40d8 2cbe 9000 123e 6d38 c23e
00000020: 2bdd 693e ceb4 833e 3091 463e 41d3 903e
00000030: e97c 083f 432e 273e 5d37 3b3e bdbb 103e
00000040: a40e e43d 6c4f c83d 0900 8f3e a77e 953e
00000050: da81 2ebb 75f3 163e 3aad d63d 434c 643f
00000060: 6433 0c3e 05b4 f03e 4481 943e ed2b 4e3e
00000070: 45ea 633e 4e08 163e 64d9 ac3e 5895 7b3d
00000080: 3b45 c33d 354f 793e 8cc0 7a3e 255b 373f
00000090: cfb7 6a3e 7147 673e ea2b a13d 9ed0 833e
000000a0: 98ee 203e be9e 983d f8cb 273f fd35 603e
000000b0: f42a e43e 5657 9d3e b27f 483f 78f1 e43d
000000c0: 8461 9e3e 6df5 0e3e 7573 a13e 7e10 023e
000000d0: b7f1 673e 37c4 0d3e 5aa2 e83e 822a ad3e
000000e0: 7c07 723e 9185 153e 1a5e 143e 0489 f63d
000000f0: 6fcf 193e 2565 c53d 8814 4e3d 9e6f 9e3e
00000100: c23b 6b3e 18aa 413d 1a56 813e 2282 9f3d
00000110: 94cc c13e 3827 413e 4053 803e 5ecf 2ebe
00000120: 8413 ac3e 84db b13e 5c47 593e 389a 823e
00000130: 887a 863e 4a23 d43d 2c59 563e 9b97 1f3e
00000140: cc5a ae3e 7843 2f3e 025b 8d3e 0f98 bc3e
00000150: 6a65 513e 097c 613e 01ae c63e f7a2 953e
00000160: 863d 9c3e 7829 dd3d 1142 ab3e a497 1a3f
00000170: 609b 823e e80b b73e cf1d 053e 3517 ad3e
00000180: 4eb2 683e ec53 173e 006c d33d 2dee a43e
00000190: 6bf7 b23e 4d55 a53d cf5d a53e 9ef0 823f
000001a0: 45df ec3d 60ce 5a3e e646 b03e fdee f73d
000001b0: 2470 f13d 5812 20be 69d2 563e 924a b23d
000001c0: 0f00 903e 84d7 683e 53f0 943e e9f8 0d3e
000001d0: 5a65 903e 17af 9e3e 1b95 613e 64e9 293e
000001e0: 9dd0 3c3e d309 843e c517 823e f680 533e
000001f0: 6e86 dd3e b605 f83d 2a55 8d3e 07b8 bf3e
00000200: f827 eb3d f371 9d3e 98e8 d83d 62f7 bc37
00000210: 4445 5b3e 14ec 553e 2917 d33a 480a 723e
00000220: 7257 f73e c8f9 f03e 6523 033e fa98 ea3d
00000230: 0941 0f3f 53c0 c73e 60ba c13e 2c87 273f
00000240: 9769 a73e d925 f93e 41e8 293e c066 c63e
00000250: defe 0e3f 42eb ac3e aadd 8d3e a419 073e
00000260: 6ef5 c43e cee2 ba3e 9bbe 523e 5c35 8e3e
00000270: a812 1fbe 1b2f 093e f50a 593e 85f5 063e
00000280: 124f e13d 0663 e33e 99ed b13e 8590 233e
00000290: 8a70 3f3e 02be e03e 3bf0 a13e 3e87 363e
000002a0: bf65 fe3d 467b 593e 9420 aa3e 8e93 ad3e
000002b0: f4d3 cc3e 55c2 433e 6986 323e dd18 6e3e
000002c0: dcef 893f 41c0 4d3d b656 903e fcf6 b53e
000002d0: 981b 193e c435 3e3e e185 f43d 4b52 c13e
000002e0: cacf 4b3e 03a1 883e 9e36 a73e accd 813e
000002f0: 7e34 e93d df1e 2c3e e1eb 2f3e 4c05 2e3e
00000300: fa95 4b3e e09a 553e b278 3e3e dab2 373e
00000310: 0cc5 da3e be8e 393e 5c31 7b3e 1afc ef3e
00000320: fddb aa3e eb74 8f3e ddb4 8d3e b6ef 293e
00000330: 314f 853e 52bf b8bd 61ce 3b3e 7819 5b3e
00000340: b348 2c3f 6e4b 86ba 5304 103e 5e4e aa3e
00000350: 05da 9d3e 4059 433e ae5b e23d 7010 26be
00000360: 16d4 a83e 35b4 1f3e 6b7c 623e 16f8 273f
00000370: 923a 583e 0f4f a23d 8e4c 523e 27f9 0fbe
00000380: a2e9 c83e 7447 343e ecea dc3e a650 743e
00000390: 1a16 813e b016 8d3a 328d 003e eabc bc3e
000003a0: 7b78 0c3e 4f4f 453e 5dd5 0c3e bdaa ed3e
000003b0: a6ae 213e 624a 143e 4ff9 0e3e 32e8 333f
000003c0: 7a79 953d 7d61 943e 92d9 c53e 3098 883e
000003d0: 5c46 f73d 495d 2d3e 28d3 ca3d df8c 523e
000003e0: 7b37 0a3e 7edf 083d 4cd8 983d 4847 ee3e
000003f0: fb7c 1f3e c5ac 1a3e 4fc3 173e 3e03 fe3d

bn1.bias f4 [256]
0.035541758 0.1415691 0.008480898 0.06229177 0.05141834 0.1755665 0.07586531 0.1736335
0.14168057 0.08598457 0.09106747 0.08681794 0.2707057 0.073862724 0.083402164 0.035309765
-0.0012545611 0.019723184 0.13219613 0.0901119 0.0042588543 0.0090298215 0.0060723787 0.31295276
-0.042256992 0.15654798 0.104193985 0.024024114 0.09417857 -0.0266295 0.2143551 0.13568696
-0.0012931257 0.03714192 0.08356045 0.15955144 0.14139256 0.0989798 -0.031705007 0.083785996
0.10442039 0.1126872 0.20839907 0.019367494 0.16597408 0.09228477 -0.084466375 0.098853394
0.15447883 0.052728694 0.09242422 0.026739385 0.05623318 0.027758721 0.16203426 0.106979765
0.071097046 0.12217777 0.03082207 -0.03286023 0.04290284 -0.002474198 -0.06264885 0.18923892
0.097420976 0.0071506505 0.071343556 -0.0012180839 0.12917094 0.09432647 0.0834 -0.02072555
0.10921457 0.1025792 0.041385517 0.1142841 0.098894484 -0.009537229 0.1354473 0.015411872
0.1344702 0.08286319 0.03588612 0.20701349 0.061255477 0.047773294 0.15746218 0.25441262
0.16518004 -0.035936773 0.21046108 0.16151504 0.15354638 0.16088635 0.0490973 0.062077314
0.078325465 0.026815547 0.0070874207 0.05379102 0.12559555 -0.103815 0.18388824 0.21987371
0.01154386 0.09037029 0.22237225 -0.00024346047 0.08904891 0.1396194 0.07515694 0.03132132
0.0969724 0.06867601 0.15763827 0.045282483 0.24717253 0.21661505 0.09577337 0.045127854
-0.03131301 0.13115652 0.15516108 0.01112197 0.13681887 0.0231951 0.058304377 0.14898957
0.024196804 0.09752212 0.09925586 -0.002175046 0.098897465 -0.08815689 0.0005643957 0.00915389
0.26639402 0.35923645 0.031296376 0.071212836 0.08044243 0.15076934 0.19337569 0.10555147
0.24210005 0.1999703 0.0662862 0.14962426 0.18616137 0.21410596 0.11471596 0.028813617
0.25675318 0.27232397 0.056190174 0.0945515 -0.024163514 0.04794953 0.061395183 0.12873799
-0.008587676 0.04984838 0.12930779 0.038029872 -0.03378847 0.22265875 0.07328065 -0.029615453
-0.015674736 0.1008351 0.05353597 0.1914258 0.21775343 0.04865142 0.03562563 0.09196136
0.14521703 -0.07913821 0.09470059 0.22305812 0.04807997 0.08722113 0.0065024043 0.20913136
0.051115796 0.11253276 0.25640106 0.09357093 0.035310853 0.062292505 0.048220467 0.028584156
0.00975489 -0.0018012023 0.008813856 0.03505342 0.24193418 0.038258348 0.11799177 0.12993225
0.15178908 0.074634686 0.06912042 0.09011127 0.100745276 -0.013878959 0.036482506 0.17950849
0.14500591 0.0015419454 0.01088737 -0.036095366 0.18989854 0.0046890643 -0.00045603004 -0.02814382
0.06600204 0.04256324 0.04498378 -0.11227066 0.07210147 0.014221234 0.054588035 -0.053388327
-0.04069979 0.041033726 0.18307586 0.15632911 0.089841776 -0.0038842605 0.025337346 0.18194759
0.03095786 0.058568425 0.016251499 0.31685042 0.04780653 0.09720936 0.089965634 0.37218335
0.023510026 0.1973714 0.10128031 0.0675736 -0.006892728 0.05060308 0.023325762 0.10952467
0.047358662 0.034077235 0.13583688 0.2415813 0.0370139 -0.015170924 0.0422529 -0.0017624195
00000000: 3c94 113d 7df7 103e 77f3 0a3c a825 7f3d
00000010: 0a9c 523d b4c7 333e 465f 9b3d fbcc 313e
00000020: b614 113e ae18 b03d 9581 ba3d 9bcd b13d
00000030: f099 8a3e 5745 973d c1ce aa3d f9a0 103d
00000040: 1670 a4ba 8492 a13c 6c5e 073e 968c b83d
00000050: dc8d 8b3b d1f1 133c cefa c63b 583b a03e
00000060: ab15 2dbd 1d4e 203e a863 d53d 38ce c43c
00000070: b2e0 c03d 1c26 dabc e77f 5b3e 86f1 0a3e
00000080: 197e a9ba 2022 183d be21 ab3d 7461 233e
00000090: 36c9 103e ecb5 ca3d 1cdd 01bd fe97 ab3d
000000a0: 5cda d53d 8cc8 e63d 9166 553e 94a8 9e3c
000000b0: 1cf5 293e ccff bc3d b5fc acbd a673 ca3d
000000c0: b32f 1e3e 0bfa 573d e948 bd3d 8e0c db3c
000000d0: c354 663d 4266 e33c 4fec 253e 3518 db3d
000000e0: 549b 913d 5738 fa3d 917e fc3c 7398 06bd
000000f0: e3ba 2f3d 2726 22bb 0a4e 80bd d9c7 413e
00000100: a684 c73d 0150 ea3b 921c 923d 1da8 9fba
00000110: 6345 043e 3c2e c13d 9fcd aa3d a1c8 a9bc
00000120: e3ab df3d 0b15 d23d dc83 293d c80d ea3d
00000130: 3189 ca3d 0a42 1cbc b2b2 0a3e 1482 7c3c
00000140: 8eb2 093e 2db4 a93d 53fd 123d 58fb 533e
00000150: 06e7 7a3d eead 433d c43d 213e 5f42 823e
00000160: f524 293e 7032 13bd 1c83 573e 3364 253e
00000170: 433b 1d3e 64bf 243e 401a 493d c844 7e3d
00000180: 1a69 a03d 47ac db3c 983d e83b f953 5c3d
00000190: 1f9c 003e f59c d4bd 334d 3c3e 9326 613e
000001a0: 7522 3d3c 0f14 b93d 8db5 633e 6c49 7fb9
000001b0: 465f b63d 63f8 0e3e e2eb 993d c94a 003d
000001c0: 7799 c63d 02a6 8c3d ed6b 213e 207a 393d
000001d0: cc1a 7d3e 56d0 5d3e d424 c43d fcd7 383d
000001e0: 1242 00bd e54d 063e 8ce2 1e3e ec38 363c
000001f0: 3f1a 0c3e a603 be3c 92d0 6e3d b990 183e
00000200: 6038 c63c adb9 c73d a846 cb3d 378b 0ebb
00000210: c18a ca3d 998b b4bd f4f3 133a 33fa 153c
00000220: cc64 883e d7ed b73e a130 003d 09d8 913d
00000230: 00bf a43d 4763 1a3e 4704 463e 5e2b d83d
00000240: 13e9 773e 04c5 4c3e 0fc1 873d 1a37 193e
00000250: 16a1 3e3e 983e 5b3e 34f0 ea3d 890a ec3c
00000260: 2775 833e 0c6e 8b3e ab27 663d 38a4 c13d
00000270: 90f2 c5bc ba66 443d 8479 7b3d e4d3 033e
00000280: 53b3 0cbc d12d 4c3d 4369 043e 36c5 1b3d
00000290: c765 0abd a800 643e 2a14 963d 1b9c f2bc
000002a0: 4e68 80bc a282 ce3d 8948 5b3d 2005 443e
000002b0: c1fa 5e3e b646 473d 2eec 113d 3d56 bc3d
000002c0: c6b3 143e 3713 a2bd 62f2 c13d 5969 643e
000002d0: 81ef 443d fea0 b23d 1f12 d53b 8826 563e
000002e0: cc5e 513d 9377 e63d 0047 833e 1ea2 bf3d
000002f0: 1da2 103d 6d26 7f3d d382 453d 5229 ea3c
00000300: f9d2 1f3c 5216 ecba fe67 103c 2d94 0f3d
00000310: 98bd 773e c9b4 1c3d aba5 f13d f60c 053e
00000320: 996e 1b3e 12da 983d 028f 8d3d 428c b83d
00000330: 8a53 ce3d 9364 63bc ae6e 153d 13d1 373e
00000340: 6e7c 143e 1a1b ca3a f160 323c bcd8 13bd
00000350: c374 423e b9a6 993b 5117 efb9 de8d e6bc
00000360: 142c 873d cb56 2e3d e940 383d 29ee e5bd
00000370: efa9 933d 2e00 693c b497 5f3d b8ad 5abd
00000380: d3b4 26bd fb12 283d 3d78 3b3e bd14 203e
00000390: f7fe b73d 148f 7ebb 4490 cf3c 7850 3a3e
000003a0: 579b fd3c 72e5 6f3d dd21 853c 383a a23e
000003b0: c8d0 433d b315 c73d e73f b83d d18e be3e
000003c0: 1998 c03c ba1b 4a3e 0d6c cf3d 0764 8a3d
000003d0: 65dc e1bb 2d45 4f3d ab15 bf3c 784e e03d
000003e0: 28fb 413d 9294 0b3d d318 0b3e 1761 773e
000003f0: e39b 173d 788f 78bc 6011 2d3d fc00 e7ba

bn1.running_mean f4 [256]
12.128632 4.7447343 1.6309713 2.7064571 0.3984963 1.1662837 2.7468286 3.0488722
4.474974 1.2562237 2.2132125 1.1834854 4.737361 0.77738374 7.2730174 2.1794424
1.7417682 0.7037321 2.3759742 0.5610357 0.105243474 0.5742614 1.3692985 36.302128
1.8623713 1.7172072 13.868034 5.958901 2.6428406 4.320167 5.092786 6.8722696
1.4021294 1.5999993 1.6342456 19.783438 5.818455 2.2316222 1.8640616 1.2460848
2.2102842 5.0993476 0.8630702 2.4576817 1.3098013 2.507646 11.350765 7.8221345
2.6007278 4.1044974 9.7724905 0.6342074 1.2232172 0.34638447 0.7994471 3.974388
0.7706406 14.201147 0.586808 0.9156913 1.8684452 0.72746164 0.59336233 3.1853647
1.7920367 5.1817775 1.2049505 3.7334805e-05 1.0491555 2.096086 1.8020396 1.2578582
2.1927447 1.897299 5.625102 9.540616 1.243058 0.50491214 1.7906102 0.77782255
3.787269 2.5041149 2.5416546 3.740285 3.9960492 4.167321 0.70851666 2.7659438
1.034994 1.5664308 5.266853 0.6301324 4.702698 1.6604497 1.2461578 0.2839391
1.3527582 0.5929424 0.21064194 17.46583 0.9790801 12.470275 4.53002 1.6414595
0.8496004 1.1256651 2.9667544 1.3039895 8.404963 1.0494852 1.9152958 0.45089367
2.018725 1.1602916 1.8274976 0.4691763 13.540659 4.682975 4.0991936 2.5911117
2.3091698 2.807111 3.5541997 0.86467785 1.2377231 1.0211663 12.895451 1.5199692
4.650806 0.6248078 9.47986 1.941946 3.016786 17.991663 1.9189259 2.3458352
2.022165 23.996672 0.44649836 4.156161 2.2235737 1.7376709 3.4803717 0.31391555
4.2304068 0.9559981 4.080419 1.8353316 0.9728885 2.2302582 2.3644743 0.32647306
11.234592 5.9378276 0.7405835 0.87298924 0.15776308 0.8363039 0.41452155 4.5932884
0.5039478 0.03513814 1.2798386 2.0415764 1.2090987 2.0638237 6.5698237 16.47626
1.7225347 5.7799506 2.283974 4.6352253 5.4500537 0.47732666 1.077647 1.1428487
2.8504293 13.188492 1.156242 4.4961147 0.5715115 3.7612827 0.59606 4.850661
4.21661 3.1689224 35.984314 2.2161603 2.4373002 1.3787937 0.9474587 1.5305175
1.9343776 3.0486598 2.0311084 0.4683776 5.013851 0.81868196 2.3131533 0.4863708
1.9354358 0.9535089 0.75287867 2.3710332 2.315409 0.21372205 1.3233852 2.0535657
2.5622554 11.284128 4.619524 21.772907 4.970078 2.2059581 0.9575147 0.38203827
0.7518488 1.204796 0.64337695 6.040238 0.9960035 2.3820977 4.652496 1.227357
5.7465105 1.2024622 8.64726 8.208349 2.1458733 1.9948124 1.5172845 5.3510733
1.6391279 0.99405974 0.18991204 5.173074 2.1331444 6.62456 7.7981596 1.0981005
0.5573141 6.9333606 0.61780035 0.43084797 0.9295129 1.3595394 3.7724822 4.4832654
2.5291653 3.1208918 2.3502982 3.2098231 0.38130108 2.6371436 0.66093725 0.48638535
00000000: e00e 4241 ddd4 9740 abc3 d03f 9836 2d40
00000010: b507 cc3e c948 953f 0acc 2f40 b920 4340
00000020: fd32 8f40 f0cb a03f 46a5 0d40 737c 973f
00000030: 7698 9740 9f02 473f 8fbc e840 fc7b 0b40
00000040: 43f2 de3f c927 343f f60f 1840 09a0 0f3f
00000050: e489 d73d cc02 133f 2c45 af3f 6135 1142
00000060: 2f62 ee3f 72cd db3f 78e3 5d41 51af be40
00000070: 4d24 2940 cf3e 8a40 1af8 a240 a2e9 db40
00000080: fa78 b33f c7cc cc3f f62e d13f 7b44 9e41
00000090: c930 ba40 e6d2 0e40 9299 ee3f b57f 9f3f
000000a0: 4c75 0d40 db2d a340 2bf2 5c3f a84a 1d40
000000b0: 92a7 a73f 467d 2040 bc9c 3541 ed4e fa40
000000c0: 5372 2640 0b58 8340 1f5c 1c41 6b5b 223f
000000d0: 6292 9c3f 4e59 b13e 91a8 4c3f 5f5c 7e40
000000e0: b448 453f e637 6341 0d39 163f bf6a 6a3f
000000f0: 3629 ef3f ed3a 3a3f 98e6 173f 04dd 4b40
00000100: 7561 e53f 1fd1 a540 d13b 9a3f f197 1c38
00000110: ba4a 863f 4626 0640 3ca9 e63f 7f01 a13f
00000120: ee55 0c40 b2da f23f d600 b440 5da6 1841
00000130: 861c 9f3f ec41 013f b732 e53f 611f 473f
00000140: 9e62 7240 6b43 2040 78aa 2240 d460 6f40
00000150: 45bf 7f40 b25a 8540 5961 353f 3905 3140
00000160: af7a 843f ce80 c83f 0f8a a840 5b50 213f
00000170: 817c 9640 9e89 d43f 1982 9f3f 7760 913e
00000180: 2e27 ad3f 13cb 173f 85b2 573e 05ba 8b41
00000190: fea4 7a3f 3f86 4741 edf5 9040 581b d23f
000001a0: 697f 593f cb15 903f 4edf 3d40 21e9 a63f
000001b0: ba7a 0641 8855 863f 6a28 f53f 89db e63e
000001c0: ca32 0140 6f84 943f 71eb e93f e037 f03e
000001d0: 8aa6 5841 eeda 9540 982c 8340 c6d4 2540
000001e0: 70c9 1340 b5a7 3340 0278 6340 875b 5d3f
000001f0: b66d 9e3f 94b5 823f c453 4e41 5a8e c23f
00000200: 67d3 9440 67f3 1f3f 82ad 1741 b091 f83f
00000210: 0613 4140 edee 8f41 5d9f f53f 2a22 1640
00000220: 276b 0140 2ff9 bf41 6f9b e43e 45ff 8440
00000230: 084f 0e40 006c de3f 69be 5e40 8ab9 a03e
00000240: 7e5f 8740 4bbc 743f cb92 8240 25ec ea3f
00000250: 390f 793f 8dbc 0e40 8c53 1740 7a27 a73e
00000260: e4c0 3341 af02 be40 e196 3d3f 397c 5f3f
00000270: a58c 213e 0318 563f 2b3c d43e 38fc 9240
00000280: b902 013f 03ed 0f3d c0d1 a33f 30a9 0240
00000290: bfc3 9a3f b015 0440 ff3b d240 61cf 8341
000002a0: 047c dc3f 5bf5 b840 a12c 1240 c453 9440
000002b0: d766 ae40 2964 f43e 56f0 893f de48 923f
000002c0: 6f6d 3640 1004 5341 bdff 933f 2ce0 8f40
000002d0: 944e 123f dbb8 7040 6397 183f 9d38 9b40
000002e0: 78ee 8640 a0cf 4a40 f0ef 0f42 92d5 0d40
000002f0: bafc 1b40 507c b03f a78c 723f ffe7 c33f
00000300: af99 f73f 3e1d 4340 aefd 0140 30cf ef3e
00000310: 7871 a040 2495 513f b40a 1440 9805 f93e
00000320: 5cbc f73f 2919 743f a8bc 403f 02bf 1740
00000330: a92f 1440 f4d9 5a3e b064 a93f 9f6d 0340
00000340: fefb 2340 ca8b 3441 24d3 9340 ea2e ae41
00000350: e10a 9f40 6b2e 0d40 af1f 753f 859a c33e
00000360: 2a79 403f c136 9a3f 5ab4 243f a149 c140
00000370: 16fa 7e3f 4a74 1840 3fe1 9440 091a 9d3f
00000380: 6ae3 b740 48ea 993f 2d5b 0a41 6655 0341
00000390: fd55 0940 0356 ff3f 6136 c23f fe3b ab40
000003a0: f1ce d13f b37a 7e3f 4d78 423e d289 a540
000003b0: 7085 0840 65fc d340 868a f940 8f8e 8c3f
000003c0: 23ac 0e3f 17de dd40 2a28 1e3f 1b98 dc3e
000003d0: 8ff4 6d3f 6305 ae3f 5970 7140 e976 8f40
000003e0: d8dd 2140 b1bc 4740 496b 1640 be6d 4d40
000003f0: e539 c33e f6c6 2840 2f33 293f 8007 f93e

bn1.running_var f4 [256]
74.49675 57.589012 13.490827 31.1759 2.8969464 12.669153 30.0274 36.101505
58.66375 10.755159 31.281271 15.23622 41.782948 5.5464454 94.87601 23.21786
21.89296 5.7500143 21.730635 3.2721045 0.6165281 5.3631024 17.095984 1653.1877
22.470627 16.005701 133.67476 61.894382 28.625082 79.000046 63.16983 100.84168
17.557673 9.210415 25.48397 774.9366 83.0452 39.4821 22.670519 21.944134
35.314167 76.37379 7.499451 31.27624 14.020393 26.789314 289.21747 76.60943
26.384556 59.9043 157.12463 8.825026 18.626516 2.4129207 5.53329 44.933422
5.1582446 130.34799 6.8433414 8.276822 22.720284 7.2101917 8.204068 40.583614
13.372744 57.534145 10.3964 2.9350707e-05 7.2352095 19.667366 15.947572 14.542168
15.40002 23.452051 66.993904 142.95381 13.211049 4.140017 16.908445 6.5094137
39.933353 26.75571 23.888103 33.76786 53.436752 45.7792 4.370801 22.760418
12.852131 15.258308 73.82413 6.5307775 69.27352 13.881827 13.976741 2.9673297
13.573527 4.782701 1.2810216 83.84219 6.4597983 239.06906 62.526558 21.620975
6.577668 9.129863 25.410677 8.242558 118.35021 7.824348 24.070816 4.741155
18.670868 12.954026 14.586488 5.983903 257.06104 46.35609 27.958384 25.69619
19.96917 26.536219 61.8977 8.004053 8.304885 11.970286 239.54909 12.836705
53.815292 5.30268 143.31389 28.077003 43.41268 282.2432 19.490833 40.70163
14.904295 589.0469 4.6988916 52.227192 18.222267 20.029154 47.801403 3.7931862
33.45305 6.1580267 47.95265 10.963113 7.284594 17.064177 29.646696 2.272231
273.09488 78.85224 5.573034 13.444438 0.7369214 8.485712 2.0238042 71.35236
4.2169905 0.10862353 6.477261 25.623734 6.9227023 16.835718 33.16189 84.21763
17.756548 78.27152 15.004978 47.90618 74.88272 2.8673768 10.693031 9.610474
15.584725 289.4373 8.453267 50.525955 3.47513 48.724846 6.132558 53.348003
72.722664 56.365368 1571.0009 27.959621 31.04356 9.965707 7.994198 17.06889
14.17005 10.390339 24.817835 3.5380986 79.17264 9.643362 11.647648 4.727563
20.128239 6.9174013 4.4847245 28.385073 27.146955 1.5225786 13.994926 14.160169
11.3692875 169.88797 59.45158 132.6814 79.59237 21.146732 8.899166 3.8572679
4.5378523 14.78264 5.738863 54.630276 9.427993 30.739574 43.21429 12.448419
31.945366 18.47504 84.442696 144.01947 23.435917 21.029486 17.962914 24.399212
30.025904 11.978207 1.2206285 62.394478 30.634066 95.865814 97.21478 3.6980147
7.6028767 52.501904 8.232645 2.7790508 8.176982 16.818192 44.812645 46.85911
26.873182 59.35981 35.161144 40.05751 2.880018 25.874105 4.3463206 4.56887
00000000: 56fe 9442 265b 6642 6dda 5741 3e68 f941
00000010: 9267 3940 dab4 4a41 1d38 f041 f167 1042
00000020: aea7 6a42 2215 2c41 0b40 fa41 8fc7 7341
00000030: bd21 2742 7b7c b140 84c0 bd42 2dbe b941
00000040: c824 af41 1e00 b840 57d8 ad41 296a 5140
00000050: c9d4 1d3f 899e ab40 93c4 8841 02a6 ce44
00000060: d8c3 b341 ad0b 8041 bdac 0543 d993 7742
00000070: 2b00 e541 0600 9e42 e8ad 7c42 f1ae c942
00000080: 1d76 8c41 dc5d 1341 2cdf cb41 f1bb 4144
00000090: 2417 a642 aced 1d42 395d b541 968d af41
000000a0: b541 0d42 61bf 9842 81fb ef40 bd35 fa41
000000b0: 8853 6041 8450 d641 d69b 9043 0738 9942
000000c0: 9213 d341 019e 6f42 e81f 1d43 4e33 0d41
000000d0: 1b03 9541 4b6d 1a40 b610 b140 d3bb 3342
000000e0: 5710 a540 1659 0243 a7fc da40 dd6d 0441
000000f0: 24c3 b541 e4b9 e640 dd43 0341 9f55 2242
00000100: c2f6 5541 f722 6642 a857 2641 2a36 f637
00000110: d686 e740 c456 9d41 4129 7f41 b8ac 6841
00000120: 7b66 7641 cd9d bb41 e1fc 8542 2df4 0e43
00000130: 7560 5341 057b 8440 7f44 8741 1e4d d040
00000140: c1bb 1f42 b20b d641 d61a bf41 4a12 0742
00000150: 3cbf 5542 e71d 3742 9add 8b40 5615 b641
00000160: 54a2 4d41 0822 7441 f4a5 9342 21fc d040
00000170: 0b8c 8a42 f71b 5e41 bba0 5f41 bbe8 3d40
00000180: 2b2d 5941 e30b 9940 84f8 a33f 34af a742
00000190: abb6 ce40 ae11 6f43 321b 7a42 c2f7 ac41
000001a0: 427c d240 eb13 1241 1149 cb41 84e1 0341
000001b0: 4fb3 ec42 0f61 fa40 0891 c041 8bb7 9740
000001c0: f05d 9541 b143 4f41 4162 6941 227c bf40
000001d0: d087 8043 a36c 3942 c5aa df41 cc91 cd41
000001e0: dcc0 9f41 2d4a d441 3f97 7742 9a10 0041
000001f0: cfe0 0441 4b86 3f41 918c 6f43 2563 4d41
00000200: dc42 5742 8eaf a940 5b50 0f43 b49d e041
00000210: 96a6 2d42 211f 8d43 3aed 9b41 78ce 2242
00000220: fe77 6e41 0043 1344 525d 9640 a5e8 5042
00000230: 34c7 9141 b53b a041 a334 3f42 90c3 7240
00000240: eccf 0542 8e0e c540 83cf 3f42 e968 2f41
00000250: 651b e940 6f83 8841 6f2c ed41 3c6c 1140
00000260: 258c 8843 59b4 9d42 4b56 b240 6b1c 5741
00000270: e2a6 3c3f 7ac5 0741 0286 0140 69b4 8e42
00000280: 96f1 8640 0376 de3d b945 cf40 68fd cc41
00000290: c786 dd40 8daf 8641 c6a5 0442 6d6f a842
000002a0: 690d 8e41 058b 9c42 6414 7041 ee9f 3f42
000002b0: f4c3 9542 1a83 3740 a816 2b41 80c4 1941
000002c0: 095b 7941 f9b7 9043 9540 0741 941a 4a42
000002d0: 8868 5e40 3ee6 4242 ea3d c440 5b64 5542
000002e0: 0172 9142 2376 6142 0760 c444 4ead df41
000002f0: 3659 f841 8973 1f41 78d0 ff40 168d 8841
00000300: 86b8 6241 d43e 2641 ed8a c641 3570 6240
00000310: 6458 9e42 364b 1a41 c45c 3a41 3248 9740
00000320: a206 a141 5a5b dd40 dd82 8f40 a114 e341
00000330: f72c d941 dbe3 c23f 38eb 5f41 0d90 6241
00000340: 9ae8 3541 52e3 2943 6bce 6d42 70ae 0443
00000350: 4b2f 9f42 822c a941 fc62 0e41 7add 7640
00000360: 1636 9140 b285 6c41 c4a4 b740 6785 5a42
00000370: 0fd9 1641 a6ea f541 6fdb 2c42 b92c 4741
00000380: 1c90 ff41 e2cc 9341 a9e2 a842 fc04 1043
00000390: c27c bb41 633c a841 0cb4 8f41 9631 c341
000003a0: 0d35 f041 bca6 3f41 8e3d 9c3f f293 7942
000003b0: 9112 f541 4cbb bf42 f86d c242 46ac 6c40
000003c0: c44a f340 f301 5242 eab8 0341 f8db 3140
000003d0: ebd4 0241 a88b 8641 2640 3342 bb6f 3b42
000003e0: 47fc d641 7270 6d42 03a5 0c42 e43a 2042
000003f0: 3752 3840 2bfe ce41 0f15 8b40 2f34 9240
