checkpoint_maddpg_critic_agent_0.pth (torch_old, 192202 bytes, 9 tensors)

fc1.weight f4 [256, 52]
-0.05087029 -0.311014 0.002877156 0.02561432 -0.28046834 -0.958451 0.00014234704 0.007684821
-0.055878956 -0.2183773 -0.04036624 0.07795685 -0.13225874 -0.19820264 0.025447179 0.02664451
0.13014928 0.14431247 -0.04744743 0.02961949 -0.043672714 1.2871913 0.02506794 -0.03883357
0.0065930677 0.029488474 0.037005175 -0.04846678 0.2738514 -0.8423692 -0.034106318 -0.07045038
0.05243682 0.0725452 0.04692864 -0.13313465 0.13491431 -0.16749933 -0.048013363 -0.046817414
0.12423492 0.14620943 -0.024778781 -0.051338952 0.12640719 1.2843411 0.024057347 -0.03752565
-0.048950035 -0.037516113 0.14210583 -0.25945935 0.20220095 0.07509876 -0.13035178 0.16093147
-0.34743094 -0.11016986 -0.093949966 0.10850106 -0.0048610587 -0.053895537 -0.19221061 -0.20123073
-0.26229727 -0.33575132 -0.16009472 -0.30022436 0.076633014 -0.14401957 -0.060480557 -0.5388273
-0.11613471 -0.26566845 0.007929011 -0.5472016 0.14884365 0.3716331 0.09343689 -0.14590277
0.3447425 -0.18359444 -0.014369173 -0.2495575 0.09929882 0.33116677 0.06311999 -0.019098451
0.36612955 -0.31573448 0.086203724 0.016074285 0.1467964 0.21538758 0.2677672 -0.03217325
0.085030854 -0.22482392 0.27271792 0.012703105 -0.64446104 -0.153515 0.36449754 0.62502694
-0.1664684 -0.0027628168 -0.048258685 -0.4419705 0.51481 -0.028731363 -0.116938345 -0.46526778
-0.028249469 0.09168271 -0.09722544 0.0074289474 0.15531455 -0.07757875 -0.0994403 -0.014058075
0.010144698 0.117930084 0.032493398 0.051915318 -0.341644 -0.13852388 0.021852668 0.0381245
-0.28173897 -0.6426362 0.046297632 0.11858825 -0.48751795 -0.048867177 -0.01915041 0.10162423
-0.289564 -0.4718726 -0.09977383 -0.2625308 -0.18182239 -0.122240685 0.009998795 -0.37093928
-0.12668508 -0.5078892 0.051565286 -0.20277803 0.4382926 -0.07184588 0.043846257 -0.2161587
1.0230254 -0.28290993 0.061505664 0.4683097 0.5707979 -0.5343563 0.02338039 0.007988041
0.15139307 -0.004977862 0.10610071 0.031148281 0.53816414 -0.89039874 -0.0981283 0.38497365
0.35148394 -0.09841964 -0.05714766 0.37204587 0.40026358 -0.75711966 -0.019609293 0.6014619
0.23416694 -0.70296097 -0.0589057 0.55646855 -0.018835265 -0.07148415 0.01829616 -0.038739484
-0.1598478 0.014420492 -0.06555198 -0.03030237 -0.20218427 -0.2699036 -0.098318465 -0.014505874
-0.28893492 -0.08544831 -0.18154442 -0.011165051 -0.21648994 -0.34169725 -0.12798145 -0.124512486
-0.24721016 -0.7012719 -0.051583752 -0.15749402 0.05242153 0.70585394 -0.70847607 -0.5956773
-0.058280203 -0.28832334 -0.03061083 -0.34535787 -0.28626013 0.0061480724 -0.040995553 -0.2621266
0.048187383 -0.3589803 -0.0012105679 0.0384811 -0.050887093 -0.20669122 0.0038514452 0.0048684836
0.046736836 -0.15805967 -0.021818733 0.4557691 0.3452327 -0.18620571 -0.07630823 0.41427362
-0.12123425 -0.07400687 0.0057446016 0.0025838488 0.2690642 0.0061484524 -0.020603856 0.09495476
-0.01215379 -0.19615844 -0.036390457 -0.06551858 0.037243493 -0.16450953 0.012068572 -0.022901831
0.09941451 -0.17911 -0.05231862 0.4318788 -0.29169932 -0.17326775 0.003806341 0.3790517
00000000: 5d5d 50bd 3a3d 9fbe ab8e 3c3b 1fd5 d13c
00000010: 8c99 8fbe 0b5d 75bf fe42 1539 f3d0 fb3b
00000020: 55e1 64bd 4d9e 5fbe 1257 25bd d7a7 9f3d
00000030: d66e 07be a2f5 4abe 9a76 d03c 9645 da3c
00000040: da45 053e a6c6 133e 3d58 42bd 93a4 f23c
00000050: 29e2 32bd afc2 a43f 485b cd3c f30f 1fbd
00000060: a90a d83b d091 f13c bd92 173d 1a85 46bd
00000070: 4036 8c3e 82a5 57bf 11b3 0bbd 4a48 90bd
00000080: fec7 563d 9492 943d 3f38 403d 7354 08be
00000090: fa26 0a3e f284 2bbe a9a9 44bd 9ec3 3fbd
000000a0: e16e fe3d edb7 153e dffc cabc cb48 52bd
000000b0: e370 013e 4a65 a43f ea13 c53c 7fb4 19bd
000000c0: d57f 48bd 7faa 19bd 3184 113e dbd7 84be
000000d0: c40d 4f3e 61cd 993d f07a 05be 38cb 243e
000000e0: 78e2 b1be bca0 e1bd d768 c0bd ce35 de3d
000000f0: 8449 9fbb 91c1 5cbd dcd2 44be 6e0f 4ebe
00000100: d44b 86be 99e7 abbe dfef 23be 02b7 99be
00000110: c5f1 9c3d de79 13be 76ba 77bd 96f0 09bf
00000120: 09d8 edbd b205 88be afe8 013c 6715 0cbf
00000130: 786a 183e b246 be3e d75b bf3d 8967 15be
00000140: 1782 b03e 2e00 3cbe ae6c 6bbc 008c 7fbe
00000150: 2e5d cb3d b18e a93e 0e45 813d 5b74 9cbc
00000160: 5575 bb3e f3a7 a1be 948b b03d 38ae 833c
00000170: cc51 163e 908e 5c3e c818 893e 19c8 03bd
00000180: a824 ae3d 3e38 66be afa1 8b3e af20 503c
00000190: 66fb 24bf 0933 1dbe 6c9f ba3e c401 203f
000001a0: b176 2abe 6010 35bb e6aa 45bd f549 e2be
000001b0: 97ca 033f 095e ebbc 5f7d efbd 9437 eebe
000001c0: 6e6b e7bc 25c4 bb3d 221e c7bd 876e f33b
000001d0: c70a 1f3e 9ce1 9ebd 5ba7 cbbd d753 66bc
000001e0: f335 263c 5485 f13d cc17 053d 28a5 543d
000001f0: f6eb aebe 34d9 0dbe 5e04 b33c 7028 1c3d
00000200: 1740 90be ce83 24bf 96a2 3d3d 65de f23d
00000210: f49b f9be f328 48bd 52e1 9cbc 5d20 d03d
00000220: bc41 94be 4999 f1be 3956 ccbd 706a 86be
00000230: a62f 3abe 5359 fabd fcd1 233c c1eb bdbe
00000240: bcb9 01be 0705 02bf 1f36 533d 0ba5 4fbe
00000250: e367 e03e ef23 93bd 2298 333d b558 5dbe
00000260: 7ff2 823f 92d9 90be 5ded 7b3d 4ac6 ef3e
00000270: d01f 123f 93cb 08bf 3b88 bf3c 46e0 023c
00000280: c906 1b3e 551d a3bb 544b d93d ae2a ff3c
00000290: 20c5 093f 2cf1 63bf 7df7 c8bd 441b c53e
000002a0: b4f5 b33e 3c90 c9bd aa13 6abd cc7c be3e
000002b0: 59ef cc3e 98d2 41bf aba3 a0bc 68f9 193f
000002c0: 75c9 6f3e 40f5 33bf 1a47 71bd b974 0e3f
000002d0: 6a4c 9abc 4866 92bd d4e1 953c 4bad 1ebd
000002e0: 24af 23be ed43 6c3c 1e40 86bd ad3c f8bc
000002f0: 6509 4fbe ce30 8abe 315b c9bd 0caa 6dbc
00000300: 47ef 93be 86ff aebd c8e6 39be 9eed 36bc
00000310: 8aaf 5dbe f1f2 aebe 920d 03be 6700 ffbd
00000320: a924 7dbe 8e86 33bf 7c49 53bd 1d46 21be
00000330: f5b7 563d d8b2 343f b05e 35bf 4f7e 18bf
00000340: 39b7 6ebd 1e9f 93be 90c3 fabc bfd2 b0be
00000350: b090 92be c575 c93b f4ea 27bd 7535 86be
00000360: 2260 453d 44cc b7be ebab 9eba 5c9e 1d3d
00000370: fc6e 50bd dda6 53be 8768 7c3b cd87 9f3b
00000380: 206f 3f3d 65da 21be 33bd b2bc 915a e93e
00000390: 57c2 b03e b6ac 3ebe 7d47 9cbd ac1b d43e
000003a0: aa49 f8bd ea90 97bd 363d bc3b ca55 293b
000003b0: c8c2 893e f578 c93b 6bc9 a8bc a477 c23d
000003c0: b120 47bc c2dd 48be 290e 15bd 9b2e 86bd
000003d0: a28c 183d 3075 28be 43bb 453c 9f9c bbbc
000003e0: d699 cb3d 9d68 37be 0d4c 56bd 381f dd3e
000003f0: 9d59 95be 1a6d 31be ce73 793b 1013 c23e

fc1.bias f4 [256]
-0.79621845 -0.14669473 -0.18555157 -0.20588884 -0.24111477 -0.3402857 -0.38585168 -0.3525535
-0.12569168 -0.20741412 -0.24781746 -0.12348146 -0.5591157 -0.04444811 -0.2187694 0.17471515
-0.36664447 -0.08260116 -0.042223107 0.12559037 -0.15402275 -0.16213475 -0.4384131 -0.045200903
-0.3733149 -0.46457204 -0.29569203 -0.1557184 -0.5225529 -0.18217795 -0.1242323 0.0057013268
-0.47001788 0.1876972 -0.17696092 -0.2868145 -0.14394213 -0.026297534 -0.42810002 -0.48570466
0.0460381 0.37553024 -0.3170223 -0.19185138 -0.5914011 0.022079287 -0.34552494 0.006250346
-0.7287084 0.15259542 0.06442013 0.13440888 0.12246338 -0.4505678 -0.13118711 0.08308682
-0.37876803 -0.4279455 -0.84387743 -0.6015186 -0.074546665 -0.01389352 -0.17790607 -0.25320756
-0.2204508 -0.05953014 0.057573833 0.026240375 -0.007341828 -0.023362728 -0.34599632 -0.09967171
-0.36109695 -0.28721127 -0.52683204 -0.006960912 0.018547703 0.36081567 -0.4445071 -0.68215406
-0.5687966 0.1414212 -0.25561967 0.07440036 0.20879255 -0.2845893 0.06948218 0.2248331
-0.2188507 -0.53541297 -0.43125117 -0.08963966 -0.6742868 -0.26779547 0.0037710397 -0.20898
-0.5858224 -0.39769462 -0.050752122 0.3346135 -0.24935532 -0.23732005 0.13990234 -0.5830573
-0.19677499 -0.32298547 -0.26559815 0.13030563 -0.40640438 0.09055654 -0.2975214 -0.3107197
-0.17180906 0.025625845 -0.4921113 -0.08360054 -0.10293934 -0.55266345 -0.13898128 -0.06003428
-0.45938873 -0.15031157 -0.6181829 -0.27464852 -0.12170189 -0.6621697 -0.21238573 0.1679403
0.04720115 -0.33297908 0.29456145 -0.09761948 -0.09467839 -0.15843678 -0.09015426 0.100843966
-0.22235888 -0.557486 -0.20342499 -0.14119023 0.15786758 -0.29910502 -0.49576503 -0.3441319
-0.24593408 0.073427476 -0.085577466 -0.18717274 0.16475888 -0.32260635 -0.19098002 -0.33466318
0.122817025 -0.11274767 -0.46627632 0.04889921 -0.7706244 -0.3203114 -0.4436131 -0.034664482
0.006903709 -0.08265981 -0.1555326 -0.40418884 -0.04487413 0.01037834 -0.23863338 -0.078784816
-0.56480306 -0.25951272 -0.0033919162 -1.0305551 -0.26569733 -0.27395046 -0.4465734 -0.17048115
-0.12627102 -0.18672015 -0.039542835 -0.15561596 -0.12151225 -0.43880212 0.12573609 0.23632519
0.02379092 -0.12503776 -0.65904397 -0.26567185 -0.1902887 -0.42087427 -0.5333982 0.021912072
-0.24939239 -0.18685159 -0.19451156 -0.36327952 -0.0276319 -0.27368447 -0.12529601 -0.19703798
-0.10723093 -0.21060386 -0.16343386 -0.16779543 -0.3669576 -0.19028135 -0.34176147 -0.00033545226
-0.23091693 -0.41921058 -0.18277326 0.13581549 -0.10625724 -0.33217558 -0.3595717 0.054210205
0.042000774 -0.15234955 -0.30737886 -0.3819757 -0.053467434 -0.22766693 -0.083697215 -0.16601688
0.012830407 -0.117831476 -0.20859444 0.1062723 -0.029058658 -0.71076876 0.08392219 0.3428859
-0.24094711 0.5327813 -0.17606327 -0.6810656 -0.18500085 -0.20878072 -0.47551984 -0.17635459
-0.57255733 0.39131036 -0.63413125 -0.22266398 -0.6088851 -1.2850977 0.0048463196 -0.34239098
-0.3806231 -0.40839696 -0.7202777 -0.10367407 -0.10279432 -0.3503168 -0.1716327 -0.14810082
00000000: f9d4 4bbf 2537 16be 3b01 3ebe 86d4 52be
00000010: cae6 76be ed39 aebe 5a8e c5be e481 b4be
00000020: 52b5 00be 5e64 54be dcc3 7dbe d9e3 fcbd
00000030: 3522 0fbf 390f 36bd 1605 60be 87e8 323e
00000040: d3b8 bbbe cc2a a9bd 23f2 2cbd c39a 003e
00000050: 24b8 1dbe a706 26be af77 e0be 9524 39bd
00000060: 2123 bfbe 63dc edbe f264 97be a574 1fbe
00000070: 07c6 05bf db8c 3abe 816d febd 32d2 ba3b
00000080: 2fa6 f0be b233 403e 3e35 35be 5ad9 92be
00000090: 9165 13be ed6d d7bc ed2f dbbe 48ae f8be
000000a0: 7292 3c3d 8045 c03e bf50 a2be b074 44be
000000b0: 1066 17bf 9fdf b43c a5e8 b0be b4cf cc3b
000000c0: a28c 3abf f941 1c3e b3ee 833d 7ba2 093e
000000d0: 15ce fa3d d3b0 e6be ea55 06be 6c29 aa3d
000000e0: e2ed c1be ac1b dbbe 5a08 58bf 1ffd 19bf
000000f0: ecab 98bd a6a1 63bc 022d 36be 6ca4 81be
00000100: dbbd 61be e0d5 73bd 8ad2 6b3d 0ef6 d63c
00000110: b893 f0bb 3163 bfbc 6e26 b1be ae20 ccbd
00000120: b3e1 b8be 5b0d 93be 77de 06bf 5d18 e4bb
00000130: 5af1 973c d5bc b83e 6f96 e3be a6a1 2ebf
00000140: a79c 11bf b8d0 103e 95e0 82be 375f 983d
00000150: b7cd 553e b0b5 91be ac4c 8e3d a63a 663e
00000160: 661a 60be d310 09bf f4cc dcbe 0095 b7bd
00000170: 0f9e 2cbf 7d1c 89be 8c23 773b dafe 55be
00000180: 75f8 15bf a19e cbbe 75e1 4fbd 7652 ab3e
00000190: 0057 7fbe 0704 73be 8f42 0f3e 3e43 15bf
000001a0: 627f 49be 5a5e a5be 7bfc 87be d76e 053e
000001b0: 3c14 d0be b575 b93d ba54 98be a716 9fbe
000001c0: b7ee 2fbe 4bed d13c 03f6 fbbe c336 abbd
000001d0: dcd1 d2bd 5a7b 0dbf 1c51 0ebe 81e6 75bd
000001e0: 0035 ebbe 47eb 19be 3c41 1ebf bb9e 8cbe
000001f0: d73e f9bd f483 29bf a57b 59be 8bf8 2b3e
00000200: fe55 413d 3c7c aabe c2d0 963e b9ec c7bd
00000210: bee6 c1bd 403d 22be cca2 b8bd 4887 ce3d
00000220: 0cb2 63be 67b7 0ebf a44e 50be 2c94 10be
00000230: 0aa8 213e 4b24 99be ead4 fdbe 0e32 b0be
00000240: 25d6 7bbe 2561 963d 3d43 afbd 36aa 3fbe
00000250: 8db6 283e a92c a5be 4490 43be f958 abbe
00000260: 7e87 fb3d 40e8 e6bd c5bb eebe 8a4a 483d
00000270: a447 45bf dbff a3be 4221 e3be 58fc 0dbd
00000280: 8238 e23b 8c49 a9bd f043 1fbe d7f1 cebe
00000290: f0cd 37bd ea09 2a3c 4f5c 74be ef59 a1bd
000002a0: ef96 10bf dade 84be e94a 5ebb 3be9 83bf
000002b0: 7b09 88be 3c43 8cbe 45a5 e4be 9c92 2ebe
000002c0: 314d 01be 9133 3fbe abf7 21bd ca59 1fbe
000002d0: 6adb f8bd acaa e0be f6c0 003e 3bff 713e
000002e0: 2de5 c23c e609 00be 1bb7 28bf 2406 88be
000002f0: 0adb 42be d57c d7be c98c 08bf f280 b33c
00000300: b860 7fbe 0656 3fbe 0a2e 47be c6ff b9be
00000310: 4b5c e2bc 5f20 8cbe 994d 00be 53c4 49be
00000320: e49b dbbd 8aa8 57be 355b 27be 91d2 2bbe
00000330: dee1 bbbe 1dd9 42be 5cfb aebe a4df afb9
00000340: 7d75 6cbe c5a2 d6be ea28 3bbe 3713 0b3e
00000350: 659d d9bd eb12 aabe c819 b8be 850b 5e3d
00000360: 0109 2c3d 8501 1cbe c360 9dbe 5292 c3be
00000370: ab00 5bbd 8521 69be 7269 abbd 5400 2abe
00000380: a136 523c a151 f1bd c899 55be 4ba5 d93d
00000390: 6c0c eebc f1f4 35bf 66df ab3d be8e af3e
000003a0: d7ba 76be 5b64 083f ee49 34be 515a 2ebf
000003b0: dd70 3dbe 9dca 55be 5677 f3be 4c96 34be
000003c0: 1e93 12bf d559 c83e 6d56 22bf 0702 64be
000003d0: e5df 1bbf 157e a4bf e0cd 9e3b df4d afbe
000003e0: 08e1 c2be 6819 d1be 1f64 38bf 1253 d4bd
000003f0: d485 d2bd b95c b3be 7cc0 2fbe bea7 17be

fc2.weight f4 [128, 256]
-0.19985162 -0.09695393 0.16600944 -0.10928907 0.103342906 -0.009027613 0.036109798 -0.232333
-0.17191795 -0.16759889 -0.12993962 0.09962375 0.17507674 0.22104567 -0.060840346 -0.08952023
0.06623902 -0.35174206 -0.117071085 0.0063658617 0.06158124 0.09867425 0.07233727 0.097002976
-0.053924885 0.10483426 0.05705968 0.12970084 -0.23516463 0.17161386 -0.34634534 -0.25829977
0.06060244 -0.14685684 0.07086359 0.14410286 -0.26269853 -0.35630482 0.34444097 -0.073942095
-0.22769512 -0.74609137 -0.0426818 -0.08116507 -0.008156377 -0.2714172 0.011850536 0.0005198294
-0.10428608 0.10255586 0.12881953 0.005550132 -0.006068863 -0.12836924 -0.12031693 -0.5085336
0.012808188 -0.3023943 -1.4575067 -0.12096737 -0.051881723 -0.3887295 0.005567874 -0.040176388
-0.07401993 1.9318783e-05 -0.10789497 -0.0063812668 0.06312852 0.22077888 0.25420335 -0.022497928
0.023154711 0.16506699 -0.09815259 0.23035696 -0.0028081362 0.10032396 -0.10401926 0.07305886
0.036100578 0.10854988 0.21032687 0.112954676 0.047260523 -0.15132186 0.0747196 -0.041064233
-0.085375875 0.27599394 0.13288124 0.004934909 0.22220574 0.0688539 -0.106908426 -0.027632875
0.0061741727 0.04913488 -0.012059709 0.10612603 0.12646113 0.069221675 -0.050550196 0.14510018
0.020870805 0.13909581 -0.2220878 0.0035258108 -0.031160811 -0.18726644 -0.1082284 0.010868551
-0.03447343 0.02828804 0.090325594 0.014061737 -0.3549741 0.21686472 0.0060491893 -0.22486782
0.26891223 -0.20792583 -0.4174928 0.120859236 -0.07846988 0.18214081 0.030934433 -0.008569005
-0.33387414 0.019167483 0.1342674 0.020151842 0.10978572 -0.12866728 -0.009032452 0.036485594
-0.3190004 0.1471205 -0.32358274 -0.05577007 -0.2802358 0.10458858 0.05189406 0.26656094
0.05080977 -0.15830679 0.0043339944 -0.038590953 -0.016300457 -0.20967615 0.07439045 0.10315122
-0.010798525 -0.04517971 -0.07645965 -0.011644822 -0.22028708 0.065398 0.28207654 -0.10278374
-0.0004961019 -0.1597187 0.08152604 -0.17909664 -0.0010222687 -0.129631 0.18760791 -0.0014651937
0.046316262 0.018417528 -0.106808476 -0.19712016 0.04083601 -0.13740902 -0.8645937 0.21316016
-0.11310353 0.10876389 -0.46931228 0.024934908 -0.34835818 -0.179172 -0.022359883 0.104705006
0.20279561 0.06666492 -0.7155182 -0.030944956 -0.31749162 0.13937204 -0.005655142 0.17914607
0.13310115 -0.09168677 -0.1562818 0.0058547677 0.083419845 -0.12210873 -0.013314102 0.024079314
-0.00045794633 -0.13128309 0.06769616 -0.24368377 0.08093596 -0.027229914 -0.044017702 -0.26522997
0.17622992 0.017171685 -0.15720274 -0.109603874 0.068529725 -0.7051241 -0.5274651 -0.0009391175
-0.0039649447 0.45752612 -0.1563646 -0.14654402 0.27254567 0.18023069 0.12730567 0.096909285
-0.24556068 -0.020121185 -0.19457756 0.18162882 0.109306425 0.08494012 -0.056809008 -0.24620439
-0.0505514 0.027378608 -0.014945928 0.08318586 -0.050584793 -0.07335806 0.038742825 -0.3516255
-0.76502824 -0.0667911 -0.09224154 -0.16605067 0.025430748 -0.07492137 -0.062423445 -0.21131662
-0.12489266 -0.4063046 -0.8428379 -0.11455208 -0.18968873 -0.007965263 0.06669495 0.054655783
00000000: e7a5 4cbe c88f c6bd 61fe 293e f3d2 dfbd
00000010: 72a5 d33d 8ee8 13bc dee7 133d b4e8 6dbe
00000020: 420b 30be 0b9f 2bbe e40e 05be 8907 cc3d
00000030: 5147 333e cc59 623e ba33 79bd 6256 b7bd
00000040: 53a8 873d 8917 b4be f7c2 efbd b898 d03b
00000050: 9c3c 7c3d ba15 ca3d 9025 943d 7fa9 c63d
00000060: 57e0 5cbd 58b3 d63d 69b7 693d 4cd0 043e
00000070: ffce 70be 8bbb 2f3e 2d54 b1be de3f 84be
00000080: 443a 783d a461 16be ee20 913d b38f 133e
00000090: 6c80 86be 966d b6be 915a b03e f46e 97bd
000000a0: e928 69be d8ff 3ebf 1cd3 2ebd df39 a6bd
000000b0: 53a2 05bc 32f7 8abe c028 423c 2945 083a
000000c0: f193 d5bd cf08 d23d 44e9 033e e2dd b53b
000000d0: 50dd c6bb 3a73 03be b968 f6bd 422f 02bf
000000e0: 6fd9 513c 6dd3 9abe 948f babf bebd f7bd
000000f0: ee81 54bd 8e07 c7be b672 b63b ff8f 24bd
00000100: c397 97bd c50e a237 0af8 dcbd f219 d1bb
00000110: 8749 813d dc13 623e f126 823e 934d b8bc
00000120: f3ae bd3c 5207 293e 3a04 c9bd b2e2 6b3e
00000130: b508 38bb a676 cd3d 0d08 d5bd e29f 953d
00000140: 33de 133d 664f de3d ed5f 573e c854 e73d
00000150: 4094 413d 1ef4 1abe 9706 993d f832 28bd
00000160: 8cd9 aebd 144f 8d3e 0512 083e 04b5 a13b
00000170: e789 633e 4603 8d3d cef2 dabd 575e e2bc
00000180: b750 ca3b a841 493d 1696 45bc 9b58 d93d
00000190: 077f 013e 18c4 8d3d b90d 4fbd 2495 143e
000001a0: 40f9 aa3c 226f 0e3e fc6a 63be 4a11 673b
000001b0: f544 ffbc c6c2 3fbe daa6 ddbd 0212 323c
000001c0: 0334 0dbd 52bc e73c a0fc b83d 3363 663c
000001d0: 2abf b5be c911 5e3e 4738 c63b c043 66be
000001e0: ddae 893e 82ea 54be 9ec1 d5be 0c85 f73d
000001f0: d1b4 a0bd 1f83 3a3e 356a fd3c 0365 0cbc
00000200: 8df1 aabe 2005 9d3c 657d 093e 7a15 a53c
00000210: 56d7 e03d 5bc1 03be d9fc 13bc eb71 153d
00000220: 0554 a3be c2a6 163e a3ac a5be 286f 64bd
00000230: 117b 8fbe 8a32 d63d de8e 543d ad7a 883e
00000240: e81d 503d 2d1b 22be 2e04 8e3b 8c11 1ebd
00000250: 8988 85bc 58b5 56be 055a 983d f240 d33d
00000260: 4cec 30bc 5c0e 39bd e196 9cbd ecc9 3ebc
00000270: f092 61be 63ef 853d 566c 903e 4880 d2bd
00000280: d60c 02ba 4d8d 23be 20f7 a63d 1c65 37be
00000290: a5fd 85ba fdbd 04be 4a1c 403e be0b c0ba
000002a0: 1fb6 3d3d 5be0 963c 67be dabd ded9 49be
000002b0: a943 273d f3b4 0cbe 0356 5dbf a846 5a3e
000002c0: d3a2 e7bd 9abf de3d b349 f0be 4b44 cc3c
000002d0: 015c b2be dd78 37be 132c b7bc 946f d63d
000002e0: a7a9 4f3e 9e87 883d 332c 37bf 4780 fdbc
000002f0: 438e a2be 8bb7 0e3e c54e b9bb 1172 373e
00000300: ab4b 083e 46c6 bbbd 5608 20be 5ad9 bf3b
00000310: 06d8 aa3d 2414 fabd 6423 5abc fb41 c53c
00000320: 8418 f0b9 136f 06be 49a4 8a3d 3d88 79be
00000330: c1c1 a53d 4511 dfbc e84b 34bd 39cc 87be
00000340: 9e75 343e a2ab 8c3c c1f9 20be ff77 e0bd
00000350: 5059 8c3d 0383 34bf f407 07bf 1c2f 76ba
00000360: 5eec 81bb dd40 ea3e 0b1e 20be a30f 16be
00000370: 1b8b 8b3e 658e 383e 6b5c 023e 6078 c63d
00000380: 4274 7bbe 2fd5 a4bc 573f 47be e8fc 393e
00000390: 0cdc df3d 16f5 ad3d 90b0 68bd 011d 7cbe
000003a0: fc0e 4fbd 1a49 e03c c4df 74bc 595d aa3d
000003b0: 0032 4fbd c03c 96bd ccb0 1e3d 4208 b4be
000003c0: e4d8 43bf c6c9 88bd 22e9 bcbd 3009 2abe
000003d0: 2554 d03c 6070 99bd baaf 7fbd 6263 58be
000003e0: b9c7 ffbd 2807 d0be 3ac4 57bf 489a eabd
000003f0: c33d 42be bc80 02bc 5d97 883d bede 5f3d

fc2.bias f4 [128]
-0.034552936 -0.14680801 -0.19087811 -0.11995195 -0.14858782 -0.1727238 -0.14552549 -0.1945979
-0.087421104 -0.21690959 -0.15390623 -0.20980756 -0.22662832 -0.16429946 -0.13530798 -0.16841309
-0.16917577 -0.1846717 -0.03623415 -0.23156387 -0.12443512 -0.13532817 -0.17387685 -0.1393724
-0.09376448 -0.1465382 -0.20035635 -0.21361533 -0.15158652 -0.061281547 -0.19979925 -0.1494197
-0.07382676 -0.234219 -0.28134885 -0.06040345 -0.18434471 -0.10034978 -0.09194189 -0.18507123
-0.14134994 -0.14111853 0.07473958 -0.15479262 -0.16113593 -0.16613777 -0.1448877 -0.13076797
-0.1833005 -0.17317738 -0.11935227 -0.18051447 -0.23861681 -0.22750989 -0.13087243 -0.12078704
-0.14945135 -0.047538318 -0.16332959 -0.1389711 -0.15745717 -0.20248911 -0.19632465 -0.11013898
-0.218746 -0.12185574 -0.23121014 -0.13686806 -0.2177091 -0.23709375 -0.14446932 -0.24284224
-0.24242632 -0.14778762 -0.19478713 -0.20970926 -0.09964445 -0.061221056 -0.17809689 0.0079211285
-0.33888656 -0.11089785 -0.34734356 -0.08997622 -0.29492167 -0.28198758 -0.19981019 -0.13336799
-0.16043971 -0.14644821 -0.22238287 -0.16748527 -0.120102115 -0.26317835 -0.19215694 -0.29368496
-0.037541494 -0.16388515 -0.19658941 -0.22380622 -0.15798229 -0.15887997 -0.11090154 -0.25771016
-0.23251319 -0.2066591 -0.074918784 -0.24270864 -0.17615238 -0.20715022 -0.16037525 -0.1250877
-0.09942539 -0.28408742 -0.2334258 -0.20699576 -0.15079117 -0.1688823 -0.11398652 -0.26629373
-0.1436081 -0.2549681 -0.37632495 -0.12587932 -0.18444069 -0.12920311 -0.22083 -0.20935532
00000000: 6187 0dbd d754 16be 8d75 43be 5ea9 f5bd
00000010: 6827 18be 82de 30be a204 15be ac44 47be
00000020: d609 b3bd 8c1d 5ebe 9899 1dbe cbd7 56be
00000030: 4111 68be 1e3e 28be 2d8e 0abe 7b74 2cbe
00000040: 6a3c 2dbe 941a 3dbe 436a 14bd 141f 6dbe
00000050: d7d7 febd 7893 0abe c60c 32be a3b7 0ebe
00000060: 9707 c0bd 1c0e 16be 372a 4dbe fabd 5abe
00000070: 7f39 1bbe 5c02 7bbd 2d98 4cbe 7a01 19be
00000080: 7c32 97bd 1bd7 6fbe f50c 90be 9c69 77bd
00000090: dcc4 3cbe 2f84 cdbd 084c bcbd 5083 3dbe
000000a0: 0abe 10be 6081 10be 1111 993d f581 1ebe
000000b0: d100 25be 0520 2abe 715d 14be 0ae8 05be
000000c0: 20b3 3bbe 6955 31be f76e f4bd c9d8 38be
000000d0: f757 74be 5af8 68be 6c03 06be 325f f7bd
000000e0: c609 19be 8ab7 42bd df3f 27be 714e 0ebe
000000f0: 743c 21be 4e59 4fbe 5409 49be 8c90 e1bd
00000100: f4fe 5fbe 818f f9bd 5ac2 6cbe 2427 0cbe
00000110: 22ef 5ebe b4c8 72be c4ef 13be a3ab 78be
00000120: 9b3e 78be a355 17be 4776 47be 06be 56be
00000130: 6412 ccbd eec2 7abd 085f 36be 9fc7 013c
00000140: 8a82 adbe 691e e3bd 04d7 b1be 7445 b8bd
00000150: f9ff 96be ad60 90be 0b9b 4cbe 9e91 08be
00000160: 4f4a 24be 85f6 15be 56b8 63be 4281 2bbe
00000170: 19f8 f5bd 50bf 86be cac4 44be e05d 96be
00000180: 1cc5 19bd 82d1 27be bc4e 49be 752d 65be
00000190: 1cc6 21be 6eb1 22be 5920 e3bd 96f2 83be
000001a0: f017 6ebe 719e 53be 056f 99bd 9d88 78be
000001b0: 4a61 34be 301f 54be 6939 24be fd16 00be
000001c0: 8a9f cbbd e873 91be 2c07 6fbe b2f6 53be
000001d0: 0069 1abe 7bef 2cbe c471 e9bd a757 88be
000001e0: 000e 13be 2e8b 82be aaad c0be 82e6 00be
000001f0: 05de 3cbe d24d 04be 4221 62be 3e61 56be

fc3.weight f4 [1, 128]
0.03908876 -0.074541956 -0.0144229345 0.024477104 0.0114563955 0.020744065 0.024374131 0.03225218
-0.02993437 0.0014294052 -0.015802857 0.011603475 -0.03837233 0.004786129 -0.067680664 -0.03047402
0.013935947 0.011902086 0.03404298 0.05429445 -0.007700605 0.056182884 -0.037808225 -0.01690103
0.027599787 -0.0067961523 0.019125551 -0.09031579 0.011768652 0.0022249492 -0.0114168 0.038220905
-0.020038202 0.04684854 0.06264828 0.03101726 0.018907446 0.027522521 -0.011505173 -0.020999376
0.0046786834 -0.029422186 0.032195713 0.0072555277 0.0048461906 -0.022650903 0.0017095093 -0.01781197
-0.05739955 -0.06227587 -0.06836963 -0.0058835675 -0.09203573 -0.019960575 -0.04947444 -0.033497807
-0.058073603 -0.008928352 0.0011354167 -0.024581581 -0.08354654 -0.08772539 -0.013846244 0.024651393
-0.009627642 -0.03412926 -0.044603456 0.011612542 0.05785177 0.020617299 -0.010537951 0.05562985
0.11067769 -0.018185914 0.038602713 -0.07952571 -0.021926843 0.027487123 -0.061666008 -0.034950618
0.049689956 -0.029746495 0.032139633 0.050051227 0.015454186 -0.019308174 -0.013582083 0.0012021867
-0.004864384 -0.014540981 -0.02796878 -0.05658899 -0.0077048996 0.013557476 0.010665583 0.017948996
-0.041605137 -0.09751782 -0.008018335 0.026958175 0.020971864 0.0021842353 -0.005951175 -0.0076372707
0.015362998 0.023536198 0.020156108 -0.0050921733 -0.003933095 -0.100789964 0.01914423 0.025724107
-0.018336348 -0.07440197 0.041886378 -0.023421638 -0.03737203 0.074320875 0.017072888 0.06488989
-0.07035264 -0.0063410513 0.05312426 -0.0051996913 -0.000823687 -0.04763182 -0.03076824 -0.006827849
00000000: 891b 203d 74a9 98bd 2c4e 6cbc 3584 c83c
00000010: 9bb3 3b3c 75ef a93c 42ac c73c dd1a 043d
00000020: ed38 f5bc e15a bb3a fe74 81bc 801c 3e3c
00000030: 4e2c 1dbd f6d4 9c3b 299c 8abd a7a4 f9bc
00000040: 9953 643c f800 433c a770 0b3d db63 5e3d
00000050: 5b55 fcbb 0620 663d ccdc 1abd 0774 8abc
00000060: f318 e23c 42b2 debb 30ad 9c3c 7cf7 b8bd
00000070: 4ed1 403c 74d0 113b 880d 3bbc 868d 1c3d
00000080: 2827 a4bc 41e4 3f3d be4d 803d e917 fe3c
00000090: cae3 9a3c e976 e13c 3180 3cbc e206 acbc
000000a0: a44f 993b cc06 f1bc a7df 033d c7bf ed3b
000000b0: cbcc 9e3b 638e b9bc 9d11 e03a 69ea 91bc
000000c0: ca1b 6bbd fc14 7fbd 6005 8cbd f1ca c0bb
000000d0: 3b7d bcbd 5c84 a3bc b6a5 4abd ff34 09bd
000000e0: 96de 6dbd 3948 12bc 43d2 943a 505f c9bc
000000f0: 731a abbd 5fa9 b3bd 5bdb 62bc b8f1 c93c
00000100: 42bd 1dbc 1fcb 0bbd 1db2 36bd 8842 3e3c
00000110: faf5 6c3d 9ce5 a83c 5fa7 2cbc 20dc 633d
00000120: fcaa e23d a0fa 94bc e11d 1e3d 60de a2bd
00000130: ec9f b3bc ad2c e13c 7f95 7cbd 6128 0fbd
00000140: b287 4b3d ecae f3bc d9a4 033d 8402 4d3d
00000150: 8e33 7d3c 2d2c 9ebc 6387 5ebc b192 9d3a
00000160: 6965 9fbb 4b3d 6ebc c81e e5bc dbc9 67bd
00000170: 6279 fcbb 2d20 5e3c b3be 2e3c c609 933c
00000180: 266a 2abd 6cb7 c7bd 565f 03bc 64d7 dc3c
00000190: 30cd ab3c 6325 0f3b 1302 c3bb 1242 fabb
000001a0: 15b5 7b3c fcce c03c 6c1e a53c 3fdc a6bb
000001b0: 31e1 80bb f86a cebd 5cd4 9c3c 5dbb d23c
000001c0: 1c36 96bc 0f60 98bd 0d91 2b3d bcde bfbc
000001d0: 6a13 19bd 8b35 983d 71dc 8b3c fee4 843d
000001e0: 0b15 90bd 98c8 cfbb d398 593d 2c62 aabb
000001f0: b3ec 57ba 9519 43bd ad0d fcbc 26bc dfbb

bn1.weight f4 [256]
0.5885214 0.1560642 0.10845927 0.2150357 0.26022765 0.02834763 0.07831029 0.4723379
0.06901047 0.5787269 0.33176795 0.26086172 1.0129676 0.19425814 0.10895086 0.22919367
0.2676764 0.23307554 0.21387844 0.0013645621 -0.22216305 0.18694243 0.18297315 0.2307488
0.12366461 0.7792443 0.54067785 0.59330344 0.18884316 0.057426985 0.5209014 0.08199201
0.13285866 0.21245086 0.09546707 0.20368138 0.5056877 0.43138534 0.15293492 0.39928356
0.1592724 0.4208457 0.20913434 0.1989429 0.560022 0.69167244 0.8392798 -0.003691637
0.19346789 0.15785159 0.39234367 0.0015291573 0.0977845 0.08754539 0.4728813 0.28993526
0.48875582 0.1583464 0.6184089 0.09886056 0.43369928 0.094917536 0.008542262 0.25826946
0.36432484 0.010191582 0.22926025 -0.0034268708 0.23373133 0.18044066 0.13574672 0.16082403
0.84715384 0.21079323 0.16939226 0.5534859 0.09129467 -0.22615631 0.11086104 0.2944665
0.1496381 0.1861638 0.3387223 0.25227147 0.36725774 0.11169009 0.29051355 0.1129273
0.07702466 -0.23284884 0.15809573 0.45663342 0.26053962 0.2910831 0.17951085 0.18822554
0.4413345 0.12795366 0.45379537 0.39887547 0.17998873 0.12982929 0.26295495 0.40521
0.12014476 0.11852089 0.2225506 0.012308856 0.19248213 -0.008242108 0.30229878 0.13340957
0.35313958 0.13262239 0.23434566 0.21573442 0.34851632 0.2999657 0.30009118 0.112439215
-0.20854309 0.3110007 0.4847369 0.21890597 0.37984768 0.14803073 0.28933528 0.29371062
0.21071158 0.13713098 0.13118763 0.08628824 0.36703172 0.3633055 0.25576413 0.47167653
0.33235905 0.23935685 0.24649148 0.22500503 0.26163375 0.22756428 0.649565 0.20243768
0.18092209 0.4434258 0.3441576 0.19774462 0.10593165 0.14587726 0.14119361 0.14599651
0.21276543 0.17563936 0.28881952 0.25873896 0.45533875 0.1994916 0.22343151 -0.020485908
-0.0007221585 0.18061587 0.25225577 0.25965005 0.15690629 0.29500476 0.42220423 0.0064610457
0.23171687 0.17277284 0.27953628 0.46295515 0.32732308 0.18038309 0.49779758 0.20516828
0.2406693 -0.09296984 0.3349785 0.14709948 0.18035863 0.17961526 0.23347753 0.52294886
0.27195314 0.45505747 0.39065135 0.15103471 0.33527818 0.16255987 0.3068102 0.24087594
0.5441135 0.49965584 0.14140652 0.14771712 0.37579337 0.15837263 0.088857636 0.1717571
0.20179039 0.11964749 0.3065819 0.16935699 0.40899542 0.10000812 0.46558213 0.1987071
0.16883306 0.23690762 0.16685285 0.21537603 0.33476007 0.10030455 0.15444805 0.0051482865
0.15267617 -0.1578821 0.37699905 0.4172169 0.32219103 0.07756676 0.16395678 -0.2200645
0.28966916 0.18605626 0.2067243 0.09542108 0.16374134 0.3305328 0.17728508 0.33172816
0.14224508 0.31557286 0.17600565 0.6483611 0.21512987 0.14718357 0.122465394 0.3761921
0.21776241 0.66679883 1.2250249 0.22972403 0.10654687 0.6896413 0.5039052 0.14420909
0.37849528 0.2839007 0.60694087 0.13868256 0.07411294 0.37371513 0.28515074 0.17031683
00000000: 57a9 163f 4bcf 1f3e e51f de3d 5232 5c3e
00000010: 8f3c 853e 4a39 e83c 2561 a03d 46d6 f13e
00000020: 5c55 8d3d 7227 143f 7ddd a93e ab8f 853e
00000030: eca8 813f 9beb 463e a121 df3d bfb1 6a3e
00000040: e20c 893e 5bab 6e3e f302 5b3e 1bdb b23a
00000050: b67e 63be d66d 3f3e 505d 3b3e 6a49 6c3e
00000060: df43 fd3d 8e7c 473f dd69 0a3f bce2 173f
00000070: 1a60 413e 8f38 6b3d cb59 053f 6deb a73d
00000080: 1a0c 083e b88c 593e 3d84 c33d da91 503e
00000090: c074 013f 8ade dc3e f99a 1c3e e56e cc3e
000000a0: 4e18 233e 1679 d73e 5027 563e b0b7 4b3e
000000b0: 9a5d 0f3f 7211 313f 0adb 563f 64ef 71bb
000000c0: 721c 463e d9a3 213e 45e1 c83e 016e c83a
000000d0: 3d43 c83d ff4a b33d 7f1d f23e 6572 943e
000000e0: 343e fa3e 8f25 223e 0c50 1e3f 6877 ca3d
000000f0: d50d de3e 2064 c23d d8f4 0b3c e53b 843e
00000100: c988 ba3e 98fa 263c 33c3 6a3e 5a95 60bb
00000110: 4457 6f3e 70c5 383e 3001 0b3e 0eaf 243e
00000120: 13df 583f 2eda 573e 2a75 2d3e 40b1 0d3f
00000130: b3f8 ba3d 8595 67be 1d0b e33d 50c4 963e
00000140: bb3a 193e b9a1 3e3e 026d ad3e ba29 813e
00000150: 3509 bc3e c6bd e43d 31be 943e 6e46 e73d
00000160: 1bbf 9d3d ed6f 6ebe d9e3 213e dbcb e93e
00000170: 7365 853e d808 953e b1d1 373e 32be 403e
00000180: 98f6 e13e 4906 033e de57 e83e 6839 cc3e
00000190: f74e 383e f8f1 043e 08a2 863e af77 cf3e
000001a0: 750e f63d 15bb f23d 4ee4 633e 15ab 493c
000001b0: 091a 453e e809 07bc e8c6 9a3e 859c 083e
000001c0: b6ce b43e 2ace 073e 4ff8 6f3e 7ce9 5c3e
000001d0: bb70 b23e 1b95 993e 8da5 993e 8846 e63d
000001e0: 528c 55be 7c3b 9f3e 6f2f f83e e328 603e
000001f0: 657b c23e 5e95 173e c123 943e 3d61 963e
00000200: c7c4 573e 106c 0c3e 0d56 063e e4b7 b03d
00000210: 95eb bb3e 2e03 ba3e 84f3 823e 967f f13e
00000220: f72a aa3e f619 753e 4368 7c3e b867 663e
00000230: dcf4 853e 9c06 693e e449 263f d34b 4f3e
00000240: a443 393e b508 e33e 6d35 b03e 917d 4a3e
00000250: b1f2 d83d d960 153e 0f95 103e 1c80 153e
00000260: 2edf 593e ceda 333e 27e0 933e 6f79 843e
00000270: 2922 e93e 8747 4c3e 3bcb 643e 10d2 a7bc
00000280: 3d4f 3dba 5ef3 383e ab27 813e daf0 843e
00000290: 0bac 203e dd0a 973e 272b d83e 2eb7 d33b
000002a0: 3047 6d3e 5deb 303e 611f 8f3e 7508 ed3e
000002b0: e496 a73e 58b6 383e 53df fe3e a217 523e
000002c0: 0372 763e f966 bebd 4d82 ab3e 3fa1 163e
000002d0: efaf 383e 10ed 373e bc14 6f3e fadf 053f
000002e0: 713d 8b3e 4bfd e83e 7403 c83e d8a8 1a3e
000002f0: 95a9 ab3e 1876 263e 3a16 9d3e 2fa8 763e
00000300: 064b 0b3f e4d2 ff3e dfcc 103e 2843 173e
00000310: fd67 c03e 6f2c 223e fefa b53d 18e1 2f3e
00000320: 24a2 4e3e be09 f53d 4ef8 9c3e eb6b 2d3e
00000330: d967 d13e 0fd1 cc3d c860 ee3e e079 4b3e
00000340: 93e2 2c3e e997 723e 79db 2a3e 898b 5c3e
00000350: ac65 ab3e 796c cd3d a127 1e3e f5b2 a83b
00000360: 2457 1c3e d8ab 21be 0506 c13e 749d d53e
00000370: 39f6 a43e 52db 9e3d 49e4 273e 9758 61be
00000380: 844f 943e 8885 3e3e 89af 533e 216c c33d
00000390: cfab 273e 983b a93e 388a 353e 46d8 a93e
000003a0: b2a8 113e c492 a13e d33a 343e fefa 253f
000003b0: 014b 5c3e 4ab7 163e 23cf fa3d 409c c03e
000003c0: 1cfd 5e3e 54b3 2a3f 9ecd 9c3f c73c 6b3e
000003d0: 3f35 da3d 558c 303f eeff 003f 8cab 133e
000003e0: 22ca c13e 6f5b 913e 7a60 1b3f cd02 0e3e
000003f0: 86c8 973d 9757 bf3e 47ff 913e 8967 2e3e

bn1.bias f4 [256]
-0.013179342 0.07990858 -0.004183392 0.06452656 0.0250282 0.021827208 0.010768667 0.16804853
0.024533398 0.32124394 0.20601618 0.13584776 0.17270397 0.07047646 0.031029103 0.086191714
0.15877202 0.20463306 0.12119514 0.00045847343 -0.048407346 -0.01048771 0.041748334 0.07428436
-0.041947592 0.19177702 0.2599806 0.1907667 0.016735094 -0.016700093 0.20416883 0.13697323
0.017934874 -0.055538125 0.049800098 0.07830457 0.06229511 0.17652468 0.036980793 0.19595055
0.13382754 0.258203 0.059967276 0.03901039 0.18872431 0.12603937 0.29127643 -0.00081704423
-0.0013805006 0.0051417043 0.18693689 0.005666974 -0.0031357226 0.006775464 0.2927775 0.16037415
0.16829814 0.057014745 0.16822544 0.009458481 0.16683719 0.014236191 0.0011474232 0.10023894
0.13438085 -0.0026643376 0.09330673 -0.005433148 0.13642493 0.053483542 0.04005052 0.13682963
0.1836174 0.0621698 0.06691191 0.2681542 0.0719069 -0.04071782 0.057139702 0.040890787
0.031251114 0.024094312 0.14729261 0.14257996 0.1802446 0.019539775 0.17394526 0.002522589
0.047451213 -0.08142192 0.050972324 0.26987228 0.07795902 0.16578889 0.07943736 0.08985441
0.11436546 0.0066210222 0.29636765 0.24806356 0.072217084 -0.074334815 0.14337112 0.19621219
0.06557683 -0.04436618 0.10555089 -0.0010833307 0.110638216 0.15548994 0.06362548 0.03989084
0.17323346 0.05594812 0.093188934 0.12504521 0.25815037 0.115656376 0.07867531 0.00923416
-0.06387626 0.1486156 0.227603 -0.010513498 0.14844874 0.02953789 0.11302262 0.04607622
0.019061966 0.04302196 0.1373373 0.013258634 0.13405904 0.19184068 0.026524138 0.1816499
0.10785631 0.08767475 0.0642433 0.06193855 0.062314466 0.059090555 0.22994524 0.05062254
0.018545622 0.22665867 0.15744974 -0.07801108 0.0039518066 0.003259593 0.0345836 0.09587775
0.08624452 0.11255516 0.08974552 0.13158521 0.231052 0.07057409 0.081772074 0.13799673
0.0024143248 0.034582034 0.0734737 0.08538033 0.025590321 0.15830119 0.06239767 -0.00053749257
0.08127286 0.069983296 0.06399911 0.0447321 0.09614381 0.092173435 0.1028158 0.11572533
0.09315854 -0.098354265 0.1731958 0.026083099 0.12085644 0.113476835 0.09389252 0.20077962
0.14892311 0.26014733 0.17077686 0.052184656 0.06318837 0.056166746 0.043304443 0.10585264
0.05161766 0.22957255 0.00746903 0.019259296 0.20242679 0.04923137 0.017085958 0.0809576
0.08464158 -0.012812296 0.15472773 0.0660161 0.05938116 0.021765243 0.18968318 0.19144185
-0.06651397 -0.009147219 -0.015072671 0.03154591 0.0866203 0.01441765 0.030923273 0.0042217434
0.022378054 -0.032676246 0.22842887 -0.0067879134 0.20493354 0.016154105 0.069987915 -0.109934576
0.15205109 -0.00074354646 -0.023409635 0.015583315 0.05012951 -0.062292326 0.13284224 0.0638258
0.0615232 0.15239708 0.081237644 0.18825996 0.07358704 0.14838405 0.016665855 0.09783934
0.06511979 0.07552084 0.20962936 0.036903255 -0.17457151 0.15358102 0.10197599 0.009416683
0.064977564 0.13753507 0.17423901 0.06799735 0.009672994 0.06991168 0.077644594 -0.029671166
00000000: 2bee 57bc 1ca7 a33d d614 89bb 8026 843d
00000010: f107 cd3c f9ce b23c 106f 303c ea14 2c3e
00000020: 44fa c83c 167a a43e e8f5 523e ad1b 0b3e
00000030: 4fd9 303e f655 903d bf30 fe3c 4885 b03d
00000040: 2295 223e 548b 513e 2835 f83d 435f f039
00000050: c846 46bd a5d4 2bbc 4d00 2b3d 6622 983d
00000060: 3dd1 2bbd 3261 443e 2d1c 853e 5958 433e
00000070: 0918 893c a2ce 88bc a211 513e b642 0c3e
00000080: 28ec 923c f27b 63bd 30fb 4b3d 255e a03d
00000090: 2829 7f3d e3c2 343e 2c79 173d 43a7 483e
000000a0: 160a 093e 2f33 843e 3fa0 753d 5cc9 1f3d
000000b0: f240 413e 7710 013e 2f22 953e e92e 56ba
000000c0: eaf1 b4ba be7b a83b 626c 3f3e 06b2 b93b
000000d0: b280 4dbb b604 de3b efe6 953e 1f39 243e
000000e0: 5956 2c3e 4b88 693d 4a43 2c3e bff7 1a3c
000000f0: 5ed7 2a3e ea3e 693c 2265 963a 134a cd3d
00000100: 229b 093e 2b9c 2ebb 9917 bf3d 8c08 b2bb
00000110: fab2 0b3e 8f11 5b3d 040c 243d 111d 0c3e
00000120: 3306 3c3e c3a5 7e3d 1d09 893d 824b 893e
00000130: ed43 933d bbc7 26bd 520b 6a3d 197d 273d
00000140: 2b01 003d 6f61 c53c e0d3 163e 7b00 123e
00000150: 0a92 383e e111 a03c b51e 323e 0552 253b
00000160: 345c 423d 89c0 a6bd 5bc8 503d b32c 8a3e
00000170: fba8 9f3d 90c4 293e 0eb0 a23d 9705 b83d
00000180: 7038 ea3d 29f5 d83b 80bd 973e 6004 7e3e
00000190: 8de6 933d da3c 98bd e1cf 123e d9eb 483e
000001a0: 254d 863d 50b9 35bd 112b d83d 8cfe 8dba
000001b0: 4a96 e23d c138 1f3e 134e 823d 9464 233d
000001c0: 1d64 313e db29 653d d7d9 be3d da0b 003e
000001d0: 492c 843e 40dd ec3d 8520 a13d e04a 173c
000001e0: 8ed1 82bd b02e 183e c310 693e cf40 2cbc
000001f0: f202 183e 72f9 f13c 6778 e73d 6bba 3c3d
00000200: d727 9c3c cb37 303d 26a2 0c3e be3a 593c
00000210: c646 093e e271 443e 2649 d93c 6e02 3a3e
00000220: c5e3 dc3d d28e b33d fe91 833d 47b3 7d3d
00000230: 743d 7f3d f008 723d c476 6b3e 9559 4f3d
00000240: fdec 973c 3619 683e 813a 213e 46c4 9fbd
00000250: 287e 813b e59e 553b 88a7 0d3d 8e5b c43d
00000260: f8a0 b03d 5283 e63d 80cc b73d 46be 063e
00000270: e598 6c3e 2689 903d 1e78 a73d 044f 0d3e
00000280: a639 1e3b e4a5 0d3d 6179 963d e2db ae3d
00000290: cba2 d13c b519 223e b394 7f3d 84e6 0cba
000002a0: 6372 a63d 6753 8f3d f711 833d 0239 373d
000002b0: 0ce7 c43d 6dc5 bc3d 1791 d23d 6701 ed3d
000002c0: e8c9 be3d f66d c9bd 3d5a 313e 39ac d53c
000002d0: 9583 f73d 8b66 e83d b94a c03d 2c99 4d3e
000002e0: 4d7f 183e 0832 853e 21e0 2e3e 94bf 553d
000002f0: e768 813d 1a0f 663d 0060 313d 45c9 d83d
00000300: 0a6d 533d 1115 6b3e c4be f43b acc5 9d3c
00000310: f848 4f3e d5a6 493d daf7 8b3c 19cd a53d
00000320: 9158 ad3d aaea 51bc f270 1e3e 7333 873d
00000330: a939 733d 064d b23c 4f3c 423e 5509 443e
00000340: 7a38 88bd 38de 15bc 5df3 76bc 4936 013d
00000350: fc65 b13d 0238 6c3c ce52 fd3c 8d56 8a3b
00000360: 2e52 b73c 87d7 05bd 42e9 693e 256d debb
00000370: 19da 513e 9d55 843c d355 8f3d 6125 e1bd
00000380: 48b3 1b3e 8fea 42ba 90c5 bfbc 2951 7f3c
00000390: 9a54 4d3d 3d26 7fbd cc07 083e 1ab7 823d
000003a0: c0ff 7b3d fb0d 1c3e ec5f a63d 38c7 403e
000003b0: cdb4 963d fdf1 173e d586 883c fe5f c83d
000003c0: 865d 853d acaa 9a3d 14a9 563e de27 173d
000003d0: e0c2 32be 5844 1d3e cad8 d03d 6e48 1a3c
000003e0: f512 853d fed5 0c3e b66b 323e 3242 8b3d
000003f0: 7a7b 1e3c db2d 8f3d 2104 9f3d f210 f3bc

bn1.running_mean f4 [256]
2.859634 7.3476872 3.5632672 1.5835403 0.8435738 0.22635892 0.20631985 1.2106116
3.014318 11.908126 13.876203 1.6018515 2.3500178 0.73545325 14.199484 1.2074159
2.37127 12.225962 5.7559195 8.700302 0.38065752 0.84103584 0.61076826 4.5881686
2.1359406 0.17200993 6.2272835 10.620767 7.082326 2.0160413 2.9807515 2.7309818
0.25698444 2.6043575 3.9791875 1.3954507 0.11161463 2.2933095 1.4682342 1.9854397
13.17015 4.1654153 1.2305732 0.9980737 2.124502 0.17784578 17.53609 9.459053
18.93278 6.2467437 3.3994176 3.238995 1.5766466 1.0784565 21.931078 7.982681
3.8455076 1.7413493 0.66130865 0.46165445 1.0420725 0.40100324 0.40356264 1.4580442
1.5687488 8.27405 2.5657134 5.890717 3.1910233 0.5944206 1.203867 8.626607
24.263794 3.778248 4.6675673 5.041271 1.5848883 0.9715417 0.15684646 4.4746366
5.1916785 1.5768886 2.1900442 3.155695 4.3323135 0.35206127 5.4390388 2.919019
2.8278625 5.092407 1.713304 4.745837 2.0524805 3.0317836 1.1640428 2.127118
0.9358604 3.040913 9.663426 3.5217118 1.8624856 6.469359 2.1445549 2.3951614
3.0197432 7.194402 2.9813643 7.5005684 4.340182 15.655789 0.5932721 1.5921236
1.2400689 4.2394075 3.3203657 4.418465 16.650642 1.9578911 0.35854563 0.6559509
0.7971992 2.9644673 3.3251688 1.6074421 1.5021336 2.4235013 3.1289768 0.91552585
0.93738717 0.6083202 7.16744 0.23338723 1.4184867 7.057036 1.7610277 18.855465
0.66584814 1.1555732 0.70437455 1.1990671 0.9318798 0.38611922 4.23746 2.3639033
0.9908846 2.5840492 1.7874238 24.32407 2.2398396 0.884907 0.8937576 3.2031853
1.0402238 5.165808 2.431392 1.2958626 0.6148 2.7359536 0.7970012 10.269811
7.3246036 1.5287838 1.2914394 1.6271178 1.9187112 3.5251906 2.1659324 4.737573
3.915464 8.359061 0.4017757 12.1226635 0.6741562 3.7318873 2.2047932 3.4528055
3.5424802 1.1214443 5.857832 0.43531337 7.485771 3.3090909 6.9011984 0.2791285
6.231801 3.0534484 1.4409949 0.77487403 0.44456705 1.2651174 0.17356315 1.3473305
0.027721267 7.2395935 0.9389028 1.5463903 3.4927604 1.2704346 0.6694724 6.850014
1.1088372 4.9301004 1.9767026 1.7399609 9.80088 0.3478917 1.8572599 9.248521
2.949309 1.5776671 1.4001654 7.88185 3.0035963 0.1932999 0.8373373 8.085899
0.20455502 0.4053064 19.18662 5.0916476 11.668418 1.478572 2.381304 0.9761047
5.7164283 6.8367715 12.995899 8.462653 0.65002567 0.3161921 3.5878453 0.31755176
5.152852 1.5094962 3.2084398 3.1499534 0.8781433 3.994894 1.5889188 0.5000312
0.85642254 0.20068051 4.1175265 2.3912537 3.1220477 0.7011516 0.21930104 0.7025002
0.28977352 1.8793355 0.24939615 0.64316475 1.4073365 4.8401146 0.0917418 0.24190162
00000000: 3e04 3740 4120 eb40 920c 6440 73b1 ca3f
00000010: 74f4 573f a2ca 673e 8345 533e 52f5 9a3f
00000020: 96ea 4040 af87 3e41 ed04 5e41 7809 cd3f
00000030: b166 1640 aa46 3c3f 1631 6341 9b8c 9a3f
00000040: e3c2 1740 8a9d 4341 7e30 b840 7034 0b41
00000050: 8be5 c23e 204e 573f 4f5b 1c3f 47d2 9240
00000060: 40b3 0840 5f23 303e e845 c740 a9ee 2941
00000070: 6aa2 e240 d206 0140 a2c4 3e40 68c8 2e40
00000080: 7793 833e cbad 2640 02ab 7e40 219e b23f
00000090: 3696 e43d 95c5 1240 19ef bb3f e322 fe3f
000000a0: efb8 5241 154b 8540 6c83 9d3f c281 7f3f
000000b0: d7f7 0740 341d 363e ea49 8c41 4858 1741
000000c0: 5576 9741 53e5 c740 0f90 5940 b24b 4f40
000000d0: 8ecf c93f dd0a 8a3f d972 af41 1f72 ff40
000000e0: cc1c 7640 89e4 de3f 864b 293f f95d ec3e
000000f0: a262 853f 4c50 cd3e c39f ce3e 31a1 ba3f
00000100: c3cc c83f 8262 0441 a634 2440 c180 bc40
00000110: ba39 4c40 f32b 183f 5018 9a3f 9506 0a41
00000120: 401c c241 d1ce 7140 b65c 9540 1852 a140
00000130: 9fdd ca3f f5b6 783f 5c9c 203e 3930 8f40
00000140: 3b22 a640 7cd7 c93f af29 0c40 e8f6 4940
00000150: 50a2 8a40 6041 b43e 9b0c ae40 35d1 3a40
00000160: b3fb 3440 00f5 a240 8c4d db3f e6dd 9740
00000170: d75b 0340 be08 4240 5bff 943f b422 0840
00000180: 8c94 6f3f 529e 4240 659d 1a41 ba63 6140
00000190: ee65 ee3f fd04 cf40 6340 0940 534a 1940
000001a0: 7943 4140 8b38 e640 acce 3e40 a804 f040
000001b0: c5e2 8a40 1d7e 7a41 aee0 173f b5ca cb3f
000001c0: 94ba 9e3f 3aa9 8740 df80 5440 1164 8d40
000001d0: 8434 8541 2d9c fa3f 4b93 b73e 66ec 273f
000001e0: 3f15 4c3f d5b9 3d40 91cf 5440 aac0 cd3f
000001f0: ea45 c03f a51a 1b40 2841 4840 e75f 6a3f
00000200: 9bf8 6f3f dfba 1b3f ab5b e540 10fd 6e3e
00000210: f990 b53f 3dd3 e140 5b69 e13f fed7 9641
00000220: 0675 2a3f d3e9 933f e451 343f 087b 993f
00000230: ad8f 6e3f 6bb1 c53e 4699 8740 314a 1740
00000240: 9daa 7d3f 1061 2540 4eca e43f b297 c241
00000250: 8859 0f40 4489 623f 4ccd 643f fd00 4d40
00000260: 0e26 853f 4d4e a540 ed9b 1b40 d3de a53f
00000270: 8863 1d3f dd19 2f40 4508 4c3f 2551 2441
00000280: 2763 ea40 30af c33f e34d a53f 6545 d03f
00000290: 5498 f53f b99c 6140 a39e 0a40 339a 9740
000002a0: f696 7a40 b7be 0541 8bb5 cd3e 6ef6 4141
000002b0: 8095 2c3f 3ed7 6e40 551b 0d40 c4fa 5c40
000002c0: ffb7 6240 7d8b 8f3f 5c73 bb40 65e1 de3e
000002d0: 708b ef40 25c8 5340 9ed6 dc40 eee9 8e3e
000002e0: ea6a c740 b36b 4340 8572 b83f 255e 463f
000002f0: 4b9e e33e 5eef a13f 8aba 313e 5375 ac3f
00000300: b617 e33c c0aa e740 ef5b 703f 1ef0 c53f
00000310: 6389 5f40 9a9d a23f 8b62 2b3f 5133 db40
00000320: 61ee 8d3f 62c3 9d40 9704 fd3f 0ab7 de3f
00000330: 68d0 1c41 dc1e b23e b1ba ed3f f1f9 1341
00000340: 7bc1 3c40 fff0 c93f 9f38 b33f 1d38 fc40
00000350: ec3a 4040 69f0 453e bd5b 563f d85f 0141
00000360: df76 513e 5284 cf3e 337e 9941 c7ee a240
00000370: d7b1 3a41 d941 bd3f 4967 1840 ffe1 793f
00000380: fbec b640 d5c6 da40 34ef 4f41 0767 0741
00000390: 1568 263f eee3 a13e 429f 6540 2596 a23e
000003a0: 2ae4 a440 2c37 c13f 1457 4d40 d698 4940
000003b0: 00ce 603f 58ac 7f40 b161 cb3f 0b02 003f
000003c0: 823e 5b3f 317f 4d3e c7c2 8340 4d0a 1940
000003d0: a1cf 4740 ac7e 333f 7490 603e 0ed7 333f
000003e0: 325d 943e 118e f03f b461 7f3e 72a6 243f
000003f0: 9a23 b43f 38e2 9a40 20e3 bb3d 0fb5 773e

bn1.running_var f4 [256]
12.84928 163.65868 26.599087 15.861132 4.9924674 1.3093364 1.9412777 9.654274
67.21593 260.54398 101.166885 26.603552 8.045421 5.8212657 142.59982 13.433849
21.890585 273.44562 100.17274 65.749535 2.2731397 6.9703474 4.74559 28.894245
19.90078 1.2687618 92.701195 237.56425 64.03603 27.0304 51.68167 33.024097
1.9815797 33.871407 58.442116 13.954074 1.149244 31.472374 15.138552 19.017342
237.91077 38.119987 16.7445 9.495475 10.421887 1.4144778 652.1157 75.21797
71.44581 46.570717 19.686985 29.040062 9.872358 16.069128 927.883 113.19036
42.285904 14.541179 3.2946413 5.766349 10.34944 5.9924355 4.2866817 10.761501
12.388324 66.62153 20.695278 46.832314 37.17191 6.0084076 7.731988 131.1389
1185.2188 45.417686 42.455925 69.91365 19.962557 5.6198754 1.1888276 12.170289
63.218433 15.832746 25.873056 28.89818 43.49792 3.5228753 63.85202 21.317968
29.159788 94.43197 18.054867 55.41306 8.186258 13.045171 7.562557 20.292484
5.2689705 33.55633 210.0366 33.483402 30.114712 70.97654 22.216778 21.089193
37.56384 49.32258 23.360226 57.02716 74.268005 136.31905 6.2458925 23.116657
4.6085157 52.325207 27.616678 54.70495 555.6247 13.267875 3.5601985 9.005625
9.12994 17.150846 16.384289 16.677406 14.1022005 25.10308 52.799824 6.6092443
10.291683 4.586858 66.9119 1.5613542 9.292364 123.9606 14.432199 631.2548
5.055998 12.005813 5.8833375 19.375433 6.759049 2.8873446 20.262123 23.470573
7.598627 31.770002 14.171055 64.44358 25.512152 7.2410064 6.878238 36.84754
6.6681848 56.19156 29.897333 10.264781 4.0976386 27.803549 6.5411053 189.80519
54.534912 12.061741 22.798813 10.341778 32.74236 44.68686 19.581343 67.783806
31.062723 47.45497 3.361819 64.17921 4.5452776 28.982851 12.763572 37.623547
80.10367 13.6024065 86.82807 4.975778 105.23743 29.47824 147.78513 2.8888547
104.615974 35.844875 7.1562862 7.022057 3.6516645 6.6718097 1.0981308 15.196507
0.11614272 122.838745 11.630135 16.08036 49.16097 14.416408 7.508459 164.12192
5.6099296 40.032627 18.462517 17.98172 164.4256 3.0812707 22.931416 182.46657
16.513403 15.5752535 14.703307 74.05237 32.040043 1.6298147 10.802288 56.249264
1.2061243 4.9735775 724.4219 11.994774 194.86964 21.414824 25.278637 7.925002
52.297173 55.17146 70.268654 95.54476 4.5709004 2.2298183 55.413677 2.0897872
68.957855 11.486344 51.90445 20.278019 6.148653 41.529793 20.194633 2.8637507
9.392991 1.6269295 47.590084 8.459594 38.232735 1.8122835 2.2505736 6.465088
3.2602952 18.258884 1.135371 5.1738753 20.869486 30.846416 0.61392766 1.7023863
00000000: a796 4d41 9fa8 2343 eeca d441 32c7 7d41
00000010: 4bc2 9f40 5698 a73f ca7b f83f e877 1a41
00000020: 8e6e 8642 a145 8243 7255 ca42 13d4 d441
00000030: 0bba 0041 cf47 ba40 8e99 0e43 0cf1 5641
00000040: eb1f af41 0ab9 8843 7158 c842 c37f 8342
00000050: 1f7b 1140 160d df40 e0db 9740 6a27 e741
00000060: cc34 9f41 c966 a23f 0367 b942 7390 6d43
00000070: 7312 8042 423e d841 08ba 4e42 ad18 0442
00000080: 67a4 fd3f 527c 0742 bac4 6942 e343 5f41
00000090: 6d1a 933f 6cc7 fb41 8237 7241 8423 9841
000000a0: 28e9 6d43 de7a 1842 bcf4 8541 77ed 1741
000000b0: 0dc0 2641 9c0d b53f 6807 2344 9a6f 9642
000000c0: 41e4 8e42 6a48 3a42 f27e 9d41 0c52 e841
000000d0: 2ef5 1d41 938d 8041 83f8 6744 7761 e242
000000e0: c424 2942 aba8 6841 67db 5240 ee85 b840
000000f0: 4e97 2541 08c2 bf40 7f2c 8940 1c2f 2c41
00000100: 9336 4641 393e 8542 ee8f a541 4a54 3b42
00000110: 09b0 1442 e044 c040 726c f740 8f23 0343
00000120: 0027 9444 b6ab 3542 ded2 2942 cad3 8b42
00000130: 51b3 9f41 05d6 b340 812b 983f 81b9 4241
00000140: addf 7c42 ed52 7d41 05fc ce41 792f e741
00000150: dffd 2d42 ca76 6140 7868 7f42 338b aa41
00000160: 3f47 e941 2bdd bc42 5e70 9041 f9a6 5d42
00000170: eafa 0241 05b9 5041 7800 f240 0257 a241
00000180: 689b a840 af39 0642 5f09 5243 01ef 0542
00000190: eeea f041 fdf3 8d42 f6bb b141 abb6 a841
000001a0: 5f41 1642 524a 4542 bee1 ba41 d01b 6442
000001b0: 3889 9442 ad51 0843 5ade c740 eaee b841
000001c0: f678 9340 034d 5142 f5ee dc41 ded1 5a42
000001d0: fbe7 0a44 3749 5441 4bda 6340 0a17 1041
000001e0: 3c14 1241 ef34 8941 0613 8341 546b 8541
000001f0: 9da2 6141 1cd3 c841 0533 5342 ee7e d340
00000200: bcaa 2441 8ac7 9240 e5d2 8542 74da c73f
00000210: 86ad 1441 d4eb f742 49ea 6641 4fd0 1d44
00000220: bcca a140 cf17 4041 4d44 bc40 e300 9b41
00000230: 214a d840 41ca 3840 d418 a241 bcc3 bb41
00000240: f427 f340 f728 fe41 a4bc 6241 1de3 8042
00000250: e318 cc41 53b6 e740 871a dc40 e263 1342
00000260: c561 d540 28c4 6042 bd2d ef41 8b3c 2441
00000270: db1f 8340 ab6d de41 bc50 d140 21ce 3d43
00000280: c023 5a42 e4fc 4041 f863 b641 ec77 2541
00000290: 2df8 0242 58bf 3242 97a6 9c41 4f91 8742
000002a0: 7580 f841 e4d1 3d42 0b28 5740 c15b 8042
000002b0: ea72 9140 e1dc e741 9737 4c41 837e 1642
000002c0: 1435 a042 75a3 5941 f9a7 ad42 9339 9f40
000002d0: 9079 d242 6fd3 eb41 fec8 1343 ffe2 3840
000002e0: 613b d142 2761 0f42 4c00 e540 b1b4 e040
000002f0: dfb4 6940 777f d540 8d8f 8c3f e524 7341
00000300: 3cdc ed3d 70ad f542 0815 3a41 94a4 8041
00000310: d5a4 4442 9ba9 6641 4c45 f040 361f 2443
00000320: 8b84 b340 6921 2042 3cb3 9341 90da 8f41
00000330: f46c 2443 8a33 4540 8a73 b741 7177 3643
00000340: 731b 8441 3d34 7941 bf40 6b41 d01a 9442
00000350: 0129 0042 c59d d03f 2cd6 2c41 3fff 6042
00000360: 4862 9a3f 8c27 9f40 001b 3544 98ea 3f41
00000370: a1de 4243 8f51 ab41 a63a ca41 9e99 fd40
00000380: 4e30 5142 93af 5c42 8d89 8c42 eb16 bf42
00000390: d144 9240 58b5 0e40 9ba7 5d42 13bf 0540
000003a0: 6cea 8942 11c8 3741 289e 4f42 6239 a241
000003b0: c4c1 c440 821e 2642 9c8e a141 b147 3740
000003c0: b149 1641 3a3f d03f 3f5c 3e42 7f5a 0741
000003d0: 52ee 1842 e8f8 e73f 6609 1040 00e2 ce40
000003e0: ada8 5040 3212 9241 d653 913f 6390 a540
000003f0: b5f4 a641 76c5 f641 5d2a 1d3f cbe7 d93f
