checkpoint_actor_V2.pth (torch_old, 159294 bytes, 6 tensors)

fc1.weight f4 [256, 24]
0	0x3d3b2b77	0.04569575
1	0x3f2a1109	0.66432244
2	0xbc52ea83	-0.012873295
3	0xbeb232b9	-0.34804323
4	0x3e4f9905	0.20273216
5	0xbe40a2ad	-0.18812056
6	0xbcb154b1	-0.02164683
7	0xbe9cc1af	-0.3061652
8	0x3d9fc06a	0.07800372
9	0x3f172a23	0.5904867
10	0xbdf51154	-0.11966196
11	0x37e509bc	2.730346e-05
12	0x3e4a73d2	0.19770744
13	0xbee2b01d	-0.4427499
14	0xbdb6502e	-0.08902012
15	0x3c8a8dc1	0.016913297
16	0x3dd78497	0.105233364
17	0x3f0d7e78	0.552711
18	0xbc6f4405	-0.014603619
19	0xbe751b0b	-0.23936097
20	0x3e920c3b	0.28524956
21	0xbfd3c0c8	-1.6543207
22	0xbc98808b	-0.018615982
23	0xbe840754	-0.2578684
24	0x3d9f01f4	0.077640444
25	0xbe9f746a	-0.31143504
26	0x3e829c9a	0.25510103
27	0xbde7abbf	-0.11312055
28	0xbf05fd63	-0.5233976
29	0xbf9d4aa4	-1.2288404
30	0x3e396914	0.1810649
31	0xbd8fef0b	-0.07028016
32	0x3e6edd82	0.23326686
33	0xbe9d39b7	-0.30708095
34	0x3d04dee3	0.032439124
35	0xbe7d515f	-0.24738072
36	0xbeb4bfda	-0.3530262
37	0xbfbd5dd7	-1.4794263
38	0xbd301f71	-0.042998735
39	0xbe8c32a9	-0.273824
40	0x3d8cc387	0.068732314
41	0xbea15932	-0.31513363
42	0x3c0368f1	0.008020625
43	0xbe45afb8	-0.19305313
44	0xbcd5f5e6	-0.02611823
45	0xbf675188	-0.9035878
46	0x3d74c134	0.059754565
47	0xbe46bb39	-0.19407357
48	0x3ee653d3	0.44985828
49	0x3cf97d79	0.030455338
50	0xbd4632ed	-0.04838841
51	0xbeaf0134	-0.34180605
52	0x3e89911f	0.2686853
53	0xbe781868	-0.2422806
54	0xbca6fc46	-0.020383965
55	0xbea56c05	-0.32308975
56	0x3eae540a	0.34048492
57	0xbe9c57e1	-0.30535796
58	0xbe182894	-0.1485923
59	0xbf029ab2	-0.51017296
60	0x3ea769ad	0.32697812
61	0x3d80c1da	0.06286974
62	0xbe352b65	-0.17692335
63	0xbf158fef	-0.5842275
64	0x3e7e8094	0.24853736
65	0xbef08eeb	-0.46984038
66	0xbe3a3429	-0.1818396
67	0xbea6ec50	-0.32602167
68	0x3e4f16d0	0.20223546
69	0x3ec12e3f	0.37730595
70	0xbddb0a49	-0.10695321
71	0xbe9b4f26	-0.30333823
72	0x3f28974f	0.6585588
73	0x3e5990df	0.2124667
74	0x3d3ef7b4	0.046622947
75	0xbf14d832	-0.5814239
76	0xbd00a2f1	-0.031405393
77	0xbedab26b	-0.42714247
78	0xbc3e97cc	-0.011632871
79	0xbf12eb88	-0.5739064
80	0x3ed1a3c5	0.4094526
81	0x3d788f42	0.060683496
82	0xbe0cc1b3	-0.13745765
83	0xbc2f4f4b	-0.010700057
84	0xbee42422	-0.44558817
85	0xbdda1a57	-0.10649555
86	0xbdfea4af	-0.12433755
87	0xbd8e8e99	-0.06960792
88	0x3ecf8d86	0.4053766
89	0x3dfb6737	0.12275546
90	0x3d81430b	0.063116156
91	0xbd140f6a	-0.036147512
92	0xbee39059	-0.44446066
93	0x3c746342	0.014916243
94	0x3df6eff2	0.12057485
95	0xbccd1709	-0.025035398
96	0x3e90d4b6	0.28287286
97	0xbe93bb6e	-0.28853935
98	0x3d77e7e0	0.060523868
99	0xbe71a28b	-0.23597161
100	0x3db0e7ed	0.08637986
101	0x3ddf56f4	0.10905257
102	0x3de62623	0.11237743
103	0xbe7569e0	-0.2396617
104	0x3e3c1297	0.18366466
105	0xbf13e8e8	-0.5777726
106	0xbe2f4cd4	-0.17119151
107	0xbe61aa76	-0.22037682
108	0xbeceaa10	-0.40364122
109	0x3e207974	0.1567133
110	0xbe0b2a19	-0.13590278
111	0xbe84ec6a	-0.2596162
112	0x3e42b80f	0.19015525
113	0xbe4b4f08	-0.19854367
114	0xbddc6dc8	-0.107631266
115	0x3eaf8b70	0.3428607
116	0xbf030ae3	-0.51188487
117	0x3e18ca72	0.14920977
118	0xbdf91e5a	-0.12163992
119	0x3ecb9ec2	0.3976956
120	0x3cb2f177	0.021843655
121	0xbf2e6fbd	-0.6813925
122	0xbda20c81	-0.07912541
123	0xbeb0a0c7	-0.34497663
124	0x3dd9a4e8	0.106271565
125	0xbeee1648	-0.46501374
126	0xbcc51f9d	-0.024062926
127	0xbed1584e	-0.40887684
128	0xbda9cb63	-0.08290746
129	0xbf6228e6	-0.88343656
130	0xbc7cb922	-0.0154249985
131	0xbe32fb06	-0.1747857
132	0xbd23b385	-0.039966125
133	0xbe1920b3	-0.1495388
134	0x3c7f7a67	0.015593148
135	0xbe7a9ec8	-0.24474633
136	0x3cf97b78	0.030454382
137	0xbf76b899	-0.96375424
138	0xbd9b2db9	-0.0757708
139	0xbd726b8a	-0.05918459
140	0xbd1aeba2	-0.037822373
141	0x3d2b42af	0.04181164
142	0xbdfae072	-0.12249841
143	0xbd9cd98c	-0.07658681
144	0x3e75ffff	0.24023436
145	0xbf08768d	-0.53305894
146	0xbdc0952b	-0.094034515
147	0xbee23011	-0.44177297
148	0xbe9a8651	-0.301806
149	0xbe3aeb0a	-0.18253723
150	0xbd13c7ff	-0.036079403
151	0xbecfbcc2	-0.40573698
152	0x3e75610f	0.23962806
153	0xbf324fbd	-0.6965292
154	0x3d438716	0.04773625
155	0xbe18b9bd	-0.14914604
156	0xbeccf5f1	-0.40031388
157	0xbca39b17	-0.019971414
158	0x3d0f1213	0.034929346
159	0xbe3624d3	-0.17787485
160	0x3e87409a	0.26416475
161	0xbf284b43	-0.6573984
162	0xbdb4b5f3	-0.088237666
163	0x3e05908c	0.13043422
164	0xbec537f8	-0.38519263
165	0x3dd507fe	0.10401915
166	0xbde0bb2a	-0.10973199
167	0x3dafadc7	0.08578067
168	0x3e5869e4	0.21134144
169	0xbd632213	-0.055452418
170	0xbe05504e	-0.13018915
171	0x3e34f34d	0.17670937
172	0xbf70cf62	-0.9406644
173	0x3c97620c	0.01847937
174	0xbd0ee6e8	-0.034888178
175	0x3dc08293	0.09399905
176	0x3e69b8f0	0.22824454
177	0xbd5bfaa1	-0.053705815
178	0xbc973382	-0.018457178
179	0x3e79beb8	0.2438916
180	0xbd0586db	-0.03259931
181	0x3ed09ef8	0.40746284
182	0xbc305c86	-0.010764247
183	0x3e355d3f	0.17711352
184	0x3e772ffa	0.24139395
185	0x3e29e859	0.1659254
186	0xbd30bfe3	-0.043151747
187	0x3cc918dd	0.024547989
188	0x3f02851d	0.50984365
189	0x3f319afb	0.69377106
190	0xbe182c88	-0.14860737
191	0x3dfc18bc	0.12309405
192	0x3ec0ef21	0.3768244
193	0xbeb7eb98	-0.3592193
194	0x3e103337	0.14082037
195	0xbe146f7e	-0.14495656
196	0xbeaccbea	-0.33749324
197	0xbf56746b	-0.8377139
198	0x3d904581	0.07044507
199	0xbd8a6a36	-0.067585394
200	0x3ea6a1e8	0.325454
201	0xbf2c7a66	-0.67374265
202	0x3d6ad956	0.057336174
203	0xbc06337a	-0.008190984
204	0xbea39bdf	-0.31954858
205	0xbf085238	-0.53250456
206	0x3e02de24	0.12780052
207	0x3d33e2c8	0.043917447
208	0x3ec56e7b	0.38560852
209	0xbf4af22f	-0.7927579
210	0x3e072898	0.13199079
211	0xbefc0d8a	-0.4922908
212	0xbeb6709c	-0.3563279
213	0xbe916b95	-0.2840239
214	0x3e42e655	0.19033177
215	0xbee79acc	-0.45235288
216	0x3eb10bbd	0.34579268
217	0x3d83819a	0.06421204
218	0xbdf32cfd	-0.11873815
219	0x3d828175	0.06372348
220	0xbe8bb5c3	-0.2728711
221	0xbf119b00	-0.56877136
222	0xbdc1bb17	-0.09459513
223	0x3d9203b7	0.07129615
224	0x3eaa0026	0.33203238
225	0x3e50f632	0.20406416
226	0xbda9a868	-0.08284074
227	0x3e436eb0	0.19085193
228	0xbe44d963	-0.19223551
229	0xbf5895f8	-0.84603834
230	0xbc4f0763	-0.0126360385
231	0x3dab32fd	0.083593346
232	0x3e35ff2f	0.17773126
233	0x3e7c3c1a	0.24632302
234	0xbe9dca7f	-0.30818555
235	0xbe2fd26c	-0.17170113
236	0xbe66b461	-0.22529747
237	0xbf994a97	-1.1975888
238	0xbe9b72a3	-0.30360898
239	0xbe5c0c9a	-0.21489182
240	0xbd55fcab	-0.052242916
241	0x3f3ab4eb	0.7293231
242	0xbd0d6d59	-0.03452811
243	0x3d8958cd	0.067063905
244	0xbe652c59	-0.22380199
245	0xbd8f6672	-0.07001962
246	0xbcba8555	-0.022768656
247	0x3c842dea	0.016135175
248	0x3bbb11d8	0.0057089143
249	0x3f38f305	0.7224582
250	0x3c8b9814	0.01704029
251	0x3c9a1330	0.018807977
252	0x3d686289	0.056734595
253	0xbe525286	-0.20539293
254	0x3d6713ff	0.056415554
255	0xbd249bbf	-0.040187594

fc1.bias f4 [256]
0	0xbd062ca9	-0.032757435
1	0x3e2791d4	0.16364223
2	0xbe52894c	-0.20560187
3	0xbdd3f496	-0.103493854
4	0xbee182c9	-0.44045094
5	0x3db88f41	0.090116985
6	0xbdb24b65	-0.087057866
7	0xbe4577ae	-0.19283935
8	0x3bdfe285	0.006832423
9	0x3d5e52b6	0.054278098
10	0x3ce1588f	0.027508048
11	0xbef69225	-0.48158374
12	0xbe0a39dc	-0.13498634
13	0xbeb84ddc	-0.35996902
14	0xbabb2bd5	-0.0014280031
15	0xbea30e9b	-0.3184708
16	0xbec56791	-0.38555577
17	0xbe8a6fed	-0.27038518
18	0xbe26424b	-0.16236226
19	0xbec71e2a	-0.388902
20	0xbea4af27	-0.3216488
21	0x3c879f34	0.016555406
22	0x3d6c0ce4	0.05762948
23	0x3e077c8e	0.13231108
24	0x3d6ad7c9	0.057334695
25	0xbdfd5e38	-0.123714864
26	0xbec46e37	-0.38365337
27	0xbe8cc7dd	-0.27496234
28	0xbb8e9ab2	-0.004351937
29	0xbe46b252	-0.19403961
30	0xbe4e6e92	-0.20159367
31	0xbe011baa	-0.12608209
32	0xbed887c3	-0.42291078
33	0xbed008db	-0.40631756
34	0xbef22828	-0.47296262
35	0xbe5169ba	-0.20450488
36	0xbf05fbc8	-0.5233731
37	0xbdb64eb7	-0.089017324
38	0x3d30ce23	0.043165337
39	0xbe8e98e0	-0.2785101
40	0xbe976f2c	-0.29577005
41	0x3d624767	0.055243876
42	0x3d644750	0.05573207
43	0xbe4892ff	-0.19587325
44	0xbe5d7618	-0.2162708
45	0xbec5593d	-0.38544646
46	0x3e94fcb6	0.29099053
47	0xbf000501	-0.50007635
48	0xbc20322f	-0.00977759
49	0xbdf7d8ce	-0.12101899
50	0xbf036ef5	-0.5134118
51	0xbec4d8af	-0.38446566
52	0xbe4aa03a	-0.19787684
53	0xbd52d5ed	-0.051473547
54	0xbeb26a6b	-0.34846815
55	0xbd3177b7	-0.04332706
56	0xbe9deb9b	-0.30843815
57	0x3c8a95e4	0.016917177
58	0xbcd11dca	-0.0255269
59	0xbe90003e	-0.28125185
60	0xbe5a43f3	-0.21314983
61	0x3ded95c6	0.11600833
62	0xbea0c0ee	-0.31397194
63	0xbe85ab17	-0.26107094
64	0xbe7537b8	-0.23947036
65	0xbeb90765	-0.36138454
66	0xbe831f88	-0.25609994
67	0xbedda9e7	-0.43293688
68	0xbe92b438	-0.2865312
69	0xbd8f508a	-0.069977835
70	0xbea3f513	-0.32022914
71	0xbeace6ef	-0.33769938
72	0xbe937f7b	-0.28808197
73	0xbdc2d8f3	-0.09514036
74	0xbe2975d8	-0.1654886
75	0x3e20e778	0.15713298
76	0x3d12469d	0.035711873
77	0xbf16dc53	-0.5892994
78	0x3ce1ca9e	0.027562436
79	0x3dbb2a37	0.09138911
80	0xbe978574	-0.29594004
81	0xbe881d73	-0.26584968
82	0xbed0fa1c	-0.40815818
83	0xbef1ac5a	-0.47201806
84	0xbe20f427	-0.15718137
85	0xbe9f9ef3	-0.31175956
86	0xbde3f6f7	-0.11131089
87	0xbf10a269	-0.5649782
88	0xbef1b674	-0.47209513
89	0xbdeb90e3	-0.11502244
90	0xbe5fc87c	-0.21853822
91	0xbe0e695e	-0.13907382
92	0xbe701de7	-0.23448907
93	0x3e6d0785	0.231474
94	0xbe8a8848	-0.270571
95	0xbe1046b2	-0.14089468
96	0x3e295a38	0.16538322
97	0xbe4350eb	-0.19073837
98	0xbe8e5e3f	-0.2780628
99	0xbea2877b	-0.31743988
100	0x3de60549	0.11231477
101	0xbe30d4f3	-0.17268734
102	0xbf0def08	-0.5544286
103	0x3e63fe76	0.22265038
104	0xbe807687	-0.2509043
105	0x3e228d4e	0.15874216
106	0x3d070297	0.032961454
107	0xbe95ae9f	-0.29234788
108	0xbe6a564b	-0.2288448
109	0xbe9431d9	-0.2894428
110	0xbe8e98d6	-0.2785098
111	0xbed1c876	-0.40973252
112	0xbe9ff9ec	-0.31245363
113	0xbe9fccfc	-0.31211078
114	0x3d276b62	0.040873893
115	0xbe827fa1	-0.25487998
116	0xbdf9e08b	-0.12201031
117	0x3c4222a2	0.011849077
118	0x3ddf9418	0.109169185
119	0xbe389792	-0.1802657
120	0xbec46d05	-0.38364425
121	0x3e8c7cfc	0.27439106
122	0xbf098b71	-0.53728396
123	0xbe608a28	-0.21927702
124	0xbe830435	-0.25589147
125	0xbe1367fb	-0.14395134
126	0xbc8846da	-0.016635347
127	0xbe131eed	-0.14367266
128	0xbe31627b	-0.17322724
129	0xbe8b9053	-0.27258548
130	0xbe6c84cf	-0.23097537
131	0xbdf61ca9	-0.12017185
132	0x3decb66d	0.115582325
133	0xbee129ad	-0.4397711
134	0xbe1696f2	-0.14706019
135	0x3c3b407d	0.011428949
136	0xbdd7375a	-0.10508604
137	0xbe4c459e	-0.19948432
138	0x3d5dba4e	0.054132752
139	0xbdc6c4e4	-0.09705523
140	0x3d87c1cd	0.066287614
141	0xbeb97fc7	-0.362303
142	0x3cf259f7	0.029583914
143	0xbdcdc174	-0.10046664
144	0xbe6fdd57	-0.23424278
145	0xbe38c195	-0.18042596
146	0xbea32d92	-0.31870705
147	0xbe3d1cb5	-0.18467982
148	0x3e1c0a69	0.15238346
149	0x3d844c67	0.06459885
150	0xbce27311	-0.027642759
151	0xbda9669e	-0.08271526
152	0xbbc10d1d	-0.005891456
153	0x3dbb9887	0.09159952
154	0xbe5be084	-0.21472365
155	0xbe1e3cec	-0.15452927
156	0xbdaf557d	-0.085612275
157	0xbe4f2741	-0.20229818
158	0xbe16be43	-0.14721017
159	0xbe81c41b	-0.2534493
160	0xbe99e286	-0.30055636
161	0xbe396d90	-0.18108201
162	0xbebf5a94	-0.37373793
163	0xbda06ff5	-0.07833854
164	0xbe722b53	-0.2364934
165	0xbec4c74e	-0.38433307
166	0xbd9f6f1b	-0.077848636
167	0xbe919e57	-0.28441116
168	0xbeac18ef	-0.33612773
169	0xbeb4ae78	-0.3528936
170	0xbd96d6a9	-0.07365162
171	0xbdf9d049	-0.1219793
172	0xbf0838ec	-0.53211856
173	0xbe218b02	-0.15775684
174	0x3ddc257d	0.10749338
175	0xbefdd16b	-0.49573836
176	0xbe94345d	-0.289462
177	0xbe8419d3	-0.25800952
178	0xbdde122a	-0.10843308
179	0xbe8088b8	-0.25104308
180	0xbe07fc3e	-0.13279817
181	0xbe6f51a5	-0.23370989
182	0x3e1385e0	0.14406538
183	0xbeb3e3b8	-0.35134673
184	0xbe8f4225	-0.27980152
185	0xbe76053c	-0.24025434
186	0xbe9d19d0	-0.30683756
187	0xbdb2e5df	-0.08735251
188	0xbda9bc2b	-0.08287843
189	0xbe9875b7	-0.2977731
190	0xbd00d4c5	-0.031452913
191	0xbe2b9058	-0.16754282
192	0xbd4b956b	-0.049703043
193	0xbe0df149	-0.13861574
194	0xbd5ef54b	-0.05443315
195	0xbf114608	-0.56747484
196	0xbe837333	-0.25673828
197	0xbeab251f	-0.3342676
198	0xbea15a2d	-0.3151411
199	0xbd36b6ea	-0.044608034
200	0xbed90521	-0.42386726
201	0xbecd6596	-0.40116566
202	0x3d4f03cd	0.050540734
203	0xbef65e68	-0.481189
204	0xbec9c8b3	-0.39410934
205	0x3ec01b7b	0.37520966
206	0x3e4426a7	0.1915537
207	0xbd92b3a7	-0.07163172
208	0x3ce3fc39	0.02783023
209	0xbe98ad73	-0.2981983
210	0xbdbcad33	-0.09212723
211	0xbe3af22a	-0.18256441
212	0xbe5fcf70	-0.21856475
213	0xbe778a30	-0.24173808
214	0xbe884327	-0.26613733
215	0xbeba6270	-0.36403227
216	0xbeb6520e	-0.35609478
217	0xbe922bf4	-0.2854916
218	0xbe98b027	-0.29821894
219	0xbdfeb08f	-0.1243602
220	0xbe71754c	-0.23579901
221	0xbe36d352	-0.1785405
222	0xbe4ff652	-0.20308807
223	0xbf0bbc07	-0.5458378
224	0x3d8ddd7c	0.069270104
225	0xbe9cbae8	-0.30611348
226	0xbe2e4cc1	-0.17021467
227	0xbe384fc6	-0.17999181
228	0xbe6834df	-0.22676419
229	0xbd97ff83	-0.07421782
230	0xbe6ee9b5	-0.2333134
231	0xbe127256	-0.14301428
232	0xbe6a3a94	-0.22873908
233	0xbf01e3fa	-0.5073849
234	0xbd9935d0	-0.07480967
235	0x3dfe16fa	0.12406726
236	0xbf0690a6	-0.52564466
237	0x3dcab147	0.09897094
238	0xbe9d3bf6	-0.3070981
239	0x3ca7062f	0.02038869
240	0xbed49d41	-0.41526225
241	0xbccc0e44	-0.024909146
242	0xbf06e274	-0.5268929
243	0xbde788dc	-0.11305401
244	0xbe3eb93e	-0.18625352
245	0xbeb83e93	-0.3598524
246	0xbd3e59b5	-0.04647227
247	0xbe2067ec	-0.15664643
248	0xbe2b6fec	-0.16741914
249	0x3d5d6c77	0.05405852
250	0xbe5a5533	-0.21321563
251	0xbdb281a4	-0.08716133
252	0xbe96cc43	-0.29452714
253	0xbc183eaf	-0.009292289
254	0xbe92b7a7	-0.2865574
255	0x3cda1750	0.026622444

fc2.weight f4 [128, 256]
0	0xbeb6da32	-0.35713345
1	0xbe81ffb7	-0.25390407
2	0xbe079ccf	-0.13243411
3	0xbed24bed	-0.41073552
4	0x3e01f694	0.12691718
5	0x3e45c878	0.19314754
6	0x3ebba5d7	0.36649963
7	0xbe0224b7	-0.12709318
8	0xbe071fb8	-0.13195693
9	0xbc6f1f75	-0.014594902
10	0xbbceeb68	-0.0063146837
11	0x3e75d8d0	0.24008489
12	0xbf6b837e	-0.91997516
13	0xbe78ba2d	-0.2428977
14	0xbe0354fc	-0.12825388
15	0xbe9b7299	-0.3036087
16	0x3e143d67	0.14476548
17	0xbe20304d	-0.15643425
18	0x3e6e1002	0.23248294
19	0x3e12b4c1	0.14326765
20	0x3e8e33f3	0.2777401
21	0x3dd31949	0.10307557
22	0xbde30da3	-0.110865854
23	0xbf6e576f	-0.93102163
24	0xbf08a1b0	-0.53371716
25	0x3e3f2eab	0.18670146
26	0xbf47509c	-0.77857375
27	0x3c95add3	0.018271362
28	0xbf072096	-0.527841
29	0xbe7516c6	-0.23934469
30	0xbf13e149	-0.5776563
31	0xbe0c6b93	-0.13712911
32	0xbe0d59a3	-0.13803725
33	0x3ec4c349	0.3843024
34	0xbeb6a28d	-0.3567089
35	0xbe9782df	-0.29592034
36	0xbd385a51	-0.045008007
37	0x3e975993	0.29560527
38	0xbd8473c0	-0.0646739
39	0xbdf46f28	-0.11935264
40	0x3dd5389c	0.10411188
41	0x3f270e42	0.6525613
42	0x3e4c97b8	0.19979751
43	0xbc19fbb6	-0.0093983915
44	0x3d8780d0	0.06616366
45	0xbcfa2ded	-0.030539477
46	0x3dd80efa	0.105497316
47	0xbd4eab92	-0.05045659
48	0xbe108bef	-0.1411588
49	0xbedaccb9	-0.42734316
50	0xbeece0f0	-0.46265364
51	0xbf010ccb	-0.50410146
52	0x3e356977	0.17716013
53	0x3d39d932	0.04537315
54	0xbda28266	-0.07935028
55	0xbecaa34f	-0.3957772
56	0x3d36711c	0.044541463
57	0x3e077487	0.13228045
58	0xbb4100a4	-0.0029449845
59	0xbb893147	-0.0041867825
60	0xbebbd5ee	-0.36686653
61	0x3d0b597b	0.034020882
62	0x3e3ae5aa	0.18251672
63	0xbd913ad5	-0.070912994
64	0x3ebc588b	0.36786303
65	0xbe5d7081	-0.21624948
66	0xbe6a558a	-0.22884193
67	0xbdfb1267	-0.12259369
68	0xbcdcfd21	-0.02697617
69	0x3e39a9f0	0.18131232
70	0xbba6e8db	-0.0050936765
71	0xbeb2f6e0	-0.34953976
72	0x3e83c80d	0.25738564
73	0x3eae3838	0.34027267
74	0xbde19c1d	-0.11016104
75	0x3b38ccac	0.0028198166
76	0xbe03e19d	-0.12879033
77	0x3e4ae6c7	0.19814597
78	0xbed30f1c	-0.41222465
79	0x3df19ba1	0.11797262
80	0xbee618c4	-0.4494077
81	0xbe33a384	-0.17542845
82	0xbf0dc152	-0.5537311
83	0x3e6d38da	0.23166218
84	0xbf27d9e9	-0.6556688
85	0x3e8941af	0.26807925
86	0xbf3cd53b	-0.73762864
87	0xbe4adc76	-0.19810662
88	0xbd84ef49	-0.064909525
89	0x3c49615c	0.012291279
90	0x3f1238db	0.57118005
91	0x3e5b4adc	0.21415275
92	0xbe3f66ea	-0.18691602
93	0x3de6b9d7	0.11265915
94	0xbe51da64	-0.20493466
95	0xbee12fef	-0.43981883
96	0xbe53f11f	-0.20697449
97	0x3cbcab63	0.023030942
98	0xbe6dfc47	-0.23240767
99	0xbe816297	-0.2527053
100	0xbedba36d	-0.4289812
101	0x3eac9893	0.33710155
102	0xbe9865a1	-0.29765037
103	0x3e8b6a52	0.27229553
104	0xbd55a32f	-0.052157577
105	0xbe43a4c5	-0.19105823
106	0x3e14c54f	0.14528392
107	0xbe8d44e2	-0.27591616
108	0xbc4ffb39	-0.0126941735
109	0xbf22f4e4	-0.63654923
110	0xbedcd7db	-0.43133435
111	0xbd70b654	-0.05876763
112	0x3d024dd3	0.0318125
113	0xbe339db2	-0.17540625
114	0x3dcc516b	0.09976467
115	0xbd9a6ccf	-0.07540285
116	0xbebbdb64	-0.3669082
117	0x3def0706	0.116712615
118	0x3e0c46c2	0.13698867
119	0xbf1b8b2a	-0.6075922
120	0x3deeee2d	0.11666522
121	0xbe51c45e	-0.20485064
122	0xbe0274ab	-0.12739818
123	0xbde0dba3	-0.109793924
124	0x3e4568ce	0.19278261
125	0xbd8c4fce	-0.06851159
126	0xbea3d1e2	-0.31996065
127	0xbdc3a948	-0.09553772
128	0x3f3b1feb	0.7309558
129	0x3d6263a9	0.055270825
130	0x3db91562	0.090372816
131	0x3d3cde88	0.04611066
132	0xbe597576	-0.21236214
133	0xbb0e3143	-0.0021696843
134	0xbe0eb0a7	-0.13934575
135	0xbd88b42c	-0.0667499
136	0x3dcc5f73	0.09979143
137	0x3c5ae950	0.01336129
138	0xbe578d6e	-0.21050045
139	0xbe5471a6	-0.20746478
140	0xbede504c	-0.43420637
141	0xbf07ded6	-0.53074396
142	0xbec6a529	-0.38797882
143	0xbe9722ef	-0.2951884
144	0xbf353807	-0.70788616
145	0xbe908dec	-0.28233278
146	0xbe6829c4	-0.22672182
147	0xbe9fb892	-0.31195503
148	0xbe9ccbb7	-0.30624172
149	0xbe6a0219	-0.22852363
150	0xbe9b689c	-0.30353248
151	0xbebc8e86	-0.36827487
152	0x3f046b73	0.51726454
153	0x3e27762e	0.16353676
154	0xbe515efa	-0.20446387
155	0x3d960d84	0.07326797
156	0x3e354bed	0.17704745
157	0xbd481276	-0.04884573
158	0x3ea37608	0.31925988
159	0xbee4e242	-0.4470387
160	0xbe3c1ae6	-0.18369636
161	0x3dba1418	0.09085864
162	0xbe381189	-0.17975439
163	0xb9dd7904	-0.00042242568
164	0xbeaa9008	-0.33313012
165	0xbe3c2191	-0.1837218
166	0xbe9d6337	-0.30739757
167	0xbf4ef925	-0.80848914
168	0xbe29f97a	-0.16599074
169	0xbda3e27d	-0.080021836
170	0xbedc0f03	-0.42980203
171	0x3e5b712a	0.21429887
172	0xbe927e07	-0.28611776
173	0xbe70e76d	-0.23525782
174	0xbe619fc9	-0.2203361
175	0xbeaf6007	-0.3425295
176	0xbe6d3549	-0.23164858
177	0xbd48ac88	-0.048992664
178	0x3d44f7bc	0.04808782
179	0x3d3294f6	0.04359909
180	0xbe428e70	-0.18999648
181	0xbe42b486	-0.19014177
182	0x3e1b8365	0.15186842
183	0xbf88a543	-1.0675434
184	0xbb9207e8	-0.004456509
185	0xbdfbb112	-0.12289633
186	0xbe2ab1b9	-0.16669358
187	0x3e8435ba	0.2582224
188	0xbe3bafe0	-0.1832881
189	0xbf45cf43	-0.7726938
190	0xbc24179b	-0.010015394
191	0x3d85610c	0.06512651
192	0x3d26745a	0.040638305
193	0xbe8f5329	-0.27993134
194	0xbe95ad7d	-0.29233924
195	0xbe226313	-0.15858106
196	0x3e7be4e7	0.24599038
197	0x3c988243	0.018616801
198	0x3f762642	0.96152127
199	0x3edbe827	0.42950556
200	0xbefa2486	-0.4885599
201	0xbd2758db	-0.040856224
202	0xbe52dfc0	-0.20593166
203	0xbebc6028	-0.3679211
204	0x3e77460b	0.24147813
205	0xbf31ecd8	-0.6950202
206	0x3f21f723	0.63267726
207	0xbe07c8fa	-0.1326026
208	0xbb9e3fb6	-0.0048293723
209	0x3f1cfd25	0.6132377
210	0x3d27e02d	0.040985275
211	0x3dd92d8e	0.10604392
212	0xbd5c44f4	-0.053776696
213	0xbe5b78a9	-0.21432747
214	0x3c897287	0.016778244
215	0x3e037284	0.12836653
216	0xbf5ab8cf	-0.85438246
217	0x3c21765e	0.009854881
218	0x3d91230e	0.07086764
219	0x3d63a09c	0.05557309
220	0xbf1a7491	-0.60334116
221	0xbe7f4462	-0.2492843
222	0xbc43a09e	-0.01194015
223	0xbdf05077	-0.117340975
224	0x3d110a11	0.03540999
225	0x3dbe6510	0.0929662
226	0x3ea246be	0.31694597
227	0xbede9666	-0.4347412
228	0xbea58ba3	-0.32333097
229	0x3b801aaa	0.0039094286
230	0xbf2f3af7	-0.6844935
231	0xbf3a76ba	-0.7283741
232	0xbe1defdb	-0.15423529
233	0xbea2ca67	-0.31795046
234	0xbe60b9fb	-0.21945946
235	0xbe28d6d5	-0.16488202
236	0xbe0d7ce3	-0.13817172
237	0x3db50100	0.08838081
238	0x3e12be8a	0.14330497
239	0xbec12d07	-0.37729666
240	0xbe19dae6	-0.1502491
241	0xbe27b927	-0.16379224
242	0xbd5956d7	-0.053061333
243	0xbe41e978	-0.18936718
244	0xbe810ac5	-0.2520353
245	0xbf968a94	-1.1761041
246	0x3e31014f	0.17285655
247	0xbf248afc	-0.64274573
248	0xbe804400	-0.2505188
249	0x3d241f78	0.040069073
250	0xbfb95e0a	-1.4481823
251	0x3d035ff5	0.032073934
252	0xbbc2aebe	-0.005941241
253	0xbe841112	-0.25794274
254	0xbe8fc1be	-0.280775
255	0xbf867d7c	-1.0507045

fc2.bias f4 [128]
0	0xbca7a39e	-0.020463761
1	0xbdc8d95c	-0.09807083
2	0x3e34c0cc	0.17651671
3	0xbe12292a	-0.14273515
4	0xbdac13a4	-0.08402184
5	0xbea0897a	-0.31354886
6	0x3e703ad7	0.23459946
7	0xbdc8739a	-0.09787674
8	0xbd0859c6	-0.03328874
9	0xbdff0195	-0.124514736
10	0xbef6539b	-0.4811066
11	0xbe4c2805	-0.19937141
12	0xbe790d2e	-0.24321434
13	0xbe63b999	-0.22238769
14	0x3e0c4fd5	0.13702329
15	0xbe95746e	-0.2919039
16	0xbed37115	-0.41297212
17	0xbf02749c	-0.5095918
18	0xbea9544c	-0.33072126
19	0x3cdcd29d	0.026955897
20	0xbe96e2a5	-0.2946979
21	0xbc460343	-0.012085739
22	0xbd92ae69	-0.07162172
23	0xbe89d327	-0.2691891
24	0xbe993e2e	-0.29930252
25	0xbf0625bb	-0.5240132
26	0xbcf8076d	-0.030276978
27	0xbe95d40d	-0.29263344
28	0xbe24724a	-0.16059223
29	0xbb732535	-0.0037101035
30	0xbd8a072e	-0.06739651
31	0xbcc196bc	-0.023631446
32	0xbda8d0ee	-0.08242975
33	0x3e122eaa	0.14275613
34	0xbe98485e	-0.29742712
35	0xbc8ae087	-0.016952766
36	0x3d99a466	0.0750206
37	0xbedf5d60	-0.43625927
38	0xbd683fa6	-0.056701325
39	0xbe228f5f	-0.15875004
40	0xbdf064b9	-0.11737961
41	0xbde4ba0b	-0.111682974
42	0xbd83ec6c	-0.06441578
43	0xbd1f1079	-0.03883407
44	0xbd9992a3	-0.07498672
45	0xbe97129d	-0.29506388
46	0xbef1017e	-0.4707145
47	0xbdbfc7c4	-0.09364274
48	0x3e34a2a9	0.17640175
49	0x3d9db0b1	0.07699717
50	0xbda14c28	-0.07875854
51	0x3c84e2ca	0.016221423
52	0xbd8e8098	-0.06958121
53	0x3dc4a1c3	0.09601166
54	0xbe79f55a	-0.2441
55	0xbcb1fb50	-0.02172628
56	0xbdca8831	-0.09889258
57	0xbe7afb7b	-0.24509995
58	0x3d4dff65	0.05029239
59	0x3e4c233a	0.19935313
60	0xbf08f86f	-0.5350408
61	0xbe919b81	-0.28438953
62	0xbf1470ab	-0.5798442
63	0xbeb5976f	-0.35467097
64	0xbdaf61ee	-0.085636005
65	0xbe1471de	-0.14496562
66	0xbc86489b	-0.016392043
67	0xbda243b4	-0.079230696
68	0xbe272bf5	-0.16325362
69	0xbc97ab50	-0.018514305
70	0x3e0d4f36	0.13799748
71	0xbe901775	-0.28142896
72	0xbe15cf4d	-0.1462986
73	0xbd9974de	-0.07492994
74	0x3c53d54d	0.012929273
75	0xbe977262	-0.29579455
76	0xbe8ffeab	-0.28123984
77	0xbeffa8d1	-0.49933484
78	0xbec01a4a	-0.37520057
79	0xbd93e151	-0.0722071
80	0xbc7592d7	-0.014988623
81	0x3e8e0bf2	0.2774349
82	0xbeceb433	-0.40371856
83	0x3e163d1d	0.1467175
84	0xbcecbdfc	-0.028899185
85	0x3b4145b9	0.002949102
86	0xbeff5c8f	-0.49875304
87	0xbeddefe2	-0.4334708
88	0xbdea73a2	-0.114478365
89	0xbe74688b	-0.23868005
90	0xbe9bdc58	-0.30441546
91	0xbe5fd383	-0.21858029
92	0xbd1284d6	-0.035771213
93	0xbe0b4bc4	-0.13603121
94	0x3ea3b477	0.3197362
95	0xbdd7ca32	-0.105366126
96	0xbe2337a9	-0.15939201
97	0xbddbbdf7	-0.10729592
98	0xbcb97b03	-0.022641664
99	0xbbf3bcfb	-0.0074382997
100	0xbd0ffadb	-0.035151344
101	0x3dc056b8	0.0939154
102	0xbe816701	-0.25273898
103	0xbe7b195c	-0.24521393
104	0xbea6ef51	-0.3260446
105	0x3e876d88	0.26450753
106	0xbdb033a4	-0.086036
107	0xbeab082b	-0.3340467
108	0xbe809932	-0.2511688
109	0xbd183b12	-0.03716571
110	0xbe5de901	-0.21670915
111	0xbd4aefb4	-0.049545005
112	0x3deeb16b	0.116549335
113	0xbddce6df	-0.10786223
114	0xbee44528	-0.44584012
115	0xbda0fe53	-0.078610085
116	0xbf0e67f9	-0.556274
117	0x3e866d1e	0.26255125
118	0x3e566b35	0.20939334
119	0xbe0a54ea	-0.13508955
120	0xbed26175	-0.4108998
121	0xbda05167	-0.07828026
122	0xbe11e253	-0.14246492
123	0xbd226cfa	-0.03965471
124	0x3c958688	0.018252626
125	0x3d2e5dba	0.042569853
126	0xbe11da95	-0.14243539
127	0xbd7f1134	-0.062272266

fc3.weight f4 [2, 128]
0	0x3d16e2a9	0.036837254
1	0x3e81f0a6	0.25378913
2	0xbd5130a0	-0.051071763
3	0x3c589be9	0.013220766
4	0x3b084405	0.0020792496
5	0x3dab9762	0.08378483
6	0xbe3864ad	-0.18007155
7	0xbc2b2442	-0.010445656
8	0xbbccfdbe	-0.0062558344
9	0x3c835300	0.016030788
10	0x3dec2ad8	0.11531609
11	0xbd155ef0	-0.036467493
12	0x3df45a3f	0.119312756
13	0xbe44aeb0	-0.19207263
14	0xbd5c4717	-0.053778734
15	0xbeb00f6a	-0.3438676
16	0xbf17570a	-0.59117186
17	0x3c452384	0.012032393
18	0x3d922bfa	0.07137294
19	0xbecb84d4	-0.39749777
20	0xbe106651	-0.1410153
21	0x3e87ba5f	0.26509377
22	0x3c924934	0.017857172
23	0xbe9d15a1	-0.30680564
24	0xbf07adee	-0.5299977
25	0xbe67d108	-0.22638333
26	0x3ee550e1	0.44788268
27	0x3bb701c5	0.0055849277
28	0xbf402dac	-0.7506969
29	0x3ed2091f	0.41022584
30	0x3cf761ea	0.030198056
31	0x3e518f89	0.2046491
32	0xbe3ed77f	-0.18636893
33	0x3f59b216	0.8503736
34	0xbd942af2	-0.07234754
35	0xbbf03313	-0.0073303073
36	0x3ea23678	0.3168218
37	0xbee06dbd	-0.43833724
38	0x3e1f91a7	0.15582906
39	0x3e9f7d87	0.31150457
40	0x3af3a4a6	0.0018588498
41	0xbe7dd1d2	-0.24787071
42	0xbe22cd5b	-0.1589865
43	0x4015de56	2.3416953
44	0xbc74ffa8	-0.014953531
45	0x3e3b6362	0.1829963
46	0xbe1df10b	-0.15423982
47	0x3c946e4a	0.018118996
48	0xbd343de5	-0.04400434
49	0xbd485535	-0.048909385
50	0x3e539e15	0.20665772
51	0x3e04b504	0.12959677
52	0xbf36966c	-0.71323276
53	0xbecacd0c	-0.39609563
54	0xbdb52977	-0.088457994
55	0x3cbf5624	0.023356505
56	0xbb8c8520	-0.0042883307
57	0x3f07e2ea	0.5308062
58	0x3b748a93	0.0037314042
59	0xbe12cc1e	-0.14335677
60	0x3e5e0771	0.21682526
61	0x3bd22946	0.0064136116
62	0xbe2ca562	-0.16859964
63	0xbd52f450	-0.051502526
64	0x3e7607a4	0.24026352
65	0x3cf74ddb	0.030188492
66	0xbc9fef63	-0.019523328
67	0xbd02cb5f	-0.03193223
68	0x3efa808b	0.48926196
69	0x3d4ffbb8	0.050777167
70	0x3dcf2513	0.10114493
71	0x3e102cd5	0.14079602
72	0x3e3d3a54	0.18479282
73	0x40236146	2.552812
74	0x3b1a6758	0.0023560133
75	0x3d5c01ed	0.053712774
76	0xbd1adf9a	-0.0378109
77	0xbb8be96a	-0.0042697685
78	0xbdfa2daa	-0.12215741
79	0xbdaceb7b	-0.08443352
80	0xbb5bcc94	-0.0033538686
81	0xbf54fd81	-0.83199316
82	0x3eacd965	0.3375961
83	0x3f4fd576	0.8118509
84	0x3edf91ae	0.43665832
85	0xbe1325d8	-0.14369905
86	0xbe6bce5c	-0.23027939
87	0xbe108f83	-0.14117245
88	0xbd713d87	-0.058896568
89	0x3e130095	0.14355691
90	0x3edaaad8	0.42708468
91	0x3e495bda	0.19663945
92	0x3e1efe46	0.15526685
93	0x3c7676c9	0.015042969
94	0xbd8fa3a0	-0.07013631
95	0xbd7b376e	-0.06133216
96	0x3de84cd9	0.113427825
97	0xbd9f0904	-0.077653915
98	0x3c2a4958	0.010393463
99	0xbe3c8ccf	-0.18413089
100	0xbed07a9b	-0.4071854
101	0x3e902fe3	0.28161535
102	0xbb62be04	-0.0034598121
103	0x3e2981df	0.16553448
104	0xbf054146	-0.52052724
105	0xbce40290	-0.027833253
106	0x3cf577d2	0.029964361
107	0x3ce77e2e	0.02825841
108	0x3cfc1816	0.030773204
109	0x3e0376ff	0.12838362
110	0x3e787a8e	0.24265501
111	0xbedf48dd	-0.43610278
112	0x3edd7657	0.4325435
113	0x3d8d8ad5	0.06911246
114	0xbf0adc1b	-0.54242104
115	0xbbb5d8a8	-0.005549509
116	0x3da6a042	0.081360355
117	0x3c9b7f95	0.018981734
118	0x3e592aab	0.21207683
119	0xbe097e40	-0.13427067
120	0xbf3694dd	-0.713209
121	0x3e4f40fe	0.20239636
122	0x3dbddbc1	0.0927043
123	0x3e342b4a	0.17594638
124	0x3d135604	0.035970703
125	0xbccb292c	-0.024799906
126	0xbead168e	-0.3380627
127	0x3d395028	0.04524246
128	0xbed03b9d	-0.4067048
129	0xbe08bc50	-0.13353086
130	0x3f0e564b	0.5560042
131	0x3d6c6193	0.05771024
132	0xbbaedf0f	-0.0053366493
133	0xbe890061	-0.26758102
134	0x3e8a1fe1	0.26977447
135	0xbda044ea	-0.07825644
136	0xbc7d7d4d	-0.015471769
137	0x3c53565c	0.012899008
138	0xbe2b956a	-0.16756216
139	0xbd7776e6	-0.060416125
140	0x3f449f6a	0.76805747
141	0xbe45c01d	-0.19311567
142	0x3f6dcf6b	0.9289462
143	0xbed41dd4	-0.41429007
144	0x3dd104fa	0.10206027
145	0xbede696a	-0.434398
146	0xbe95079c	-0.29107368
147	0xbec55653	-0.38542423
148	0xbf05b34a	-0.522267
149	0xbce3c66b	-0.027804574
150	0x3d02eb9f	0.031962987
151	0xbea8374a	-0.32854682
152	0x3d7ec545	0.06219985
153	0xbe239423	-0.15974478
154	0xbd452f61	-0.048140887
155	0x3e5a8660	0.21340322
156	0x3e602c89	0.21891989
157	0x3dcd3e8d	0.10021696
158	0xbea1a263	-0.31569204
159	0x3f106618	0.5640578
160	0xbdb20202	-0.08691789
161	0xbd1ace53	-0.037794422
162	0x3e9ce7f9	0.3064573
163	0x3e30c2f1	0.17261864
164	0x3e4ffc5b	0.2031111
165	0xbd9b9aed	-0.07597909
166	0x3cbf00a5	0.023315737
167	0x3da069cd	0.0783268
168	0xbe8914b3	-0.26773605
169	0xbde1fc4b	-0.11034449
170	0xbd4352c9	-0.047686372
171	0x3fcde75a	1.6086228
172	0xbc807a15	-0.015683213
173	0xbe1b2dd3	-0.151542
174	0xbe430caf	-0.19047807
175	0x3b64e7f2	0.003492829
176	0x3de8d3d7	0.1136853
177	0x3ec456f4	0.3834759
178	0x3e57f651	0.21090056
179	0x3f8d4cbc	1.1039042
180	0x3ec3be20	0.3823099
181	0x3de5b01d	0.112152316
182	0x3da49add	0.0803735
183	0x3c9dbd31	0.019255253
184	0xbc3eb35d	-0.011639443
185	0xbdc43bd6	-0.09581725
186	0x3f077f27	0.52928394
187	0x3e5ae009	0.21374525
188	0x3f336f43	0.70091647
189	0xbe7ff2ea	-0.24995008
190	0x3e0620fa	0.13098517
191	0xbe973814	-0.29534972
192	0x3c9a9a3d	0.018872375
193	0xbe09f90f	-0.13473915
194	0xbcdaf772	-0.02672932
195	0x3e5a0c06	0.21293649
196	0x3d96b540	0.073587894
197	0x3c62b6b4	0.013837505
198	0x3bf50026	0.0074768243
199	0x3e38d07e	0.18048283
200	0x3f1143b2	0.5674392
201	0x3f52f9ff	0.82412714
202	0x3f11b44a	0.56915724
203	0xbe75d993	-0.24008779
204	0xbee94f49	-0.45568302
205	0xbee1c423	-0.44094953
206	0xbee62d7a	-0.4495657
207	0xbe8ea29d	-0.2785844
208	0x3f28c065	0.6591857
209	0x3dfa0443	0.12207844
210	0xbe9ddf6b	-0.30834517
211	0xbdea90a0	-0.11453366
212	0xbdc6d526	-0.097086236
213	0xbd222fdf	-0.039596435
214	0x3efed472	0.49771458
215	0xbe598bb8	-0.21244705
216	0xbe829ea4	-0.25511658
217	0x3ea35d60	0.31907177
218	0x3dd4417a	0.10364051
219	0x3e9a59e0	0.30146694
220	0x3e1874c5	0.14888294
221	0x3db306b2	0.087415114
222	0x3e581cee	0.21104786
223	0x3e9ce786	0.30645388
224	0xbf2f566f	-0.6849126
225	0xbd433fb1	-0.047668163
226	0xbe402784	-0.18765074
227	0xbc2c6457	-0.01052197
228	0x3f640f50	0.89085865
229	0x3e0dd2a3	0.13849883
230	0xbf0ee079	-0.5581127
231	0xbcf28710	-0.029605418
232	0xbec10ad5	-0.37703577
233	0x3f429dc7	0.76022
234	0x3ea89e46	0.32933253
235	0xbe417955	-0.18893941
236	0x3ea8a8ae	0.32941192
237	0x3f21d869	0.6322084
238	0x3de409d9	0.11134691
239	0x3e3537f2	0.17697123
240	0x3db73fc1	0.08947707
241	0x3cd54871	0.02603552
242	0x3e835314	0.2564932
243	0xbcd0657d	-0.025439018
244	0xbe66eba4	-0.22550827
245	0x3f95b51d	1.1695896
246	0x3f15f251	0.5857287
247	0xbd51c8a7	-0.051216748
248	0x3d63ced7	0.05561718
249	0x3cd050ef	0.025429217
250	0xbd7e1643	-0.06203295
251	0xbd8efe10	-0.06982052
252	0x3ec01546	0.3751623
253	0xbc89810d	-0.016785169
254	0x3d05f2f9	0.03270242
255	0x3e9063ff	0.2820129

fc3.bias f4 [2]
0	0xbd4159d9	-0.047204826
1	0x3d5d7757	0.05406889
