checkpoint_actor.pth (torch_old, 159294 bytes, 6 tensors)

fc1.weight f4 [256, 24]
-0.070242055 0.14704621 0.005950957 -0.14450496 0.15839837 -0.13061877 -0.0028227053 -0.102628045
-0.011030211 0.18416858 -0.06542096 -0.043861378 0.23470226 -0.25889614 -0.034778804 -0.026975494
0.029356899 0.14476578 -0.05003612 -0.17864943 0.3082023 -0.747556 -0.054048445 -0.19715741
-0.025192033 -0.27023908 0.08846863 -0.19858323 -0.36241138 -0.833756 0.014431039 -0.15574233
0.11528959 -0.26805994 0.050466556 -0.18310207 -0.22089158 -1.0215218 -0.024971586 -0.20954439
-0.065635666 -0.206004 -0.031943265 -0.22850698 0.0438677 -0.5563438 0.019791035 -0.22952718
0.21895696 -0.09902742 -0.1119321 -0.39554396 0.28202528 -0.19118555 -0.08392741 -0.37682745
0.16388968 -0.29716045 -0.10900205 -0.5022055 0.31364182 -0.041056376 -0.13733274 -0.57625794
0.09774162 -0.34987095 -0.15227167 -0.042591874 0.18882358 0.044491865 -0.077385694 -0.019908162
0.3016708 0.19080532 0.026452672 -0.42256245 0.12895143 -0.25915676 -0.031802665 -0.4150445
0.1911666 0.04380134 -0.08631771 -0.1243017 -0.18735258 -0.031268746 -0.07319647 -0.18320915
0.18523891 -0.061559267 0.07216662 -0.060656887 -0.2371078 0.16615531 0.12962635 -0.049544815
0.15061164 -0.23650421 0.0989952 -0.35402045 0.089880936 -0.013826652 0.15084867 -0.35771045
0.08533887 -0.4121901 -0.14564994 -0.01264973 -0.16783889 0.0060583036 -0.11036158 -0.051888477
0.09356776 -0.03863797 -0.1205795 0.1450961 -0.093892746 -0.044673946 -0.13458799 0.19993025
-0.1362521 -0.75125766 0.015179354 -0.34232673 0.10031576 -0.16950272 0.07024157 -0.40622693
-0.22724141 -0.93375045 -0.017861858 -0.10104618 -0.015734244 0.10155083 0.01315607 -0.17100795
-0.105930656 -0.9571803 -0.016688913 0.12403438 -0.017429449 0.22818048 -0.063416556 0.10663231
0.11567318 -0.3653427 -0.22044861 -0.16263118 -0.11403215 -0.030598875 -0.16249324 -0.12659454
0.11323914 -0.4895701 0.06713466 -0.04416328 -0.21861272 0.09260868 0.054327715 -0.07289179
0.13107866 -0.40978232 0.020419186 0.12060702 -0.26499704 0.15807049 -0.0010752394 0.07595378
0.28113922 -0.20935962 -0.1281966 -0.02000831 -0.25184578 -0.04742268 -0.032895118 -0.10271978
0.2706039 -0.23251759 0.06983591 0.2414568 -0.022885429 0.082833655 0.077529 0.1746782
0.2673802 -0.11921317 0.034247003 0.04764195 -0.08447162 0.14272703 -0.07120851 0.14618842
0.23702988 -0.19093397 0.099225625 -0.11591353 -0.278743 -0.47467723 0.0288503 -0.0385414
0.15396759 -0.35110378 0.014786282 0.07995499 -0.18202391 -0.32207602 0.085251234 0.13206336
0.14110522 -0.35548022 0.033703446 -0.18633805 -0.18959466 -0.28161567 0.092045784 -0.14640082
0.18431166 0.066022925 -0.013287811 0.041829728 -0.14601927 -0.2739918 0.010855618 0.049402054
0.19978102 0.047762826 -0.14002542 -0.018530639 -0.10709236 -0.32258388 -0.06982029 -0.1257906
0.077876955 0.02243616 -0.24635462 -0.22053018 -0.13147162 -0.41372436 -0.24177831 -0.26372093
-0.10456022 0.44932067 -0.1809175 -0.03460097 -0.060316507 -0.087653965 -0.1691577 -0.085529834
-0.063103795 0.4155583 -0.09341931 -0.108096376 -0.02579071 -0.107678294 -0.054043848 -0.16709219
00000000: 11db 8fbd 4893 163e 3f00 c33b 1cf9 13be
00000010: 2f33 223e edc0 05be 23fd 38bb a72e d2bd
00000020: 0fb8 34bc b096 3c3e 6dfb 85bd fda7 33bd
00000030: ca55 703e 098e 84be 3874 0ebd b6fb dcbc
00000040: e17d f03c 7b3d 143e adf2 4cbd e0ef 36be
00000050: b1cc 9d3e d45f 3fbf e761 5dbd a2e3 49be
00000060: 865f cebc c75c 8abe 0b2f b53d 6759 4bbe
00000070: fc8d b9be 0971 55bf 2a70 6c3c eb7a 1fbe
00000080: f31c ec3d 273f 89be 05b6 4e3d 1c7f 3bbe
00000090: 6731 62be 3ac1 82bf 3691 ccbc ce92 56be
000000a0: fe6b 86bd b6f2 52be f1d6 02bd bcfd 69be
000000b0: 9eae 333d 8c6c 0ebf cf20 a23c 2c09 6bbe
000000c0: 4136 603e e3ce cabd a83c e5bd bd84 cabe
000000d0: 9e65 903e 25c6 43be 22e2 abbd 87ef c0be
000000e0: b2d2 273e 6a25 98be 773c dfbd 8a90 00bf
000000f0: a995 a03e bb2a 28bd f4a0 0cbe a485 13bf
00000100: c22c c83d 4922 b3be 1bed 1bbe d174 2ebd
00000110: f85a 413e 1a3d 363d 647c 9ebd 7116 a3bc
00000120: 9874 9a3e 7862 433e 46b3 d83c 1b5a d8be
00000130: d80b 043e 32b0 84be 8343 02bd b680 d4be
00000140: 2dc1 433e 0969 333d 57c7 b0bd e491 febd
00000150: 5bd9 3fbe a813 00bd 08e8 95bd 2e9b 3bbe
00000160: 45af 3d3e 9225 7cbd 18cc 933d 5b73 78bd
00000170: 63cc 72be 9e24 2a3e c5bc 043e 81ef 4abd
00000180: f039 1a3e 292e 72be ffbd ca3d 2b42 b5be
00000190: 7f13 b83d 2f89 62bc 1378 1a3e d325 b7be
000001a0: 25c6 ae3d 950a d3be 4225 15be d040 4fbc
000001b0: f5dd 2bbe bc84 c63b 4105 e2bd 0389 54bd
000001c0: 74a0 bf3d d942 1ebd 63f2 f6bd 1294 143e
000001d0: d74a c0bd 07fc 36bd 6fd1 09be 84ba 4c3e
000001e0: ac85 0bbe 6c52 40bf d3b2 783c 7345 afbe
000001f0: 5972 cd3d 1f92 2dbe d0da 8f3d fafc cfbe
00000200: f9b1 68be 450a 6fbf 0853 92bc 4df1 cebd
00000210: 1ae5 80bc e2f9 cf3d 8f8c 573c b51c 2fbe
00000220: 2cf2 d8bd c509 75bf 30b7 88bc bd05 fe3d
00000230: 34c8 8ebc 25a8 693e 8ae0 81bd 0a62 da3d
00000240: 0fe6 ec3d 330e bbbe 48bd 61be ca88 26be
00000250: b089 e9bd 7eaa fabc a164 26be 00a2 01be
00000260: ece9 e73d efa8 fabe e67d 893d 8ee4 34bd
00000270: 03dc 5fbe 9fa9 bd3d bd86 5e3d 4a48 95bd
00000280: 7c39 063e fdce d1be 2346 a73c d000 f73d
00000290: b1ad 87be 3bdd 213e 0cef 8cba a88d 9b3d
000002a0: 7bf1 8f3e 5e62 56be f845 03be 78e8 a3bc
000002b0: eef1 80be 493e 42bd 08bd 06bd bf5e d2bd
000002c0: 988c 8a3e 1719 6ebe 2106 8f3d 7440 773e
000002d0: 397a bbbc b1a4 a93d 86c7 9e3d d8de 323e
000002e0: 0fe6 883e 0926 f4bd 9646 0c3d 3524 433d
000002f0: 75ff acbd 0927 123e c4d5 91bd 6bb2 153e
00000300: f6b7 723e 3284 43be ce36 cb3d 1364 edbd
00000310: 67b7 8ebe e508 f3be 7757 ec3c 96dd 1dbd
00000320: aea9 1d3e e0c3 b3be 2942 723c 71bf a33d
00000330: 7a64 3abe 26e7 a4be 3398 ae3d 9e3b 073e
00000340: e37d 103e 8101 b6be a00c 0a3d 67cf 3ebe
00000350: 1a25 42be ee2f 90be 8082 bc3d 19ea 15be
00000360: 32bc 3c3e 0737 873d 1eb5 59bc a655 2b3d
00000370: 1386 15be a748 8cbe c3db 313c cf59 4a3d
00000380: 6593 4c3e f4a2 433d d362 0fbe 91cd 97bc
00000390: 3d53 dbbd b729 a5be f1fd 8ebd 40cf 00be
000003a0: f47d 9f3d 0acc b73c 6344 7cbe aad2 61be
000003b0: 7fa0 06be aed3 d3be bc94 77be 6e06 87be
000003c0: ab23 d6bd 5c0d e63e 7042 39be bfb9 0dbd
000003d0: 710e 77bd ec83 b3bd ad37 2dbe 442a afbd
000003e0: 903c 81bd 0fc4 d43e a052 bfbd a261 ddbd
000003f0: 0a47 d3bc 7086 dcbd 155d 5dbd 371a 2bbe

fc1.bias f4 [256]
0.027623845 0.17904863 -0.09554503 0.0153583465 -0.33569905 0.26323307 0.090966225 -0.16830525
0.07512349 0.10708127 0.095504455 -0.34864154 -0.022685405 -0.2649391 -0.015087582 -0.16889712
-0.22103299 -0.14499356 -0.049869463 -0.24675032 -0.13000527 0.18436024 0.045726303 0.15669031
-0.023294456 -0.08008516 -0.27965575 -0.14149754 0.070627674 -0.10851964 -0.19438258 -0.08025183
-0.29552305 -0.39390886 -0.28927365 -0.039791144 -0.2800652 0.057795227 -0.098990545 -0.29629776
-0.20253693 0.106343724 0.13998649 -0.119826466 -0.2162708 -0.3072579 0.16873063 -0.2793916
-0.047807325 -0.100729935 -0.28835073 -0.33370885 -0.008023168 -0.14712077 -0.21786228 0.060134735
-0.018925779 0.07553628 0.08222146 -0.2023223 -0.052137747 0.11837477 -0.28185204 -0.10814541
-0.03989131 -0.2512766 -0.11274622 -0.22241104 -0.16372515 0.12607355 -0.18573554 -0.13129479
-0.23379692 0.010067139 -0.15011546 0.0820196 0.006482024 -0.37010518 0.086819775 0.1893393
-0.22493076 -0.182254 -0.2524953 -0.29022053 -0.016380673 -0.29856214 -0.012130734 -0.4380402
-0.23245372 -0.0711883 -0.07335463 -0.0361616 -0.24569477 0.22426823 -0.22972736 -0.0056964196
0.1728921 -0.08842625 -0.020036425 -0.31975856 -0.0050430475 0.028169665 -0.42873517 0.1317502
-0.14671856 0.118275024 0.0023382264 -0.17749664 -0.1401099 -0.25010902 -0.16823722 -0.2044307
-0.30156142 -0.22085425 0.1155299 -0.26799706 -0.06386128 0.0331961 0.06307569 0.10122194
-0.2594889 0.19593842 -0.2635967 -0.08801717 -0.08080152 -0.19905299 0.06564325 -0.077584945
-0.06381765 -0.06855165 -0.10520844 -0.12017185 0.16755052 -0.17896529 -0.21399553 0.0692365
-0.15569767 -0.02248906 0.1713568 0.00447891 -0.011331249 -0.1538598 0.043707207 0.05520377
-0.0855533 -0.10269267 -0.23385805 -0.19262391 0.043154255 0.0078056287 0.095826335 -0.11773564
0.036007125 0.17405228 0.014864828 -0.08231491 -0.174564 -0.028263904 -0.007667355 -0.13682772
-0.14220026 -0.055544894 -0.29626256 0.08248622 -0.092142664 -0.22163801 -0.07587425 -0.15545142
-0.24084252 -0.37983444 0.0010168047 -0.12542976 -0.15439248 -0.21094747 0.122207455 -0.27023977
-0.1948662 -0.2115115 -0.2190728 -0.13736634 0.0031455436 -0.18423785 0.096376 -0.2140843
-0.19562624 -0.14387159 -0.2239304 0.022099776 -0.02264266 -0.21258591 -0.0628322 -0.05770711
0.08041717 -0.13634694 0.032918952 -0.34962776 -0.07557 -0.2280799 -0.3029927 0.19232936
-0.34005913 -0.2440214 0.11030816 -0.2686542 -0.26544297 0.27402052 0.10430396 -0.08751015
-0.06637207 -0.13964748 0.0040933085 -0.04991392 0.013769148 -0.20330383 -0.13919142 -0.1865496
-0.26408347 -0.24772124 -0.2887704 -0.08552137 0.0037829208 -0.05822163 -0.24579865 -0.3632456
0.025338791 -0.21621427 -0.09336153 -0.04122395 -0.07645567 -0.03490898 -0.14813803 -0.06980298
-0.09056 -0.2902021 -0.048271835 0.016256759 -0.2515288 0.2333453 -0.18256904 0.09553294
-0.23474677 0.10916074 -0.29920995 -0.13747348 -0.02814412 -0.25204617 0.07022155 0.024066204
-0.24229129 0.09817402 -0.14989127 -0.03175099 -0.11629974 0.06027444 -0.17993057 -0.06394218
00000000: 674b e23c 8658 373e 1dad c3bd 93a1 7b3c
00000010: bfe0 abbe 7cc6 863e 804c ba3d 3658 2cbe
00000020: 58da 993d 6d4d db3d d797 c33d 2581 b2be
00000030: bed6 b9bc 19a6 87be e831 77bc 5ef3 2cbe
00000040: 7956 62be 3179 14be ec43 4cbd 1eac 7cbe
00000050: 1a20 05be eec8 3c3e 814b 3b3d 6d73 203e
00000060: 04d4 bebc b003 a4bd 0a2f 8fbe bbe4 10be
00000070: 3ea5 903d 8c3f debd 3a0c 47be 125b a4bd
00000080: cc4e 97be 6cae c9be ad1b 94be 0afc 22bd
00000090: b564 8fbe b0ba 6c3d 8ebb cabd 57b4 97be
000000a0: d765 4fbe bdca d93d 9e58 0f3e 9467 f5bd
000000b0: 1876 5dbe e850 9dbe b9c7 2c3e 6a0c 8fbe
000000c0: 9dd1 43bd 7f4b cebd b5a2 93be e3db aabe
000000d0: 9b73 03bc d4a6 16be 4a17 5fbe d74f 763d
000000e0: 3c0a 9bbc c4b2 9a3d ba63 a83d 942d 4fbe
000000f0: 648e 55bd 796e f23d e94e 90be 577b ddbd
00000100: 1265 23bd 54a7 80be 7de7 e6bd b8bf 63be
00000110: 91a7 27be 6d19 013e 7531 3ebe 2472 06be
00000120: 7668 6fbe a4f0 243c deb7 19be e4f9 a73d
00000130: 2967 d43b 6d7e bdbe 91ce b13d 29e2 413e
00000140: 4054 66be cba0 3abe 1047 81be c997 94be
00000150: c330 86bc 23dd 98be fcbf 46bc ce46 e0be
00000160: 5908 6ebe 2ccb 91bd f43a 96bd 301e 14bd
00000170: 6997 7bbe 92a6 653e a63d 6bbe 08a9 babb
00000180: a00a 313e d218 b5bd 6e23 a4bc 65b7 a3be
00000190: 2640 a5bb 12c4 e63c 2d83 dbbe 86e9 063e
000001a0: 643d 16be 2d3a f23d ee3c 193b aec1 35be
000001b0: f878 0fbe 4a0e 80be 6146 2cbe 4856 51be
000001c0: 4266 9abe 9e27 62be f19a ec3d e936 89be
000001d0: b4c9 82bd a2f8 073d d42d 813d 734d cf3d
000001e0: bbdb 84be 15a4 483e 26f6 86be 5942 b4bd
000001f0: 447b a5bd 8cd4 4bbe f86f 863d dbe4 9ebd
00000200: d4b2 82bd cf64 8cbd 8677 d7bd a91c f6bd
00000210: 5d92 2b3e ad42 37be a521 5bbe decb 8d3d
00000220: 366f 1fbe fa3a b8bc 2878 2f3e d2c3 923b
00000230: b4a6 39bc 6c8d 1dbe 5406 333d 591d 623d
00000240: 9236 afbd 8950 d2bd 7c78 6fbe 343f 45be
00000250: 84c2 303d 5cc6 ff3b 9940 c43d 621f f1bd
00000260: 357c 133d c33a 323e 9c8b 733c b894 a8bd
00000270: e8c0 32be b489 e7bc 6f3e fbbb 911c 0cbe
00000280: f29c 11be 0b83 63bd baaf 97be 89ee a83d
00000290: 4bb5 bcbd 13f5 62be f563 9bbd a82e 1fbe
000002a0: 6c9f 76be a979 c2be 4e46 853a a970 00be
000002b0: 1019 1ebe 9d02 58be e747 fa3d de5c 8abe
000002c0: 018b 47be 7896 58be 9f54 60be c3a9 0cbe
000002d0: 7725 4e3b d9a8 3cbe c860 c53d ea38 5bbe
000002e0: 3f52 48be 1353 13be 034e 65be 970a b53c
000002f0: 1a7d b9bc 1fb0 59be 2bae 80bd 4a5e 6cbd
00000300: c2b1 a43d 889e 0bbe 06d6 063d 6902 b3be
00000310: 72c4 9abd c78d 69be dc21 9bbe fdf1 443e
00000320: 3b1c aebe bfe0 79be 3fe9 e13d 0b8d 89be
00000330: 24e8 87be 6b4c 8c3e 519d d53d 8638 b3bd
00000340: 14ee 87bd c0ff 0ebe 2921 863b 8a72 4cbd
00000350: fe97 613c e12e 50be 3288 0ebe dc06 3fbe
00000360: f335 87be a3aa 7dbe b7d9 93be d425 afbd
00000370: e1ea 773b ce79 6ebd a4b2 7bbe 54fb b9be
00000380: 4c93 cf3c 4667 5dbe 5434 bfbd 72da 28bd
00000390: ca94 9cbd b8fc 0ebd 7fb1 17be ddf4 8ebd
000003a0: 8577 b9bd 5f95 94be b0b8 45bd e52c 853c
000003b0: 62c8 80be 12f2 6e3e 61f3 3abe c6a6 c33d
000003c0: 7561 70be ab8f df3d 0c32 99be d9c5 0cbe
000003d0: 7f8e e6bc 320c 81be 51d0 8f3d 7d26 c53c
000003e0: 351b 78be 760f c93d 197d 19be 530d 02bd
000003f0: 8f2e eebd 55e2 763d b83f 38be 1ef4 82bd

fc2.weight f4 [128, 256]
-0.23821846 -0.1118215 -0.14215317 -0.19246621 -0.05081163 -0.17951636 0.08481066 0.20824209
0.012169787 -0.037702806 0.12944026 0.38666907 -0.36885542 -0.09621166 -0.23106958 0.030910118
-0.03003301 0.20277725 0.11435281 -0.13158183 0.07310752 0.09673604 0.035892893 -0.18713826
-0.29370567 0.19941208 -0.42707816 0.107261024 -0.027429052 0.032131493 -0.04057568 0.050407562
0.11193515 0.013036687 -0.23397383 -0.10427487 -0.00018900125 0.14026923 0.011995967 -0.12000981
0.18850857 0.23194343 0.41612777 0.16091998 0.06616366 -0.0230512 0.038404733 -0.045221172
-0.39860952 -0.3716222 0.04868166 -0.57947975 0.16227975 0.1144323 0.028398478 -0.34619564
0.1090631 -0.027318627 -0.0015369628 0.095382206 0.027300783 -0.04180543 0.013836617 -0.02383517
0.045603864 0.0068558306 -0.06699195 -0.21287717 0.15277791 -0.027358884 -0.13549304 -0.15836915
0.1307697 0.18882789 0.07005274 -0.07984524 -0.29006982 0.0016026057 -0.30623507 0.19460559
-0.4494077 -0.12140164 -0.07601705 0.12554938 -0.10903955 0.24480659 -0.012943291 -0.37003192
0.09000101 0.012291279 0.1842418 0.210524 0.010025628 0.021756738 -0.3240601 -0.2427029
-0.2066879 0.019141763 -0.08681406 -0.15983896 -0.82512724 0.21613099 -0.13420135 0.06698778
0.09592267 -0.178247 0.0871917 -0.09167121 -0.11590898 -0.24523821 -0.37819627 -0.033598896
-0.0364694 -0.21718477 -0.08883933 -0.068484485 -0.3137126 0.19410452 0.027035266 -0.20591629
0.18371665 -0.17784056 -0.17317316 -0.0528269 0.0847386 -0.110220864 0.07070885 0.016297404
0.23121718 0.14571968 0.07719506 0.04611066 -0.19129337 0.21038032 0.025533652 -0.20903754
0.076651774 -0.28582865 -0.093879506 -0.102491416 -0.5759642 -0.14534734 -0.1911263 -0.10326655
-0.07503045 0.024411641 -0.07582073 0.037317198 -0.21525364 -0.020686245 -0.13264021 -0.122678995
0.11409425 0.12086704 -0.05748165 0.22472845 0.052139353 -0.05720297 0.08073253 -0.06263257
-0.13915856 0.18509318 -0.03978666 -0.17550702 -0.096253015 -0.16869567 -0.121893674 -0.13893434
-0.010847904 0.1285769 -0.23933654 -0.021648537 -0.24557355 -0.107993744 -0.30428502 -0.020487571
-0.113787904 0.0040686373 -0.189955 0.08184326 -0.20120992 -0.050966587 0.02416756 -0.66734934
-0.048734926 -0.09254046 -0.05982329 -0.07511907 -0.15169281 -0.01962839 -0.0031977566 0.14775845
0.08059749 -0.34968877 0.07451471 -0.0063693854 -0.001586965 0.046835296 0.11274322 0.11352558
-0.09866961 -0.050818272 -0.011306253 -0.12427148 0.27580887 -0.6343618 0.14341643 0.06604707
-0.053684935 0.20109743 -0.041740146 0.2000622 0.34410894 0.07477175 0.33741176 0.2962759
-0.23299225 -0.022349807 0.06399548 0.047794264 0.10619327 -0.23564969 0.14231521 -0.09904578
0.17827587 -0.15853976 0.28938732 -0.21889538 0.1256471 0.13424361 -0.14172675 -0.118752755
-0.12504685 -0.11211063 -0.1364898 -0.15056586 0.0034572093 0.27665207 0.19232155 -0.09767386
0.042109206 -0.081395924 -0.08632462 -0.11618176 0.06600527 -0.020619525 0.033264372 -0.25667125
0.025053626 0.13635963 -0.81194866 0.02713117 -0.056040403 -0.27507386 -0.032174468 -0.75272995
00000000: 8aef 73be ac02 e5bd 9a90 11be dd15 45be
00000010: db1f 50bd 23d3 37be 36b1 ad3d 6a3d 553e
00000020: c963 473c 426e 1abd fd8b 043e 7df9 c53e
00000030: 9eda bcbe 9e0a c5bd 819d 6cbe 3737 fd3c
00000040: c907 f6bc d7a4 4f3e ce31 ea3d 63bd 06be
00000050: 65b9 953d 8c1d c63d 6d04 133d 2ca1 3fbe
00000060: 9760 96be ae32 4c3e fda9 dabe abab db3d
00000070: e4b2 e0bc 509c 033d af32 26bd 2978 4e3d
00000080: 423e e53d d497 553c d696 6fbe 108e d5bd
00000090: a32e 46b9 bda2 0f3e bb8a 443c b4c7 f5bd
000000a0: 6408 413e 9482 6d3e b30e d53e 35c8 243e
000000b0: d080 873d dfd5 bcbc 484e 1d3d d639 39bd
000000c0: 8c16 ccbe 4445 bebe 6c66 473d c958 14bf
000000d0: aa2c 263e 7b5b ea3d eda3 e83c 8e40 b1be
000000e0: 795c df3d 50cb dfbc ea73 c9ba bf57 c33d
000000f0: e4a5 df3c 2c3c 2bbd fab2 623c f941 c3bc
00000100: 1ecb 3a3d e0a6 e03b 1333 89bd 79fc 59be
00000110: d071 1c3e bd1f e0bc b0be 0abe 862b 22be
00000120: 7ee8 053e 195c 413e d077 8f3d e785 a3bd
00000130: 0884 94be 860e d23a d8ca 9cbe b046 473e
00000140: c418 e6be 6ca1 f8bd d4ae 9bbd 0490 003e
00000150: 2150 dfbd 94ae 7a3e 1910 54bc d374 bdbe
00000160: 7352 b83d 5c61 493c e2a9 3c3e 9a93 573e
00000170: 8842 243c 303b b23c 35eb a5be 1c87 78be
00000180: fea5 53be 30cf 9c3c 92cb b1bd d3ac 23be
00000190: 8a3b 53bf 7151 5d3e 146c 09be e430 893d
000001a0: 1b73 c43d 6286 36be 9091 b23d 1ebe bbbd
000001b0: b061 edbd ba1f 7bbe f1a2 c1be ff9e 09bd
000001c0: f060 15bd af65 5ebe 65f1 b5bd 9841 8cbd
000001d0: f09e a0be 56c3 463e 1079 dd3c b8db 52be
000001e0: 3820 3c3e d61b 36be 4e54 31be 0561 58bd
000001f0: 6e8b ad3d 7abb e1bd cdcf 903d 2282 853c
00000200: 32c4 6c3e 8a37 153e 7218 9e3d 88de 3c3d
00000210: 69e2 43be f06d 573e f32b d13c f00d 56be
00000220: 9bfb 9c3d 2258 92be e643 c0bd 05e7 d1bd
00000230: 6472 13bf efd5 14be 9db6 43be 6a7d d3bd
00000240: 91a9 99bd ecfa c73c e647 9bbd ebd9 183d
00000250: 736b 5cbe 3376 a9bc d6d2 07be 203f fbbd
00000260: 3faa e93d 2389 f73d e171 6bbd 371f 663e
00000270: 1390 553d a94d 6abd 1957 a53d 8145 80bd
00000280: 957f 0ebe 1189 3d3e 56f7 22bd 1db8 33be
00000290: 4d20 c5bd 8fbe 2cbe 64a3 f9bd ce44 0ebe
000002a0: 68bb 31bc aaa9 033e a314 75be 4658 b1bc
000002b0: a277 7bbe d32b ddbd 3fcb 9bbe 8dd5 a7bc
000002c0: a209 e9bd 3452 853b 9083 42be 709d a73d
000002d0: f909 4ebe 57c2 50bd 0cfb c53c 68d7 2abf
000002e0: 469e 47bd da85 bdbd 4409 75bd 07d8 99bd
000002f0: 5c55 1bbe b8cb a0bc 7491 51bb fe4d 173e
00000300: 4c10 a53d 680a b3be 2b9b 983d 47b6 d0bb
00000310: b601 d0ba 5ed6 3f3d ebe5 e63d 1980 e83d
00000320: 4b13 cabd d226 50bd dd3d 39bc 0c82 febd
00000330: d236 8d3e 8965 22bf c2db 123e b043 873d
00000340: bce4 5bbd 7cec 4d3e b7f7 2abd 1bdd 4c3e
00000350: 0c2f b03e ee21 993d 3cc1 ac3e 7ab1 973e
00000360: 8595 6ebe f116 b7bc 1010 833d ebc3 433d
00000370: db7b d93d 274e 71be 14bb 113e 84d8 cabd
00000380: f38d 363e 3f58 22be 932a 943e 1c26 60be
00000390: a2a9 003e 2877 093e d120 11be a534 f3bd
000003a0: 480c 00be 429a e5bd fbc3 0bbe f02d 1abe
000003b0: 5992 623b 57a5 8d3e f1ef 443e 3c09 c8bd
000003c0: b47a 2c3d e8b2 a6bd f6ca b0bd b4f0 edbd
000003d0: c52d 873d 47ea a8bc 3940 083d 6a6a 83be
000003e0: 433d cd3c dca1 0b3e dedb 4fbf 3042 de3c
000003f0: 9f8a 65bd 7bd6 8cbe 60c9 03bd e9b2 40bf

fc2.bias f4 [128]
-0.019282486 0.07385843 -0.06180498 -0.10467553 -0.06408057 -0.0560618 0.07611172 -0.07543113
-0.032283816 -0.114261135 -0.27296484 -0.19937141 0.027260747 -0.10284451 -0.0082079405 0.008402196
-0.2170154 -0.140356 -0.05823697 -0.046814464 -0.024704538 0.041616052 -0.043014575 -0.08522006
-0.12108259 -0.05976361 0.20763624 -0.20530125 -0.04077586 0.023577904 0.055604313 0.023742918
0.0059186397 0.20325448 -0.1897981 0.16859894 0.06176003 -0.212502 0.051514357 -0.12495078
0.061580993 0.024813635 -0.060646147 -0.005697711 -0.06443534 -0.14577118 -0.15965314 -0.09364274
0.14182197 0.18682674 -0.0013084909 0.04123039 -0.0450659 0.04741457 -0.16521005 -0.011534628
-0.09620011 -0.0678909 -0.14522493 -0.0033448876 -0.24624042 -0.1357305 -0.3302494 -0.08621084
0.088776276 -0.06852347 -0.016392043 0.016287567 -0.065161295 -0.018514305 0.0032743297 -0.0972638
-0.03246145 0.0038918837 -0.021323511 -0.061752908 -0.04439777 -0.3093507 -0.23842032 0.01594066
0.017049864 0.14534476 -0.17904763 -0.021547558 0.039358743 0.11274954 -0.23520689 -0.10864606
-0.063271135 -0.17653269 -0.1436885 -0.1649222 -0.065034434 -0.07774522 0.08905113 -0.077748306
-0.016610872 -0.08472009 -0.08604681 -0.0074382997 0.041539922 0.017287884 -0.04814263 -0.05948709
-0.1699366 0.13375992 -0.20529205 -0.023356125 0.0024362456 0.08444307 -0.08402713 -0.06149741
0.01201972 -0.077814735 -0.2623503 -0.07621081 -0.19709782 0.2307744 0.11261456 0.028546995
0.00849554 -0.024157435 -0.13803193 -0.022481605 0.0700888 0.05328463 0.019859063 0.109378114
00000000: 4ef6 9dbc 1743 973d 3827 7dbd 2060 d6bd
00000010: ad3c 83bd 0fa1 65bd 76e0 9b3d a37b 9abd
00000020: 093c 04bd be01 eabd 0cc2 8bbe 0528 4cbe
00000030: ee51 df3c 24a0 d2bd 997a 06bc 5da9 093c
00000040: 4939 5ebe 7cb9 0fbe e489 6ebd 86c0 3fbd
00000050: 2c61 cabc 9875 2a3d 0d30 30bd db87 aebd
00000060: 26fa f7bd b0ca 74bd 989e 543e 7e3a 52be
00000070: 9704 27bd 7326 c13c 59c1 633d 8280 c23c
00000080: 26f1 c13b f121 503e 6f5a 42be 33a5 2c3e
00000090: 16f8 7c3d 209a 59be b800 533d 32e6 ffbd
000000a0: 5a3c 7c3d f745 cb3c 1868 78bd ddb3 babb
000000b0: adf6 83bd 0a45 15be 1d7c 23be c4c7 bfbd
000000c0: c739 113e 824f 3f3e ab81 abba 33e1 283d
000000d0: 0597 38bd c835 423d d32c 29be bdfb 3cbc
000000e0: 9004 c5bd 620a 8bbd d8b5 14be e735 5bbb
000000f0: 7326 7cbe f0fc 0abe 7316 a9be 4f8f b0bd
00000100: 56d0 b53d 0856 8cbd 9b48 86bc 816d 853c
00000110: 4973 85bd 50ab 97bc 2396 563b 3e32 c7bd
00000120: 4cf6 04bd f90e 7f3b a5ae aebc 9ef0 7cbd
00000130: 70da 35bd 3763 9ebe 7524 74be fd95 823c
00000140: 28ac 8b3c 42d5 143e 4358 37be 8184 b0bc
00000150: a236 213d 3be9 e63d 13da 70be d381 debd
00000160: 4c94 81bd fcc4 34be 1423 13be 5de1 28be
00000170: c630 85bd e338 9fbd 7060 b63d 813a 9fbd
00000180: 8613 88bc ba81 adbd 4f39 b0bd fbbc f3bb
00000190: c425 2a3d 529f 8d3c 3531 45bd bca8 73bd
000001a0: dc03 2ebe 5cf8 083e 1438 52be 5855 bfbc
000001b0: 6ba9 1f3b 7df0 ac3d 6a16 acbd b5e4 7bbd
000001c0: 5cee 443c 555d 9fbd c752 86be 6a14 9cbd
000001d0: 03d4 49be 2050 6c3e 76a2 e63d 63db e93c
000001e0: e130 0b3c d0e5 c5bc 3e58 0dbe 582b b8bc
000001f0: b78a 8f3d fc40 5a3d 79af a23c a201 e03d

fc3.weight f4 [2, 128]
0.2582145 0.12068906 -0.0033641462 0.0019507853 -0.00760473 -0.027322866 -0.022473153 -0.02940511
-0.010683737 0.016029116 0.04969071 -0.036467493 0.21324098 -0.12955761 0.012781468 -0.3137372
-0.30464906 0.09007818 0.109944806 -0.22178297 -0.18518859 0.16909699 0.0017232618 -0.017198771
-0.020593736 -0.16566212 0.30150008 0.06997505 -0.2955508 0.079370275 0.33546895 0.22992939
-0.29994908 0.5106443 -0.2652195 0.0007357913 0.18415536 -0.40202305 0.23408702 0.054516796
0.10509805 -0.026674101 -0.0097304545 0.2619612 0.0035787835 -0.01999901 -0.16140857 0.018118996
-0.19484904 -0.061504245 0.14349438 0.17499505 -0.10368163 -0.11052139 -0.11801049 0.0365179
-0.0032076188 0.35377935 -0.018326696 -0.12583391 0.00074322865 -0.08324379 -0.11527238 -2.8560984e-05
0.2971592 0.061200473 -0.019523328 0.05311179 0.32467705 0.050777167 0.13681456 0.12543191
0.044644386 0.5910943 0.22698686 -0.0066827415 0.00853993 0.03229387 -0.10073615 -0.11604885
-0.12787807 -0.11355719 0.083141476 0.06758502 0.06714571 -0.35573453 0.008834887 -0.2112939
-0.27866668 0.22877483 0.32703003 0.20721292 0.028352264 0.0148849515 0.067023695 0.078756474
0.21712565 -0.10477504 0.01239971 -0.18413089 -0.048475005 0.06755192 -0.040991385 0.17166173
-0.039887756 -0.045695588 0.08489549 0.07609338 -0.0039993087 0.0063035544 -0.011023265 -0.02189516
0.1853753 0.015419897 -0.27412888 -0.011271816 0.013684471 0.024819791 0.09212815 -0.16124739
-0.42221013 0.26650178 0.09498863 0.06691146 0.00046142517 -0.001240081 -0.34831008 0.04572982
-0.05519429 0.1734388 0.15979162 0.07794998 0.019515451 -0.17434959 0.38699478 -0.078628175
-0.015471769 -0.013203499 -0.25027332 -0.060416125 0.40563795 -0.27623296 0.3625404 -0.3337378
-0.02661806 -0.15582776 -0.19535452 -0.079456404 -0.2751781 0.085135005 0.0069727567 -0.21922152
0.013315913 0.008434452 -0.018905187 0.18028769 -0.026213014 0.031467095 -0.10812529 0.24316008
-0.1547861 -0.038439374 0.022520758 0.09967707 0.2391944 -0.12043615 0.18051904 0.20925558
-0.15489289 0.023590224 0.0057447487 0.088326775 0.0040772986 -0.010880427 -0.19391792 0.003492829
0.015537054 0.48603895 -0.040051617 0.41353482 0.23330303 0.03205753 0.24702649 0.009595324
0.0034162756 -0.37091607 0.35813287 0.097998224 0.47307363 -0.23014721 0.3413478 -0.06878607
0.022874769 -0.11962642 -0.02672932 0.17946303 -0.080329575 0.013837505 -0.03925975 0.32872084
0.4748786 0.40334696 0.31347516 0.008491907 -0.23529655 -0.18310636 -0.3122009 -0.14642708
0.1278913 0.37968802 -0.11921724 0.24334665 -0.0040755286 0.26577297 0.28540918 -0.2901874
-0.36531225 0.13334535 0.12172465 -0.022765115 0.0983057 0.11853625 0.39922157 -0.096540056
-0.37798065 0.023768922 -0.0034687216 -0.01052197 0.57765305 0.10980534 -0.33846894 -0.1671178
-0.26007286 0.41700062 0.2420846 -0.19855519 0.026737094 0.32535923 0.123098664 -0.04010057
0.008627749 0.0025983006 0.069575086 -0.025969792 -0.07803209 0.56135136 0.42943764 0.04988025
0.044846114 -0.11180492 -0.06203296 -0.17793202 0.28148898 -0.018379025 -0.0083698705 0.15360546
00000000: b134 843e d32b f73d 0279 5cbb 7eb1 ff3a
00000010: 1931 f9bb 34d4 dfbc 9e19 b8bc fce2 f0bc
00000020: d70a 2fbc 7e4f 833c 7c88 4b3d f05e 15bd
00000030: d85b 5a3e c0aa 04be 5d69 513c 2aa2 a0be
00000040: f6fa 9bbe e97a b83d be2a e13d 131b 63be
00000050: 14a2 3dbe c327 2d3e 12df e13a 70e4 8cbc
00000060: 32b4 a8bc 55a3 29be 385e 9a3e 144f 8f3d
00000070: 6f52 97be e28c a23d 96c2 ab3e 9c72 6b3e
00000080: ed92 99be 96b9 023f daca 87be 1ee2 403a
00000090: 3993 3c3e f7d5 cdbe 82b4 6f3e 014d 5f3d
000000a0: a53d d73d a583 dabc 7c6c 1fbc c71f 863e
000000b0: 068a 6a3b f7d4 a3bc 4a48 25be 4a6e 943c
000000c0: 8286 47be e0eb 7bbd 31f0 123e e731 333e
000000d0: 0957 d4bd 0a59 e2bd 7caf f1bd cb93 153d
000000e0: ea36 52bb 9122 b53e de21 96bc 9bda 00be
000000f0: 3bd5 423a b87b aabd ed13 ecbd 3f96 efb7
00000100: 4025 983e 59ad 7a3d 63ef 9fbc c08b 593d
00000110: 123c a63e b8fb 4f3d 1e19 0c3e 3971 003e
00000120: 08dd 363d f551 173f 3e6f 683e e6fa dabb
00000130: 10eb 0b3c 9446 043d c14e cebd 05ab edbd
00000140: 78f2 02be ac90 e8bd 1446 aa3d 046a 8a3d
00000150: b183 893d d622 b6be 34c0 103c 6e5d 58be
00000160: 66ad 8ebe f343 6a3e 7b70 a73e a02f 543e
00000170: 0243 e83c 03e0 733c b843 893d 134b a13d
00000180: 3056 5e3e 4c94 d6bd 2728 4b3c cf8c 3cbe
00000190: ba8d 46bd a958 8a3d 95e6 27bd 18c8 2f3e
000001a0: 5861 23bd 4c2b 3bbd b0dd ad3d d9d6 9b3d
000001b0: a20c 83bb 0c8e ce3b ed9a 34bc 7b5d b3bc
000001c0: 06d3 3d3e bca3 7c3c 9f5a 8cbe 6cad 38bc
000001d0: d534 603c e052 cb3c afad bc3d 091e 25be
000001e0: ed2b d8be ec72 883e 6689 c23d e008 893d
000001f0: 70eb f139 378a a2ba b355 b2be 314f 3b3d
00000200: 6813 62bd f199 313e 6aa0 233e 3da4 9f3d
00000210: dede 9f3c b388 32be 2e24 c63e cf07 a1bd
00000220: 4d7d 7dbc 7d53 58bc d323 80be e676 77bd
00000230: c7af cf3e 686e 8dbe e59e b93e aedf aabe
00000240: 1e0e dabc 5091 1fbe 040b 48be 0aba a2bd
00000250: 25e4 8cbe 435b ae3d b97b e43b 9b7b 60be
00000260: fd2a 5a3c a830 0a3c 0ddf 9abc 569d 383e
00000270: adbc d6bc a4e3 003d cb70 ddbd f5fe 783e
00000280: 3f80 1ebe 9b72 1dbd 747d b83c 7e23 cc3d
00000290: 60ef 743e 3aa7 f6bd fcd9 383e 1847 563e
000002a0: 3e9c 1ebe 4940 c13c 723e bc3b abe4 b43d
000002b0: dc9a 853b d243 32bc 6b92 46be f2e7 643b
000002c0: 218f 7e3c 19da f83e 2a0d 24bd d6ba d33e
000002d0: fde6 6e3e c24e 033d 83f4 7c3e b535 1d3c
000002e0: 98e3 5f3b b6e8 bdbe 315d b73e 4bb3 c83d
000002f0: b536 f23e b6ab 6bbe 24c5 ae3e b6df 8cbd
00000300: de63 bb3c b2fe f4bd 72f7 dabc 28c5 373e
00000310: d583 a4bd b4b6 623c d5ce 20bd 194e a83e
00000320: 4a23 f33e 7e83 ce3e d17f a03e a421 0b3c
00000330: 94f1 70be 3c80 3bbe ccd8 9fbe fbf0 15be
00000340: f0f5 023e 7866 c23e 2b28 f4bd dd2f 793e
00000350: 038c 85bb 6513 883e 2721 923e 7193 94be
00000360: 350a bbbe af8b 083e c64a f93d e87d babc
00000370: 8054 c93d 22c3 f23d c566 cc3e cbb6 c5bd
00000380: ae86 c1be 0bb7 c23c 7e53 63bb 5764 2cbc
00000390: 12e1 133f 9fe1 e03d cd4b adbe ee20 2bbe
000003a0: 4528 85be 1b81 d53e 06e5 773e 0d52 4bbe
000003b0: c007 db3c 7c95 a63e 271b fc3d 7f40 24bd
000003c0: 675b 0d3c 4048 2a3b 627d 8e3d 9abe d4bc
000003d0: 4acf 9fbd b9b4 0f3f 40df db3e 3c4f 4c3d
000003e0: 8fb0 373d faf9 e4bd 4616 7ebd d033 36be
000003f0: 531f 903e 9c8f 96bc c821 09bc c04a 1d3e

fc3.bias f4 [2]
0.058318794 0.040928558
00000000: b0df 6e3d b4a4 273d
