checkpoint_maddpg_actor_agent_1.pth (torch_old, 164041 bytes, 10 tensors)

fc1.weight f4 [256, 24]
0	0x3e94c164	0.29053795
1	0x3f5f9774	0.87340474
2	0xbe40f5f1	-0.18843819
3	0x3e1f9d8f	0.15587448
4	0x3e87fcc9	0.26560047
5	0xbeb33818	-0.35003734
6	0xbe591cc3	-0.21202378
7	0x3e1e8465	0.15480192
8	0x3ed09998	0.40742183
9	0x3f562dd9	0.8366371
10	0x3c46179e	0.012090592
11	0xbda2342f	-0.079201095
12	0x3ed3ed7a	0.41392118
13	0xbea9d14d	-0.33167496
14	0xbd7994b2	-0.060932823
15	0x3c3d63a4	0.011559401
16	0x3f12695e	0.5719203
17	0x3f069902	0.5257722
18	0x3c1ca00b	0.009559642
19	0xbea4718b	-0.32117876
20	0x3f025255	0.5090688
21	0xbe8866b0	-0.26640844
22	0x3d8129af	0.06306779
23	0xbe8fb56c	-0.280681
24	0x3ec6292e	0.38703293
25	0xbdb06f46	-0.08614974
26	0xbe033d50	-0.12816358
27	0xbe69d624	-0.22835594
28	0xbe0fde7e	-0.14049718
29	0xbeca707b	-0.3953894
30	0xbe332f91	-0.17498614
31	0xbe224bd9	-0.15849246
32	0x3ed0fc7b	0.40817627
33	0xbe604c70	-0.21904159
34	0x3d5b5996	0.053552233
35	0x3e1d92e1	0.15388061
36	0xbc44965e	-0.011998741
37	0xbeebf974	-0.46088755
38	0x3dc246bf	0.0948615
39	0x3de61aca	0.11235578
40	0x3ea16b4e	0.3152718
41	0xbd999ac3	-0.075002216
42	0xbda1df54	-0.079039246
43	0xbe073139	-0.1320237
44	0x3e483d85	0.19554718
45	0xbf0cf3d2	-0.5505954
46	0xbd670d78	-0.05640933
47	0xbdbbd722	-0.09171893
48	0x3e473659	0.19454326
49	0xbdaef25f	-0.08542322
50	0xbd47b79b	-0.048759084
51	0xbb38ee9c	-0.0028218394
52	0xbca2617a	-0.019821871
53	0xbe018475	-0.12648185
54	0x3cac540a	0.021036167
55	0xbc7f1225	-0.015568291
56	0x3e0cc2ff	0.1374626
57	0xbc69240f	-0.014229788
58	0x3bb4c169	0.0055162203
59	0xbcb3644b	-0.02189841
60	0x3d074f57	0.03303465
61	0xbde02fca	-0.10946615
62	0xbcf60878	-0.030033335
63	0x3d3b33f8	0.045703858
64	0x3e6540cf	0.22388004
65	0xbd5ac049	-0.053406034
66	0x3bcc96a3	0.0062435432
67	0x3da9410e	0.08264361
68	0x3cf71b56	0.030164402
69	0xbe065a37	-0.13120352
70	0xbc937bfa	-0.018003453
71	0xbc997ea2	-0.018737141
72	0x3e4d4346	0.20045194
73	0xbf1c02a2	-0.6094152
74	0x3c4d429d	0.012528089
75	0x3d5f11ca	0.054460324
76	0x3e980ff6	0.29699677
77	0xbf01b7b7	-0.5067095
78	0xbd879a24	-0.06621197
79	0x3d263d78	0.040585965
80	0x3ea27757	0.31731674
81	0xbf099f7b	-0.5375897
82	0xbcd8dcf2	-0.026472542
83	0x3ec89d4f	0.39182517
84	0x3e616c5e	0.22013995
85	0xbefc753e	-0.493082
86	0xbd50b46a	-0.050953306
87	0x3ea85ecf	0.32884833
88	0x3ed0f467	0.40811464
89	0xbead26b8	-0.33818603
90	0xbe28e51f	-0.16493653
91	0x3f122f1b	0.5710313
92	0x3d0ea5b5	0.034826
93	0xbee979ec	-0.45600832
94	0xbe310e9e	-0.17290732
95	0x3f2dc8a6	0.6788429
96	0xbe09ffc6	-0.13476476
97	0xbd33fb02	-0.04394055
98	0x3d8d33f5	0.06894676
99	0xbeecc0ed	-0.4624094
100	0xbde82b1d	-0.11336348
101	0x3e45cd93	0.19316702
102	0x3d6f6d39	0.058453772
103	0xbeea894c	-0.45807874
104	0xbd008537	-0.031377044
105	0xbf01e34f	-0.5073747
106	0x3ddee535	0.108835615
107	0xbef247b1	-0.4732032
108	0x3ed9b6e8	0.4252236
109	0x3db0c79b	0.08631822
110	0x3d95198b	0.072802626
111	0xbefe3c5e	-0.49655432
112	0x3db9c197	0.090701275
113	0xbef70212	-0.48243767
114	0xbc28edff	-0.010310649
115	0xbe2252bc	-0.15851873
116	0x3f3cbd09	0.73725945
117	0xbea3b8b4	-0.31976855
118	0x3d1f1cdc	0.03884588
119	0xbe4c0dcc	-0.19927138
120	0x3ed6294d	0.41828385
121	0x3dea3ec4	0.11437753
122	0x3e1bf36b	0.15229575
123	0xbe842691	-0.25810674
124	0xbe1af2d0	-0.15131688
125	0xbed82111	-0.42212728
126	0x3e294651	0.1653073
127	0xbe8611f0	-0.2618556
128	0x3ed7b2a5	0.42128482
129	0xbd4b94a3	-0.049702298
130	0x3b991cb7	0.0046726125
131	0xbea08541	-0.31351665
132	0xbd4f7ac8	-0.050654203
133	0x3e1c9f3f	0.15295123
134	0xbdcdb692	-0.10044588
135	0xbe97a1ad	-0.29615536
136	0x3f0d048e	0.55085075
137	0xbd6a54fd	-0.057209957
138	0x3c07cd2c	0.008288663
139	0xbef6ee35	-0.48228613
140	0x3de2dd1f	0.11077332
141	0x3f2731c8	0.65310335
142	0xbca12e38	-0.01967536
143	0xbee6e990	-0.4510007
144	0x3e78c033	0.24292068
145	0xbe150626	-0.14553127
146	0xbd82fd23	-0.06395938
147	0x3e836a97	0.2566726
148	0xbf9ce2bd	-1.2256695
149	0xbe0c3162	-0.13690713
150	0x3b458f63	0.003014528
151	0x3e7767c6	0.2416068
152	0x3e25d796	0.16195521
153	0xbe7cf1c6	-0.24701604
154	0xbc22f105	-0.009945159
155	0xbea7a942	-0.3274632
156	0xbf2806cf	-0.6563539
157	0xbcb0d431	-0.021585556
158	0xbc965665	-0.018351743
159	0xbe7b8375	-0.24561866
160	0x3e17c245	0.14820202
161	0xbe52c7ce	-0.20584032
162	0xbdf76f20	-0.12081742
163	0x3b96ab54	0.0045980606
164	0x3d3c65a5	0.045995373
165	0xbc85f919	-0.01635413
166	0xbdc9f1c6	-0.09860568
167	0x3d1d9f43	0.038481962
168	0x3a42c734	0.0007430196
169	0x3f787093	0.97046775
170	0xbe2c98f9	-0.1685523
171	0x3deb4a12	0.11488737
172	0x3e0aea3b	0.13565914
173	0x3e7c0443	0.24611
174	0xbe323905	-0.17404564
175	0x3d876743	0.066114925
176	0x3d45b74d	0.048270512
177	0x3f75b1b3	0.9597427
178	0xba861481	-0.0010229499
179	0xbe76af60	-0.24090338
180	0x3e73e4eb	0.23817794
181	0x3eb67458	0.35635638
182	0x3cf4d24c	0.029885434
183	0xbe3804ef	-0.17970632
184	0xbe22d24e	-0.15900537
185	0x3f4dac40	0.8034096
186	0xbe6d6bd9	-0.23185672
187	0xbdaa341e	-0.08310722
188	0x3cda1b50	0.026624352
189	0x3f19dd56	0.60103357
190	0xbe5353c9	-0.2063743
191	0xbda5e336	-0.08099978
192	0x3e22f5b5	0.15914042
193	0x3f2ac439	0.6670566
194	0x3dd5512c	0.10415873
195	0xbed4b79c	-0.41546333
196	0x3e52bbf1	0.20579506
197	0xbe82a2ee	-0.2551493
198	0x3e1a2ece	0.15056917
199	0xbee14e94	-0.44005263
200	0x3da8422e	0.08215748
201	0x3ebb7068	0.36609197
202	0x3cd6ef37	0.026237113
203	0xbf8a86f5	-1.0822436
204	0x3e6e5a62	0.23276666
205	0xbd836fc2	-0.064178005
206	0x3db9bcf0	0.0906924
207	0xbf779bfe	-0.967224
208	0x3e865dbe	0.26243395
209	0x3e76b225	0.24091394
210	0x3e3a6937	0.18204199
211	0xbf16f839	-0.5897251
212	0x3e73d8e2	0.23813203
213	0xbe594228	-0.21216643
214	0x3df71f7e	0.120665535
215	0xbf29028e	-0.66019523
216	0x3ef896e8	0.48552632
217	0x3e947bdb	0.29000744
218	0xbdacf0bd	-0.08444355
219	0x3dd9fe8b	0.10644253
220	0x3e440fc5	0.1914664
221	0xbf1cca6c	-0.6124637
222	0xbe005e34	-0.12535936
223	0x3dd84179	0.10559363
224	0x3f0a9d49	0.5414625
225	0x3ed326ab	0.4124044
226	0x3d99e238	0.07513851
227	0x3e6e1cd2	0.23253182
228	0x3df92fd3	0.12167325
229	0xbeeff56f	-0.46866938
230	0x3da40f1e	0.08010696
231	0x3e86784e	0.2626366
232	0x3ee155fb	0.4401091
233	0x3ec66688	0.387501
234	0x3c8c82d8	0.017152235
235	0x3d77fe26	0.06054511
236	0x3e4957b5	0.19662364
237	0xbeced566	-0.40397185
238	0x3d9d7384	0.076880485
239	0x3dd3df13	0.103452824
240	0xbe2ceaf0	-0.16886497
241	0x3e5457b1	0.20736577
242	0xbe0681fc	-0.13135523
243	0x3d2f43de	0.042789333
244	0x3f1184d2	0.5684329
245	0xbf679b80	-0.9047165
246	0xbe0d607c	-0.13806337
247	0x3da8df92	0.08245768
248	0xbde27c63	-0.11058881
249	0x3e900f22	0.28136545
250	0xbd6ce4bb	-0.057835322
251	0xbdb4fd17	-0.088373356
252	0x3cd3ae78	0.02584003
253	0xbf46357c	-0.7742536
254	0xbd038679	-0.032110665
255	0xbd9658e1	-0.07341171

fc1.bias f4 [256]
0	0xbecba7c3	-0.3977643
1	0xbe915abf	-0.28389546
2	0xbccf7832	-0.025325868
3	0xbef971ae	-0.48719543
4	0xbe7e3e3a	-0.24828425
5	0xbf402312	-0.75053513
6	0xbf14dff8	-0.5815425
7	0x3e1b9208	0.15192425
8	0xbec6a516	-0.38797826
9	0xbf2317ff	-0.6370849
10	0xbdcfcbf3	-0.10146322
11	0xbe4b2f73	-0.19842319
12	0xbdf25f75	-0.11834613
13	0xbf0680dd	-0.5254038
14	0xbeff2696	-0.49834126
15	0xbd62ba15	-0.055353243
16	0xbe9daaae	-0.3079428
17	0xbdaea25b	-0.085270606
18	0xbf1cec52	-0.61298096
19	0xbf239dce	-0.63912666
20	0xbcf83bb8	-0.030301914
21	0xbe1986a6	-0.1499277
22	0xbbf366e4	-0.007428037
23	0xbf2bc36a	-0.67095053
24	0xbd8da790	-0.06916726
25	0xbed86fb2	-0.42272717
26	0xbe098d9d	-0.13432927
27	0xbef936e4	-0.4867469
28	0xbf2303d7	-0.63677734
29	0xbf40641c	-0.75152755
30	0xbe92ce7b	-0.28673157
31	0xbeb81c51	-0.35959104
32	0xbe514ade	-0.20438716
33	0xbeaba14c	-0.33521497
34	0xbed5f43d	-0.41787902
35	0xbe1147f6	-0.14187607
36	0xbe0baeb9	-0.1364087
37	0xbeb54969	-0.3540757
38	0xbe8ee204	-0.2790681
39	0xbe1dcb56	-0.15409598
40	0xbefe2eb4	-0.49645007
41	0xbe0bc141	-0.1364794
42	0xbe9afd62	-0.3027144
43	0xbf0f74c6	-0.5603756
44	0xbec8d24a	-0.39222938
45	0xbf3a274b	-0.72716206
46	0xbe5da4d7	-0.21644913
47	0xbf167fed	-0.5878895
48	0xbeae6b14	-0.3406607
49	0xbf34dbeb	-0.7064807
50	0xbeb59ffd	-0.35473624
51	0x3f00927b	0.5022351
52	0xbec1e0ac	-0.37866724
53	0xbf152836	-0.5826448
54	0xbe529c0b	-0.20567338
55	0xbf069196	-0.52565897
56	0xbe9a2079	-0.301029
57	0xbea8b4bb	-0.32950386
58	0xbe9c9423	-0.3058177
59	0xbeb04228	-0.34425473
60	0xbeb85fd1	-0.36010602
61	0xbe8dcdfb	-0.27696213
62	0xbe39ce0f	-0.18145011
63	0xbeed3546	-0.46329707
64	0xbd1a55f5	-0.03767963
65	0xbe8b6d89	-0.27232006
66	0xbe1f5665	-0.155603
67	0x3e0ee132	0.13953093
68	0xbf4e5a71	-0.8060675
69	0xbea785c6	-0.3271925
70	0xbe746b9b	-0.23869173
71	0xbf3e1233	-0.7424652
72	0xbf0df7b3	-0.55456084
73	0xbe20c156	-0.15698752
74	0x3cacf6fb	0.021113863
75	0xbe30d8dc	-0.17270225
76	0xbed086e6	-0.4072792
77	0xbe7d6636	-0.24746022
78	0xbdd67259	-0.10471029
79	0xbe920356	-0.2851817
80	0xbe21964c	-0.1577999
81	0xbea9b264	-0.33143914
82	0xbf3883d4	-0.72076154
83	0xbe91dbe5	-0.2848808
84	0x3f01dc9b	0.5072724
85	0xbf2cec65	-0.6754821
86	0xbf4c815d	-0.7988489
87	0x3e3455e4	0.1761089
88	0x3e127820	0.14303637
89	0xbe2a4302	-0.16627124
90	0xbef7d03c	-0.48401058
91	0xbecdda77	-0.40205738
92	0xbe44d569	-0.19222035
93	0xbea83486	-0.32852572
94	0xbec7b9b1	-0.3900886
95	0xbf4a7001	-0.79077154
96	0xbec5f26e	-0.38661522
97	0xbecdc8c5	-0.40192237
98	0xbd9fe7c2	-0.07807876
99	0x3da7488b	0.08168133
100	0xbc11fde1	-0.008910627
101	0xbf1befb5	-0.6091264
102	0xbe79e6a5	-0.2440439
103	0xbefacfe1	-0.48986724
104	0xbedfa367	-0.43679354
105	0xbeed70fe	-0.4637527
106	0x3d980d23	0.07424381
107	0xbf479a6b	-0.7797
108	0xbe5136e5	-0.20431097
109	0xbec856a1	-0.39128593
110	0xbeaa0393	-0.33205852
111	0xbede7293	-0.43446788
112	0xbf021a29	-0.5082117
113	0xbf1457aa	-0.57946265
114	0xbef1d2fb	-0.47231278
115	0xbe8b8d43	-0.27256212
116	0x3d14d6cd	0.036337662
117	0xbf20507f	-0.6262283
118	0xbf0728c3	-0.5279657
119	0x3cedc1ce	0.029023077
120	0xbe872fc8	-0.26403642
121	0xbf2631a9	-0.64919525
122	0xbe76642d	-0.24061652
123	0xbf0eba58	-0.5575309
124	0xbef6badf	-0.48189446
125	0xbf1c2216	-0.6098951
126	0x3cd38cff	0.025824068
127	0xbea46f60	-0.32116222
128	0xbdcad7b3	-0.099044226
129	0xbea824f0	-0.3284068
130	0xbf290f0b	-0.6603858
131	0xbd20f724	-0.03929819
132	0xbf210547	-0.6289868
133	0xbe18a48e	-0.14906523
134	0xbc9dfbda	-0.019285131
135	0xbdd38ed5	-0.103299774
136	0xbe454514	-0.19264632
137	0xbe8ece4d	-0.2789177
138	0xbd19717f	-0.037461754
139	0xbea76f7d	-0.32702246
140	0xbdf66fa6	-0.12033014
141	0xbf0994d5	-0.53742725
142	0xbe1f163f	-0.1553583
143	0xbe932a29	-0.28743103
144	0xbec662ec	-0.38747346
145	0xbf4e42c9	-0.80570656
146	0xbf1c2490	-0.6099329
147	0x3e6cd192	0.2312682
148	0x3f03eb80	0.5153122
149	0xbe190a49	-0.1494533
150	0xbe35ca5e	-0.17752978
151	0xbd948618	-0.07252139
152	0x3e61c91b	0.22049372
153	0x3d76cc31	0.060253326
154	0x3e1120c7	0.1417266
155	0xbd619658	-0.05507502
156	0xbeb862a7	-0.36012766
157	0xbeb46ce7	-0.35239336
158	0xbe672980	-0.22574425
159	0x3ec4300b	0.38317904
160	0xbed3ad15	-0.4134299
161	0xbebd726c	-0.3700136
162	0xbe14c240	-0.14527225
163	0xbeb349db	-0.35017285
164	0xbea0d8bb	-0.31415352
165	0x3f0d0c67	0.5509705
166	0xbe203924	-0.15646797
167	0x3e247d34	0.16063386
168	0xbd348d75	-0.044080216
169	0xbca020b1	-0.019546838
170	0x3d490757	0.049079265
171	0x3c83e36d	0.016099656
172	0xbf199a54	-0.6000111
173	0xbf40cc7e	-0.7531203
174	0xbf11911c	-0.56862044
175	0xbedb0e27	-0.42784235
176	0xbf132277	-0.57474464
177	0xbf505bb6	-0.8138994
178	0xbf563546	-0.8367504
179	0xbd6eb58d	-0.05827861
180	0xbf75a716	-0.9595808
181	0xbdd7e0f0	-0.1054095
182	0xbc8eb5ed	-0.017420733
183	0xbe8bdd56	-0.27317303
184	0x3ea27e37	0.3173692
185	0xbf42e2cc	-0.76127315
186	0xbf12ff08	-0.57420397
187	0xbf04717f	-0.5173568
188	0xbeabb953	-0.3353983
189	0xbda883f2	-0.082282916
190	0xbf11a31a	-0.568895
191	0x3e0dff8d	0.13867016
192	0xbed1ea15	-0.40998903
193	0xbf43736c	-0.76347995
194	0x3af7f3a8	0.001891722
195	0xbe1f310f	-0.15546058
196	0xbe5ad926	-0.21371898
197	0xbdb34a64	-0.08754423
198	0xbe917aeb	-0.2841409
199	0xbedb64de	-0.42850393
200	0xbe434e85	-0.19072922
201	0x3e9e42ac	0.30910242
202	0xbeaad840	-0.3336811
203	0xbe90fb9c	-0.28316963
204	0xbe4031e2	-0.18769029
205	0xbf06f4fb	-0.5271756
206	0xbe315ae2	-0.17319825
207	0xbecf40c7	-0.4047911
208	0xbf577129	-0.84157044
209	0xbf300ff1	-0.68774325
210	0x3e610270	0.21973586
211	0xbef5299e	-0.47883314
212	0x3e8f8af0	0.28035688
213	0xbcc3941b	-0.023874333
214	0xbe9355da	-0.28776437
215	0xbe33f8df	-0.17575406
216	0xbe1f0125	-0.1552778
217	0x3f22d3eb	0.6360461
218	0xbedfd615	-0.4371802
219	0xbf47354c	-0.778157
220	0xbeec5999	-0.46162108
221	0xbdf9a631	-0.121899016
222	0x3d1739bf	0.036920305
223	0xbe980031	-0.29687646
224	0x3cbeaf5b	0.023276975
225	0xbe59fc6b	-0.21287696
226	0x3c17b80a	0.009260187
227	0xbf499a77	-0.7875132
228	0xbe9a3598	-0.30119014
229	0xbe0ed25f	-0.13947438
230	0x3dc43aa4	0.09581497
231	0xbe84e593	-0.259564
232	0xbf1de823	-0.6168234
233	0xbef12051	-0.47094968
234	0xbf2920dd	-0.6606577
235	0xba8d4d80	-0.0010780543
236	0xbf57e687	-0.8433613
237	0x3d892472	0.066964045
238	0xbea90b56	-0.3301646
239	0xbe54e180	-0.20789146
240	0xbf0398cd	-0.5140503
241	0xbf1719a1	-0.5902348
242	0xbe6f7e40	-0.23388004
243	0xbe9ec5d5	-0.3101031
244	0xbf4875ef	-0.7830495
245	0xbe5d6b9c	-0.21623081
246	0xbefdb283	-0.49550256
247	0xbf2d5925	-0.6771415
248	0xbed34cac	-0.41269433
249	0xbbf01654	-0.0073268805
250	0xbe7d1c11	-0.24717738
251	0xbf386ce6	-0.72041166
252	0xbd940d1c	-0.07229063
253	0x3e4a7093	0.19769506
254	0xbe861c57	-0.26193497
255	0xbe17b2d6	-0.14814314

fc2.weight f4 [128, 256]
0	0xbe38d0f4	-0.1804846
1	0x3db6868d	0.08912382
2	0xbd0e4b60	-0.034739852
3	0x3e5d8811	0.21633936
4	0xbe2864fa	-0.1644477
5	0x3ca0bbf5	0.019620875
6	0xbdefc55d	-0.11707566
7	0x3bbd2e00	0.005773306
8	0x3c990380	0.018678427
9	0xbc817051	-0.015800627
10	0x3e44703e	0.19183442
11	0x3e4aa12b	0.19788043
12	0x3e345364	0.17609936
13	0xbdeb015b	-0.11474868
14	0x3df8b412	0.12143721
15	0xbe99c1ed	-0.30030766
16	0xbdb6d3e6	-0.08927135
17	0x3c5f961b	0.013646628
18	0xbe2da0b1	-0.1695583
19	0xbdb7aed9	-0.089688964
20	0x3eb2ff06	0.34960192
21	0xbd472cc8	-0.04862669
22	0xbd7be845	-0.061500806
23	0xbdf4084c	-0.11915645
24	0xbdfff81a	-0.124984935
25	0x3d8bc367	0.068243794
26	0x3d0dd9fa	0.034631707
27	0xbda25e4a	-0.079281405
28	0x3e588301	0.21143724
29	0xbd827614	-0.06370178
30	0xbc4d0859	-0.012514197
31	0xbe5c9df5	-0.21544631
32	0xbbcd5de5	-0.0062672966
33	0x3e8bb8b5	0.27289358
34	0x3e5a64fe	0.21327588
35	0xbec73bb9	-0.38912752
36	0x3e5bb990	0.21457505
37	0xbf1b54df	-0.6067638
38	0xbf0973c2	-0.5369226
39	0x3dbd7afa	0.092519715
40	0xbc6f610d	-0.014610541
41	0xbe057df8	-0.13036335
42	0x3de9be4e	0.11413251
43	0xbe698c49	-0.22807421
44	0x3d9ee539	0.077585645
45	0xbea283f9	-0.31741312
46	0x3e8603be	0.2617473
47	0x3e5b8419	0.2143711
48	0xbd94bf16	-0.07263009
49	0xbe1db111	-0.15399577
50	0x3e5cecfe	0.2157478
51	0x3d0bd26a	0.034136213
52	0xbc8e2278	-0.01735042
53	0x3ec8ba6d	0.39204732
54	0xbeb30566	-0.34965056
55	0x3e7cb379	0.24677838
56	0xbe07b5f5	-0.13253005
57	0xbe046368	-0.12928545
58	0x3e3c5b81	0.18394281
59	0xbbc5df8d	-0.006038612
60	0xbee260a8	-0.44214368
61	0xbe4bde62	-0.19909051
62	0x3d08cb37	0.033396926
63	0x3e5e2c8f	0.21696685
64	0xbe046dd4	-0.12932521
65	0x3e839c0c	0.25704992
66	0xbd97ce7e	-0.07412432
67	0x3e135866	0.1438919
68	0xbedc0138	-0.4296968
69	0xbe321928	-0.17392409
70	0xbe9525af	-0.29130313
71	0x3e01cefa	0.12676612
72	0xbe1a8776	-0.15090737
73	0xbe88a07d	-0.26684943
74	0x3e47d308	0.19514096
75	0x3d1f0ff3	0.03883357
76	0xbe29a88d	-0.16568203
77	0x3de89da6	0.11358194
78	0xbe717eaf	-0.23583482
79	0x3e0fbb3c	0.14036268
80	0xbe993575	-0.29923597
81	0xbe087115	-0.13324387
82	0xbe948cce	-0.29013675
83	0xbd6ca0ed	-0.05777066
84	0xbdb40f31	-0.0879196
85	0x3cd043c6	0.025422942
86	0xbe1d6d3c	-0.15373701
87	0xbe6f433f	-0.23365496
88	0xbd346eeb	-0.044051092
89	0xbd547aa2	-0.051874764
90	0xbde3cca8	-0.111230195
91	0x3e14d6d1	0.14535071
92	0x3e2d3109	0.16913237
93	0x3de84e06	0.11343007
94	0xbe5ee35f	-0.21766423
95	0xbc0ce6b6	-0.008599928
96	0x3d20ad23	0.039227616
97	0xbe1f9eb6	-0.15587887
98	0xbe75a42f	-0.23988412
99	0xbe135d80	-0.14391136
100	0xbd86b0f6	-0.06576721
101	0xbe61d0ff	-0.22052382
102	0x3cd743cc	0.026277445
103	0xbcd6e182	-0.026230577
104	0x3e7e66cf	0.24843906
105	0x3d0e5976	0.034753285
106	0x3db27c9d	0.08715174
107	0xbeaf13a5	-0.34194675
108	0xbdd59c34	-0.10430184
109	0x3e7958ed	0.24350329
110	0x3d68834a	0.056765832
111	0xbe72f6a6	-0.23726901
112	0x3da465fc	0.080272645
113	0x3c885b4e	0.0166451
114	0x3d2c9ea8	0.042143494
115	0x3c4b8a3c	0.012423094
116	0x3e257580	0.16158104
117	0xbeb836ba	-0.35979253
118	0x3e663d8a	0.22484413
119	0x3d793f6d	0.060851503
120	0xbf337ed4	-0.701154
121	0xbc9dadef	-0.019247977
122	0xbeaa6ba5	-0.3328525
123	0xbf0095bf	-0.50228494
124	0x3e29d67b	0.16585724
125	0xbdc74d2e	-0.09731518
126	0x3e8ad18a	0.2711299
127	0xbe0a347b	-0.13496582
128	0x3e888d8e	0.26670498
129	0xbe75cd02	-0.24003986
130	0x3f0e5cce	0.5561036
131	0xbdd5f878	-0.10447782
132	0x3e6978a6	0.2279993
133	0xbe6b8b53	-0.23002367
134	0xbe0bfa70	-0.13669753
135	0xbe87ace1	-0.26499084
136	0x3d858cfb	0.065210305
137	0x3e3d9ea1	0.18517543
138	0x3db9e6ef	0.0907725
139	0xbdc9d98d	-0.09855948
140	0xbd96cd73	-0.07363405
141	0xbd92cda5	-0.0716813
142	0xbee3e3a9	-0.44509628
143	0xbe678f43	-0.22613244
144	0xbdd022d7	-0.10162895
145	0x3d465690	0.048422396
146	0xbe23155f	-0.15926121
147	0x3c12d04c	0.008960795
148	0x3ca14015	0.019683877
149	0xbe30aef5	-0.17254241
150	0x3db0b386	0.086279914
151	0x3da4a2fc	0.08038899
152	0x3e135ac9	0.143901
153	0x3e140134	0.14453584
154	0xbd80a360	-0.06281161
155	0xbecf6b37	-0.40511486
156	0xbd87be30	-0.06628072
157	0xbdf7cd05	-0.12099651
158	0x3dd8bc11	0.10582746
159	0xbd8567f8	-0.06513971
160	0xbb3804e3	-0.0028079085
161	0xbecb2cd6	-0.39682645
162	0xbdfe1a21	-0.124073274
163	0x3d02c5c7	0.031926896
164	0x3e03b1ea	0.12860838
165	0x3ce71f1f	0.028213082
166	0x3e3178bc	0.17331213
167	0xbe5aa678	-0.21352565
168	0xbc7d2b95	-0.015452285
169	0xbdcd95e3	-0.10038354
170	0xbe3dd275	-0.18537314
171	0x3e25f404	0.16206366
172	0xbe5564f8	-0.20839298
173	0x3e81170e	0.25212902
174	0xbec4d290	-0.38441896
175	0x3e6303bb	0.22169392
176	0xbf299147	-0.662373
177	0xbd7d6824	-0.061866894
178	0x3e6e8ded	0.23296328
179	0xbf1f42eb	-0.62211484
180	0x3e79d1f7	0.24396501
181	0xbe88316c	-0.26600206
182	0x3e015039	0.12628259
183	0xbe043916	-0.12912402
184	0xbed96f3c	-0.42467678
185	0xbdcdde47	-0.10052162
186	0xbc4c5e10	-0.012473598
187	0xbe286ca2	-0.1644769
188	0xbd334466	-0.0437664
189	0xbdb5e624	-0.088817865
190	0x3e966617	0.29374763
191	0xbe24ff2f	-0.1611297
192	0xbe12edfb	-0.14348595
193	0xbdf4cc37	-0.119530134
194	0x3e85b983	0.26118097
195	0xbdcf5c0e	-0.1012498
196	0xbeb5c97a	-0.35505277
197	0xbf040124	-0.5156424
198	0x3dc573f6	0.096412584
199	0xbf2b6a22	-0.6695882
200	0xbe601830	-0.21884227
201	0x3e0eb805	0.13937385
202	0x3e18bdb3	0.14916115
203	0xbe904976	-0.28181046
204	0xbd273da1	-0.04083026
205	0xbed6f390	-0.41982698
206	0xbe2aa214	-0.1666339
207	0xbe900260	-0.28126812
208	0x3dc9edc3	0.098598026
209	0xbdf50147	-0.11963134
210	0x3e401800	0.18759155
211	0x3e24ce91	0.16094424
212	0xbcfc3868	-0.030788615
213	0x3e379b54	0.17930347
214	0xbeb103d2	-0.34573227
215	0xbdaed6c2	-0.085370556
216	0x3ea7f5dd	0.32804766
217	0x3dd4eb56	0.10396449
218	0xbea72e68	-0.32652593
219	0xbe76a640	-0.24086857
220	0xbdc87316	-0.09787576
221	0x3d826b14	0.0636808
222	0xbeeb53ce	-0.45962375
223	0xbec605bf	-0.3867626
224	0x3c9ebb0d	0.019376302
225	0xbe1888e7	-0.14895974
226	0x3d9e885c	0.07740852
227	0xbd56d0c0	-0.052445173
228	0x3dcad0ae	0.09903084
229	0xbe6700cc	-0.22558898
230	0xbdf239e5	-0.11827449
231	0xbe8d248f	-0.27566954
232	0x3dc38e73	0.095486544
233	0xbf1d5562	-0.6145841
234	0x3dcad1a1	0.09903265
235	0xbdec08b1	-0.11525095
236	0x3eeae631	0.45878747
237	0x3e6844d1	0.22682501
238	0xbe50b68f	-0.2038214
239	0x3c997a97	0.018735213
240	0xbefd5961	-0.49482253
241	0xbedcfae7	-0.43160173
242	0xbea7acd8	-0.32749057
243	0xbde73929	-0.11290199
244	0x3ddb0d45	0.1069589
245	0x3edd27a3	0.43194303
246	0x3d54c53a	0.051945902
247	0xbdd5ea13	-0.10445037
248	0x3e12c699	0.14333571
249	0xbd44e0d1	-0.048065964
250	0xbe1bdb5a	-0.15220395
251	0x3c150267	0.009094811
252	0xbea60ece	-0.3243317
253	0x3d83afe9	0.064300366
254	0x3f142156	0.57863367
255	0x3db6078c	0.08888158

fc2.bias f4 [128]
0	0xbe0e07fb	-0.13870232
1	0xbdbd04c8	-0.092294276
2	0xbe6234e7	-0.22090493
3	0xbdf73d54	-0.12072244
4	0xbeaa7510	-0.33292437
5	0x3e306577	0.17226206
6	0x3cdb4957	0.02676837
7	0xbe823aac	-0.25435388
8	0x3d835dbc	0.06414363
9	0x3d3c028b	0.045900863
10	0xbdfe065e	-0.12403558
11	0x3dee0252	0.11621536
12	0xbe6869d5	-0.22696622
13	0xbe2739db	-0.16330664
14	0xbeba8ea9	-0.36436966
15	0xbe412a7c	-0.18863863
16	0xbe193d83	-0.14964871
17	0xbef01496	-0.46890706
18	0xbe25badd	-0.16184564
19	0x3ccd5e53	0.025069391
20	0xbe74dfdd	-0.23913522
21	0xbe934149	-0.28760746
22	0x3db0355f	0.0860393
23	0xbe81e9ac	-0.2537359
24	0xbe6b733a	-0.22993174
25	0xbe356de2	-0.17717698
26	0xbec171b4	-0.3778206
27	0xbe7ef096	-0.24896464
28	0xbd839797	-0.06425398
29	0xbd9748fb	-0.07386967
30	0x3cd91eae	0.026503887
31	0xbe108059	-0.14111461
32	0xbd964784	-0.07337859
33	0xbe35362b	-0.17696445
34	0xbe824f83	-0.25451288
35	0xbe9cadba	-0.30601293
36	0xbe3b4e9f	-0.1829171
37	0xbab18b4d	-0.0013545543
38	0xbec7baec	-0.39009798
39	0xbf388892	-0.7208339
40	0x3d7399ae	0.059472732
41	0x3dd040c5	0.10168604
42	0xbeb741eb	-0.3579248
43	0xbe979ad8	-0.29610324
44	0xbe3accf4	-0.18242246
45	0xbd0fac97	-0.035076704
46	0xbee3c377	-0.44485065
47	0x3c9d89a9	0.01923068
48	0x3d9e9137	0.07742541
49	0xbe127e98	-0.14306104
50	0xbec42133	-0.3830658
51	0xbe929b35	-0.2863404
52	0xbd8810f8	-0.066438615
53	0xbd154aef	-0.036448415
54	0x3db5665a	0.08857413
55	0x3cbac6c7	0.022799863
56	0xbeb7f786	-0.35931033
57	0x3ddc6cf8	0.10762972
58	0x3e6db73d	0.23214431
59	0xbca3ec5d	-0.020010168
60	0xbe2dfa0f	-0.16989921
61	0xbb62b915	-0.003459518
62	0x3e7a29e3	0.24430041
63	0xbda86c2f	-0.082237594
64	0xbd9735af	-0.07383286
65	0xbe539719	-0.20663108
66	0xbde10c6d	-0.10988698
67	0xbde1df11	-0.11028875
68	0xbd9e29d3	-0.07722821
69	0x3dce7c75	0.10082332
70	0xbd7db9da	-0.06194482
71	0xbe2cd421	-0.16877796
72	0xbed8cdd4	-0.42344534
73	0xbe2d2a86	-0.16910753
74	0xbecf3efb	-0.40477738
75	0x3bdebc05	0.006797316
76	0xbdc5d67e	-0.09660052
77	0xbe577941	-0.21042348
78	0xbe30670a	-0.17226806
79	0xbe662f9f	-0.22479104
80	0xbe06bf71	-0.13158967
81	0xbedcfa37	-0.4315965
82	0xbea735a0	-0.326581
83	0xbea9c391	-0.33157018
84	0xbde06454	-0.10956636
85	0xbea6991c	-0.32538688
86	0xbe3e6ed9	-0.18596973
87	0xbe99fa08	-0.3007357
88	0x3d7a78b4	0.061150268
89	0xbe06b56d	-0.13155146
90	0x3ce0c4b3	0.027437543
91	0xbda84478	-0.082161844
92	0xbdcd50be	-0.10025166
93	0xbd9c0a02	-0.07619096
94	0xbed61811	-0.41815236
95	0x3e9d8c4a	0.30771095
96	0xbd13a73d	-0.036048163
97	0xbdaa7927	-0.08323889
98	0xbcd2dc7e	-0.025739904
99	0xbe98c119	-0.29834822
100	0x3e1fe325	0.15613993
101	0xbe95e3a2	-0.29275233
102	0xbe717dff	-0.2358322
103	0xbe0a614b	-0.13513677
104	0x3d12d8ae	0.035851173
105	0xbea4fe26	-0.3222515
106	0xbd6d0530	-0.057866275
107	0x3d5bb64a	0.05364064
108	0xbe1bac56	-0.1520246
109	0xbe03e9d1	-0.12882163
110	0x3d4fade3	0.05070294
111	0xbe9c4d50	-0.30527735
112	0xbec70b51	-0.3887582
113	0xbdcc1e69	-0.09966738
114	0x3e038d50	0.12846875
115	0xbe4eecf7	-0.20207582
116	0xbd5b4e53	-0.053541493
117	0xbea51619	-0.32243422
118	0xbe39a8dc	-0.18130821
119	0xbdd268b3	-0.10273876
120	0xbd9e3df5	-0.07726661
121	0xbe3c0ff1	-0.18365456
122	0xbe3c3a9a	-0.1838173
123	0xbdc7b68c	-0.09751615
124	0xbdaa74c0	-0.083230495
125	0x3a8992fd	0.0010496076
126	0xbe1cfd28	-0.15330946
127	0xbe91e2a8	-0.28493237

fc3.weight f4 [2, 128]
0	0x3c007d87	0.007842428
1	0x3e837b7d	0.25680152
2	0xbf147c60	-0.5800228
3	0xbd1bd3f0	-0.038043916
4	0xbca5bfc0	-0.020233035
5	0xbed4af2b	-0.41539893
6	0xbdf33f40	-0.11877298
7	0xbceaccad	-0.02866205
8	0xbdeab382	-0.1146002
9	0xbdcc91d3	-0.09988751
10	0xbf0b051c	-0.5430467
11	0x3ef723be	0.48269457
12	0xbea4a829	-0.32159546
13	0xbe6efbe0	-0.2333827
14	0xbe6f3c31	-0.23362805
15	0x3e39e955	0.18155415
16	0xbdf7dca7	-0.12102633
17	0xbf388f86	-0.72094
18	0x3e44a329	0.19202866
19	0xbf115a56	-0.56778467
20	0x3d975790	0.07389748
21	0xbd7a5593	-0.061116766
22	0xbbb89922	-0.005633489
23	0xbd8f54af	-0.06998574
24	0x3e7d6f30	0.24749446
25	0xbe13812e	-0.14404747
26	0xbe925cb7	-0.2858636
27	0x3e99c361	0.30031875
28	0xbe34bcb3	-0.17650108
29	0x3d48126a	0.048845686
30	0xbe7f3452	-0.24922302
31	0xbe3dceca	-0.18535915
32	0x3e2921a4	0.16516739
33	0xbf0e629a	-0.55619204
34	0x3e253ef7	0.161373
35	0xbc0766f6	-0.008264294
36	0xbeb74e08	-0.3580172
37	0x3d527a8b	0.051386397
38	0xbebd719b	-0.37000737
39	0x3eb93eae	0.36180633
40	0x3c664c78	0.0140563175
41	0xbc5c92b5	-0.013462712
42	0xbe64ecce	-0.22355959
43	0xbed6b9c5	-0.41938606
44	0x3ce436ef	0.027858226
45	0xbda749d5	-0.08168379
46	0xbd6a81f8	-0.057252854
47	0xbeba59c6	-0.36396617
48	0xbd986138	-0.07440418
49	0x3db9c921	0.090715654
50	0xbe0fb724	-0.14034706
51	0xbeccade3	-0.39976415
52	0x3da312cf	0.07962572
53	0xbe3aeedb	-0.18255179
54	0xbe969658	-0.29411578
55	0xbce71bbd	-0.028211469
56	0xbf085d6b	-0.53267545
57	0x3cd7ae1a	0.026328135
58	0x3dcfa221	0.101383455
59	0xbd0377d6	-0.032096706
60	0xbbfd8932	-0.007737302
61	0x3ef1ee9e	0.47252363
62	0xbe390b40	-0.18070698
63	0xbb9dfc2a	-0.00482132
64	0xbc8dd7e3	-0.017314857
65	0x3ed2b1d3	0.41151294
66	0xbe141950	-0.14462781
67	0x3e51b4bb	0.204791
68	0xbd8c91ff	-0.06863784
69	0x3eda60f6	0.426521
70	0x3e3f787a	0.18698302
71	0xbe765e42	-0.24059394
72	0xbde0ed03	-0.109827064
73	0x3dd2a32e	0.1028503
74	0xbe65f0d3	-0.22455148
75	0xbde98186	-0.11401658
76	0xbe3aa33f	-0.18226336
77	0xbeba29c0	-0.36359978
78	0x3daacfa3	0.08340385
79	0x3dc61fd0	0.096740365
80	0xbecf1b0a	-0.40450317
81	0xbf0b4769	-0.5440584
82	0x3d2adaf6	0.041712724
83	0x3d6c0350	0.057620347
84	0xbf0ee5e6	-0.5581955
85	0x3e203a94	0.15647346
86	0x3ee64751	0.44976285
87	0x3e89c28d	0.26906243
88	0x3e1b88b8	0.15188873
89	0xbe6c3fcb	-0.2307121
90	0xbe82f4ad	-0.25577298
91	0x3d538988	0.051644832
92	0xbee89ee8	-0.45433736
93	0x3df13698	0.11777991
94	0xbdffe05f	-0.12493967
95	0xbd59b5e4	-0.05315198
96	0x3e804af0	0.25057173
97	0x3ec71fe3	0.38891515
98	0xbf26784c	-0.6502731
99	0x3e0fbf8f	0.14037918
100	0x3c82902b	0.015937885
101	0xbe017d59	-0.12645473
102	0xbe5c38ed	-0.2150609
103	0x3d934d79	0.07192511
104	0x3e1d81b6	0.15381512
105	0xbca5d3d6	-0.020242613
106	0xbeee729a	-0.4657181
107	0xbe3e8ea5	-0.18609102
108	0x3d49bc83	0.049252044
109	0x3e2e06c7	0.16994773
110	0xbeb47c3a	-0.35251027
111	0x3ed602b9	0.41798952
112	0x3efccd1e	0.49375242
113	0x3e5dc95e	0.21658847
114	0xbe5a30a0	-0.21307611
115	0x3f085a28	0.5326257
116	0x3e9e4115	0.3090903
117	0xbd017ec2	-0.031615026
118	0xbe84be4d	-0.25926438
119	0x3f0d71b3	0.55251616
120	0x3d52de25	0.051481385
121	0x3e1afab8	0.15134704
122	0x3e4139d6	0.18869719
123	0x3d3d2d4d	0.04618578
124	0xbef0a6c9	-0.47002247
125	0xba59b831	-0.000830534
126	0xbee87cb8	-0.45407653
127	0xbea846d1	-0.3286653
128	0xbe3c9a82	-0.18418315
129	0x3e01cbf3	0.12675457
130	0xbba87b5d	-0.005141659
131	0xbe9ab595	-0.3021666
132	0xbe1fc84b	-0.1560375
133	0x3cd334a4	0.025781937
134	0x3f26c176	0.6513895
135	0x3ec3b1bb	0.38221535
136	0xbd98a77b	-0.07453819
137	0xbe0f7dd6	-0.14012846
138	0xbde53587	-0.1119185
139	0x3e832241	0.2561207
140	0xbc4bf426	-0.012448346
141	0xbd982421	-0.07428766
142	0xbc8703ec	-0.016481362
143	0x3e2a4003	0.16625981
144	0xbe6d6c0d	-0.2318575
145	0xbb97957f	-0.0046259756
146	0xbe4dcb3b	-0.20097058
147	0xbe9a8b48	-0.30184388
148	0x3f2e4ccb	0.68085927
149	0x3ea57cc2	0.32321745
150	0x3e5b0dce	0.21391985
151	0xbf220d65	-0.6330169
152	0x3c99fe09	0.018797891
153	0xbe6d5cdd	-0.23179956
154	0x3f4aee7b	0.7927014
155	0xbe5b5cbe	-0.21422097
156	0x3ee8db25	0.45479694
157	0xbef46934	-0.47736514
158	0xbeda1146	-0.42591304
159	0x3dd12a81	0.10213185
160	0xbe456478	-0.19276607
161	0xbd47823b	-0.04870818
162	0x3e82379a	0.25433046
163	0xbdd52815	-0.10408036
164	0x3e8d9159	0.27649954
165	0x3f065ec6	0.5248836
166	0xbe85bd98	-0.2612121
167	0xbf3c7681	-0.7361832
168	0x3f2602ea	0.64848197
169	0xbf089869	-0.5335756
170	0xbf1ba241	-0.60794455
171	0x3e169300	0.14704514
172	0xbecb72dd	-0.3973607
173	0x3e60f3cf	0.21968006
174	0xbecc61e3	-0.39918432
175	0xbdc2b2e1	-0.09506775
176	0x3e9c4399	0.30520323
177	0x3ec9c7bc	0.39410198
178	0xbe8c029a	-0.27345735
179	0xbce77239	-0.028252708
180	0x3ee709a4	0.45124543
181	0x3c451477	0.012028805
182	0x3ecd8dc4	0.4014722
183	0xbed23b8a	-0.4106105
184	0x3dc565e8	0.09638578
185	0x3e8eb94b	0.27875742
186	0xbf07084c	-0.52747035
187	0xbec1a59b	-0.3782166
188	0x3e2dbc22	0.16966298
189	0xbe6b04b9	-0.2295102
190	0xbf4870b2	-0.7829696
191	0x3ece72cf	0.40321967
192	0x3ef1e53c	0.47245204
193	0x3eea1398	0.45718074
194	0xbed3c146	-0.41358393
195	0xbf857170	-1.0425243
196	0x3e9ac798	0.30230403
197	0x3f5d4085	0.86426574
198	0x3d8d9d47	0.06914764
199	0x3ee9b796	0.45647877
200	0xbea4f071	-0.32214692
201	0x3f2f0c80	0.6837845
202	0xbe675ec3	-0.22594742
203	0x3e0d52ab	0.13801067
204	0xbf1c83ea	-0.61138785
205	0x3ee2e1c2	0.44312865
206	0x3ece89b9	0.4033945
207	0x3e74fe4a	0.23925129
208	0xbd1c352a	-0.03813664
209	0xbe48ca5b	-0.19608442
210	0x3e0e5257	0.13898598
211	0x3d08b1c8	0.03337267
212	0xbdc7b59b	-0.09751435
213	0xbd3f899f	-0.046762105
214	0x3e9fdb02	0.31221777
215	0xbe7fdfe7	-0.24987756
216	0x3f26d807	0.6517338
217	0xbf4ef414	-0.80841184
218	0xbf05dcd8	-0.52290106
219	0x3e862e65	0.2620727
220	0xbd24367e	-0.04009103
221	0x3e2ed535	0.1707352
222	0x3f067204	0.52517724
223	0xbf1b532d	-0.6067379
224	0x3eb524c1	0.35379604
225	0x3f01ad85	0.50655395
226	0x3e17cbf1	0.14823891
227	0xbf11146c	-0.56671786
228	0x3f34701a	0.70483553
229	0xbd74602e	-0.059662037
230	0x3d44ac40	0.048015833
231	0x3e09b520	0.13448
232	0xbf3c529a	-0.7356354
233	0xbf12641f	-0.5718402
234	0xbde9b84b	-0.11412104
235	0xbea37194	-0.3192259
236	0x3ecde019	0.40210035
237	0xbede3725	-0.43401447
238	0x3e244d55	0.16045125
239	0x3c802a23	0.015645092
240	0x3e593d83	0.21214871
241	0xbe8023ba	-0.25027257
242	0xbeaafa95	-0.33394304
243	0x3e697549	0.22798647
244	0x3f5115da	0.8167397
245	0x3ef0a068	0.4699738
246	0xbee0b3ec	-0.4388727
247	0x3f00692f	0.501605
248	0xbea8e81a	-0.3298958
249	0xbeebf0e6	-0.46082228
250	0xbe5fe1b0	-0.21863437
251	0x3f05f7f9	0.523315
252	0x3e98fd2b	0.29880652
253	0x3eb1c78f	0.34722564
254	0xbde9f884	-0.11424354
255	0x3c19c86e	0.009386165

fc3.bias f4 [2]
0	0x3bf0b723	0.0073460503
1	0x3e174575	0.1477259

bn.weight f4 [256]
0	0x3fa0debf	1.2567977
1	0x3f119a0a	0.5687567
2	0x3f2da929	0.6783624
3	0x3f455bae	0.7709302
4	0x3ebaf1cf	0.3651261
5	0x3f092081	0.5356522
6	0x3f5539ab	0.8329112
7	0x3f218b80	0.63103485
8	0x3f725611	0.94662577
9	0x3f1789a7	0.59194416
10	0x3f80e53d	1.0069958
11	0x3f21ab58	0.63152075
12	0x3f367df6	0.7128595
13	0x3f4326d2	0.7623111
14	0x3f976c0d	1.182985
15	0x3f243c3a	0.641544
16	0x3f1bb21e	0.6081866
17	0x3f536415	0.8257459
18	0x3ec78bd5	0.3897387
19	0x3f8e6a81	1.1126252
20	0x3f67d08e	0.90552604
21	0x3f32a305	0.6978
22	0x3f56a16f	0.8384008
23	0x3f93607f	1.1513823
24	0x3ee76c51	0.45199826
25	0x3f29adc4	0.6628077
26	0xbc4f1915	-0.012640257
27	0x3f6a3bff	0.91497797
28	0x3f649ddb	0.8930337
29	0x3f14bfa2	0.5810491
30	0x3e0d1b5f	0.13779972
31	0x3f0dcc92	0.55390275
32	0x3f0f72c5	0.560345
33	0x3f651ac1	0.8949395
34	0x3fb5084b	1.4143156
35	0x3f6b6e3b	0.91965073
36	0xbcbfdcb2	-0.023420665
37	0x3f7fe9ff	0.99966425
38	0x3f39b59d	0.72542745
39	0x3f5d69b4	0.86489415
40	0x3f0bcb63	0.5460722
41	0x3bf6be22	0.00752999
42	0xbe7d364f	-0.24727748
43	0x3edf4a94	0.43611586
44	0x3f50709e	0.8142184
45	0x3f5c3f5f	0.86034197
46	0x3f5af0e8	0.85523844
47	0x3f8f811e	1.1211278
48	0x3dfb9f9d	0.12286303
49	0x3fa40841	1.2815019
50	0x3f850157	1.0391034
51	0x3f2f8303	0.68559283
52	0x3e8e8d3d	0.2784213
53	0x3fbecaec	1.4905677
54	0x3ee1fcb6	0.44138116
55	0xbf0d1298	-0.55106497
56	0x3f5b905f	0.8576717
57	0x3f6b2956	0.9185995
58	0x3f104f36	0.56370866
59	0x3ea3c6b6	0.31987542
60	0x3f630773	0.8868324
61	0x3f5ff6a8	0.8748574
62	0x3f136c3d	0.57587034
63	0x3f1b69da	0.6070839
64	0x3f92caae	1.1468103
65	0x3fa15e3a	1.2606881
66	0x3f42a800	0.760376
67	0x3eeadf8d	0.4587368
68	0x3f0fcd3d	0.56172544
69	0x3e7dcb25	0.24784525
70	0x3f089495	0.5335172
71	0x3f6d88c3	0.92786807
72	0x3f76c742	0.96397793
73	0x3f3d2bdf	0.73895067
74	0x3f01ecf9	0.50752217
75	0x3ebb39bf	0.36567494
76	0x3f0873c7	0.5330166
77	0x3f68a83f	0.90881723
78	0x3f8b4ada	1.0882218
79	0x3e2460a3	0.16052489
80	0x3e777ff8	0.2416991
81	0x3e66d631	0.22542645
82	0x3f1549ea	0.5831591
83	0x3f05c89b	0.52259225
84	0x3f3a933a	0.728809
85	0x3ee40001	0.44531253
86	0x3f8b6d9a	1.0892823
87	0x3fa1e5a2	1.2648203
88	0x3f5a32c6	0.85233724
89	0x3f320a75	0.69547206
90	0x3f238668	0.6387696
91	0x3f707d06	0.9394077
92	0x3f14c50d	0.58113176
93	0x3f5157dc	0.8177469
94	0x3f67a9d1	0.90493494
95	0x3f939942	1.1531146
96	0x3e7bafe2	0.24578813
97	0x3e5cc0f4	0.21557981
98	0x3f00ab8c	0.5026176
99	0x3f9566de	1.1672018
100	0x3f5885d7	0.84579223
101	0x3eb13cc0	0.3461666
102	0x3e9a9a4f	0.30195853
103	0x3f078439	0.5293613
104	0x3f574a6d	0.8409794
105	0x3efe6959	0.4968975
106	0x3ed9b19b	0.42518315
107	0xbf71d513	-0.9446575
108	0x3f75e301	0.96049505
109	0x3f838b62	1.0276911
110	0x3f9a2050	1.2041111
111	0x3f41287f	0.7545242
112	0x3f19310b	0.5984046
113	0x3f11956d	0.5686863
114	0x3f47548a	0.7786337
115	0x3e8e0b20	0.27742863
116	0x3f0e3328	0.5554681
117	0x3f793c8c	0.9735801
118	0x3f8aaa65	1.083325
119	0x3f89c517	1.0763272
120	0x3f25a501	0.647049
121	0x3f667b90	0.9003229
122	0x3ecf2929	0.4046109
123	0x3f4acbc4	0.7921717
124	0x3e8519cc	0.25996244
125	0x3eef4f15	0.46740022
126	0x3f647d28	0.89253473
127	0x3f32ada6	0.69796216
128	0xbe30ea19	-0.17276801
129	0x3f19cecc	0.6008117
130	0x3f7aece6	0.9801773
131	0x3ea4bd8b	0.3217586
132	0x3ee477f0	0.44622755
133	0x3f3d51d2	0.7395297
134	0x3f6ace2b	0.9172084
135	0x3e48cffa	0.19610587
136	0x3eb6051b	0.3555077
137	0x3f4100f8	0.75392103
138	0x3f938a7f	1.1526641
139	0x3f37f234	0.7185395
140	0x3f0c618c	0.54836345
141	0x3f89927b	1.0747827
142	0x3f929de7	1.1454438
143	0x3f701b8f	0.9379205
144	0xbf0ed1a3	-0.5578863
145	0x3f90be16	1.130801
146	0x3f54b314	0.8308575
147	0x3e1cb81b	0.15304606
148	0x3f3d5c99	0.7396942
149	0x3ed10555	0.4082438
150	0x3f6dff1c	0.9296739
151	0x3f62449b	0.88385934
152	0x3f6e9913	0.9320232
153	0x3f4a0bf6	0.789245
154	0x3f415241	0.75516135
155	0x3d4e858c	0.05042033
156	0x3f0bcbb9	0.5460773
157	0x3f8cdc18	1.1004667
158	0x3f757605	0.9588321
159	0x3f33024d	0.69925386
160	0x3eff4d9a	0.49863893
161	0x3f89bc59	1.0760604
162	0x3f6786dd	0.9044016
163	0x3f187775	0.59557277
164	0x3f08c372	0.53423226
165	0x3eb0480b	0.34429964
166	0x3facdbcc	1.3504577
167	0x3edde5cd	0.43339387
168	0x3f19feb5	0.6015428
169	0x3e0e817b	0.1391658
170	0xbcedd80e	-0.029033687
171	0x3edb1306	0.4278795
172	0x3f105f4a	0.563954
173	0x3f89b1a8	1.0757341
174	0x3f3368fa	0.70082057
175	0x3f3c01dc	0.7344034
176	0x3f1861e2	0.5952436
177	0x3f44eac2	0.7692071
178	0x3ec800a2	0.39062983
179	0x3ec513d5	0.38491693
180	0x3f2fc560	0.68660545
181	0x3ef1c904	0.47223675
182	0xbd4c4b7c	-0.049876675
183	0x3f3d64f6	0.7398218
184	0x3f84141c	1.0318637
185	0x3ec936f6	0.39299744
186	0x3f54292b	0.8287532
187	0x3f959ecf	1.168909
188	0x3ebc2d0f	0.36753127
189	0x3e9d1d3d	0.3068637
190	0x3f8eff35	1.1171633
191	0x3f86f0ce	1.0542238
192	0x3f4449ee	0.7667531
193	0x3f850c0a	1.0394299
194	0x3f9528ed	1.1653115
195	0x3f7e57df	0.9935283
196	0x3ee49e70	0.44652128
197	0x3f48c056	0.7841848
198	0x3fa0586e	1.2526987
199	0x3f685b2e	0.9076413
200	0x3f60b6f9	0.87779194
201	0x3e805049	0.25061253
202	0x3f71a098	0.9438567
203	0x3ebb3a31	0.36567834
204	0x3f0656b8	0.5247607
205	0x3f755fba	0.9584919
206	0x3f124f52	0.57152283
207	0x3f181684	0.59409356
208	0x3fb8d2d8	1.4439344
209	0x3f794cfa	0.9738308
210	0x3f344d4a	0.70430434
211	0x3f413b2f	0.7548093
212	0x3f3b6072	0.7319404
213	0x3f7d2a4d	0.9889267
214	0x3dfb3183	0.12265303
215	0xbcf9a8a2	-0.030475918
216	0x3f38d923	0.72206324
217	0x3f7cd406	0.9876102
218	0x3f197eab	0.59958905
219	0x3f82f84e	1.0232027
220	0x3f192cb5	0.5983384
221	0x3f8b01b4	1.0859895
222	0x3f2ec5ff	0.6827087
223	0x3f8850bd	1.0649639
224	0x3ed8a8fc	0.42316425
225	0x3f2a5986	0.6654285
226	0x3f499084	0.7873614
227	0x3f256360	0.6460476
228	0x3f1c3493	0.6101772
229	0x3f389f60	0.72118187
230	0x3d62420e	0.055238776
231	0x3eb96a15	0.36213747
232	0x3f5277b0	0.8221388
233	0x3f27af71	0.6550208
234	0x3f0d3d6e	0.5517186
235	0x3f1d38c2	0.6141473
236	0x3f54ac52	0.8307544
237	0x3bed7d15	0.007247577
238	0x3f293e67	0.66110843
239	0x3f5966c4	0.8492243
240	0x3f2e8dfa	0.6818539
241	0x3f6fbcd4	0.93647504
242	0x3f06a5b2	0.5259658
243	0x3f1e51d2	0.618436
244	0x3e912772	0.28350407
245	0x3fb82312	1.4385703
246	0x3f16d252	0.58914673
247	0x3f89881c	1.0744662
248	0x3f5a6f8f	0.85326475
249	0x3efb493c	0.4907931
250	0x3f262b5c	0.6490991
251	0x3f833a96	1.0252254
252	0x3fb389c4	1.4026418
253	0x3ef6d936	0.48212594
254	0x3f543984	0.8290026
255	0x3f256839	0.64612156

bn.bias f4 [256]
0	0x3eab9fc0	0.33520317
1	0xbc4836c0	-0.012220085
2	0x3c03a488	0.008034833
3	0x3de12045	0.10992483
4	0x3e4bdfb6	0.19909558
5	0x3e4e669f	0.20156334
6	0x3c3f8259	0.011688792
7	0x3d470814	0.04859169
8	0xbc6ade13	-0.014335173
9	0x3e320a28	0.17386687
10	0x3d411a52	0.04714424
11	0x3d9c2b7e	0.07625483
12	0xbb27d9a0	-0.0025611892
13	0xbd0615b0	-0.032735527
14	0xbe304f03	-0.1721764
15	0x3dbcdac7	0.09221416
16	0x3e39cc18	0.18144262
17	0xbc2c1823	-0.0105038015
18	0x3dbc0bd5	0.09181944
19	0x3e2fc2fe	0.17164227
20	0xbd5b52db	-0.053545814
21	0x3d8dc1c2	0.06921722
22	0x3e8c3eb3	0.27391586
23	0x3e0371bb	0.12836353
24	0x3ddb0614	0.10694519
25	0xbdc18ac7	-0.09450298
26	0xbca3e49b	-0.020006469
27	0x3e406cdd	0.18791528
28	0xbe186276	-0.1488131
29	0x3e858011	0.2607427
30	0xbb19ffe1	-0.0023498463
31	0x3e1d1b76	0.15342507
32	0x3d86a26d	0.06573949
33	0xbd7661e1	-0.06015194
34	0xbdc5fd16	-0.09667413
35	0x3e89534e	0.2682137
36	0xbe833830	-0.25628805
37	0x3e83100e	0.25598186
38	0x3dff4999	0.124652095
39	0xbdd7c1b3	-0.10534992
40	0x3ddff330	0.10935056
41	0x3cbb515c	0.022865944
42	0xbe5b9a24	-0.21445519
43	0x3ebb2306	0.36550158
44	0x3e5ccddb	0.21562903
45	0x3e8253b6	0.2545449
46	0xbb91b4a1	-0.0044465815
47	0xbe71ce2d	-0.23613806
48	0x3ccb0622	0.024783198
49	0x3cb66d4e	0.022268917
50	0xbd708514	-0.058720663
51	0xbd389f1a	-0.045073606
52	0x3e50d989	0.20395483
53	0xbd912a48	-0.07088143
54	0x3dbf40f7	0.09338563
55	0xbe2f01b1	-0.17090489
56	0x3e683b1a	0.22678795
57	0x3e0e51ed	0.1389844
58	0xbd995c02	-0.07488252
59	0xbe6bc6ea	-0.23025098
60	0x3e58a116	0.211552
61	0x3de9d5dd	0.11417744
62	0x3e473c92	0.194567
63	0x3e2d6037	0.16931234
64	0x3cea6660	0.02861327
65	0x3e1dcbfb	0.15409844
66	0x3d166aa3	0.03672279
67	0x3d19e654	0.037573174
68	0x3f0275fa	0.5096127
69	0x3eea97f8	0.45819068
70	0x3e97edef	0.29673716
71	0x3e7a7a54	0.24460727
72	0x3eb2c3ab	0.34914908
73	0x3e4d25cc	0.2003395
74	0x3de4bf9f	0.11169361
75	0x3e803bdb	0.25045666
76	0xbb90b13a	-0.0044156583
77	0xbdd0fb62	-0.102041975
78	0x3cdd3836	0.027004343
79	0xbd038216	-0.03210648
80	0x3e0ee1cd	0.13953324
81	0x3e99c80c	0.30035436
82	0x3d976404	0.07392123
83	0xbdeab1bc	-0.114596814
84	0x3dcbdf77	0.09954732
85	0x3df8ed20	0.12154603
86	0x3e69de5c	0.2283873
87	0x3d78d6c3	0.060751688
88	0x3c9697d0	0.018382937
89	0x3e371669	0.17879643
90	0x3e160c7c	0.146532
91	0xbd95c7e2	-0.07313515
92	0xbe18ff90	-0.1494124
93	0x3e25dc53	0.16197328
94	0x3e3afc09	0.18260206
95	0x3dbaa8eb	0.0911425
96	0xbcd3a21b	-0.025834134
97	0x3e1372d0	0.14399266
98	0x3d7c1f88	0.061553508
99	0x3e5a2c51	0.21305968
100	0xbe0551e5	-0.13019522
101	0x3dff20f8	0.1245746
102	0xbe256d98	-0.16155088
103	0x3e508d08	0.20366299
104	0xbd1ed994	-0.038781717
105	0x3d2dc5cb	0.04242496
106	0xbd79bfd0	-0.060973942
107	0xbd605bb3	-0.05477495
108	0x3c8df9d2	0.017331038
109	0xbdc659a1	-0.09685064
110	0xbc578ffe	-0.013156889
111	0x3bf731b5	0.0075437673
112	0x3daa3817	0.083114795
113	0x3e55326f	0.2082002
114	0x3e8a44cf	0.27005622
115	0xbda6af1c	-0.08138868
116	0x3df7d726	0.12101583
117	0x3f049fe9	0.51806504
118	0x3d856bdc	0.06514713
119	0x3ddc2f7f	0.10751247
120	0x3e130d30	0.143605
121	0x3dec1d49	0.11529023
122	0xbd420ffb	-0.04737852
123	0x3ef6a5ad	0.48173276
124	0xbccbc3e0	-0.024873674
125	0x3ed6cc71	0.4195285
126	0x3cd7f8b6	0.026363712
127	0x3e934567	0.28763887
128	0xbe8f85c8	-0.28031754
129	0x3eaddb1d	0.33956233
130	0x3d11bd4a	0.03558091
131	0x3e4cd888	0.20004475
132	0x3d92d12d	0.07168803
133	0x3e470002	0.19433597
134	0x3e8d8019	0.27636793
135	0x3e0e1a68	0.1387726
136	0x3e3ebf0c	0.18627566
137	0xbdefcc85	-0.11708931
138	0x3cf10bda	0.029424597
139	0x3cfbf617	0.030756993
140	0x3de59b65	0.1121128
141	0x3df5b24b	0.11996897
142	0x3e74ff2f	0.2392547
143	0xbd0eb409	-0.034839664
144	0xbb5c08a7	-0.0033574493
145	0x3edd67c5	0.43243232
146	0x3da074bd	0.07834766
147	0xbd05048d	-0.032475043
148	0x3d5bb6fb	0.0536413
149	0x3e86f307	0.2635729
150	0xbe4113ef	-0.1885526
151	0x3db41168	0.087923825
152	0x3d71b389	0.05900911
153	0xbdd22a91	-0.10262025
154	0x3da65f76	0.081236765
155	0x3ea7298e	0.3264889
156	0x3ca0effe	0.019645687
157	0x3f01f837	0.5076937
158	0x3df01f37	0.11724704
159	0xbd18f93a	-0.037347056
160	0x3d700ada	0.0586041
161	0xbd298ab3	-0.04139204
162	0x3ddaf6ce	0.106916055
163	0xbdf5b334	-0.11997071
164	0xbd4cd1db	-0.05000482
165	0x3de7a03c	0.11309859
166	0xbbb9e6f0	-0.005673282
167	0x3de02333	0.10944214
168	0x3e571bd6	0.21006712
169	0x3cfd07d8	0.03088753
170	0x3dffe92c	0.12495646
171	0x3df23bf4	0.118278414
172	0x3e8c24c5	0.27371803
173	0x3ca017e9	0.019542651
174	0x3ea6d44e	0.3258385
175	0x3d1b7bbd	0.037959803
176	0x3ef8ffc8	0.48632646
177	0x3c2331d1	0.009960608
178	0xbdc7334b	-0.0972658
179	0x3e9e1813	0.30877742
180	0x3ccbef99	0.024894523
181	0x3e6003a6	0.21876392
182	0xb90d4516	-0.00013472544
183	0x3e45b75c	0.19308227
184	0x3da2eca1	0.0795529
185	0xbe3edce5	-0.18638952
186	0x3d81a922	0.06331088
187	0xbddbee90	-0.107388616
188	0x3d99c4d3	0.07508244
189	0x3defc0b3	0.11706676
190	0xbe28d446	-0.16487226
191	0x3ba7a520	0.00511612
192	0x3e8bb690	0.27287722
193	0x3e536a28	0.20645964
194	0x3dbda869	0.09260637
195	0x3e6641d6	0.22486052
196	0x3dcfcd24	0.10146549
197	0x3e167c7c	0.14695925
198	0x3e8efa15	0.27925172
199	0x3f022a1c	0.50845504
200	0x3e514a65	0.20438536
201	0x3e09e3ea	0.13465849
202	0xbd5371a5	-0.05162205
203	0x3e0228c7	0.12710868
204	0xbd03b889	-0.03215841
205	0x3e87081e	0.2637338
206	0xbdac9dfe	-0.08428572
207	0x3d24a3e9	0.04019538
208	0xbc33dbfa	-0.0109777395
209	0x3e8dcdee	0.27696174
210	0x3d1c8bea	0.03821937
211	0x3bb1d124	0.005426543
212	0x3cecc839	0.028904067
213	0xbd75d53f	-0.06001782
214	0x3ecb1de9	0.39671257
215	0x3dfd01bc	0.123538464
216	0xbc100982	-0.008791329
217	0x3c923f3d	0.01785242
218	0x3e5d29d1	0.21597983
219	0x3cc0525d	0.023476774
220	0x3c9358b4	0.017986633
221	0xb92a63d8	-0.00016249658
222	0x3d0db55c	0.034596786
223	0x3db2149a	0.08695336
224	0x3d01fe43	0.031736623
225	0x3de67fc0	0.11254835
226	0xbccdc3bf	-0.025117753
227	0x3df05583	0.1173506
228	0x3d5a2c98	0.053265184
229	0x3f048847	0.5177044
230	0x3ba6faa7	0.005095798
231	0x3d466d26	0.048443936
232	0x3d2193c2	0.039447553
233	0x3e962b2e	0.29329818
234	0x3e048dc5	0.12944706
235	0x3e71ec60	0.23625326
236	0xbcc3fc9b	-0.023924163
237	0xbe2215ec	-0.15828675
238	0xbc88dc31	-0.016706558
239	0xbdc0dee8	-0.09417516
240	0x3d498569	0.049199495
241	0x3e33d676	0.17562279
242	0x3e381e18	0.1798023
243	0x3ca0bf52	0.019622479
244	0x3d2d06db	0.042242866
245	0xbe5e0593	-0.21681814
246	0x3daf9007	0.08572393
247	0xbbec2e15	-0.007207642
248	0xbc4c2c5e	-0.01246175
249	0xbdd59c99	-0.10430259
250	0x3dbbde06	0.09173207
251	0x3dc0c2be	0.09412144
252	0x3e5737a7	0.21017323
253	0xbd186530	-0.037205875
254	0xbde2a971	-0.11067475
255	0x3d9decff	0.07711219

bn.running_mean f4 [256]
0	0x3f0b5422	0.5442525
1	0x3deeaccb	0.116540514
2	0x00000004	6e-45
3	0x3f4d765b	0.8025872
4	0x40fb587e	7.8545523
5	0x4023c21d	2.5587227
6	0x3fe032a1	1.7515451
7	0x40a2fcaf	5.093345
8	0x410e25fa	8.884272
9	0x3eb78b62	0.35848528
10	0x3f7651a0	0.962183
11	0x3f9af8f3	1.2107223
12	0x3fe56f88	1.7924662
13	0x3f1b3840	0.60632706
14	0x3e470690	0.19436097
15	0x408bb37f	4.365661
16	0x3f9d7f5b	1.2304491
17	0x3f4c976d	0.7991856
18	0x3e3b68dc	0.1830172
19	0x41021094	8.129047
20	0x412fc9a6	10.986731
21	0x3f742bee	0.9537953
22	0x40f8bff1	7.7734303
23	0x3f2b7a43	0.6698343
24	0x4093250d	4.598273
25	0x3fdba4c8	1.7159662
26	0x3f6431b9	0.8913837
27	0x40529646	3.290422
28	0x4078776b	3.8822887
29	0x3feaf8eb	1.8357214
30	0x405cf317	3.452337
31	0x4084b9d6	4.147685
32	0x403a9772	2.9154935
33	0x401ff7af	2.4994924
34	0x40b7ac95	5.739817
35	0x3fa3bb92	1.2791617
36	0x40fd8431	7.9223866
37	0x00000004	6e-45
38	0x3edd827b	0.4326361
39	0x3fd89e8c	1.6923385
40	0x409d8dac	4.923544
41	0x410df5ea	8.872538
42	0x41013430	8.075241
43	0x401d79c9	2.4605582
44	0x4145aa34	12.3540535
45	0x40354e73	2.8329132
46	0x4113d892	9.240374
47	0x3f7200ec	0.94532657
48	0x3e417695	0.18892892
49	0x3ea3fb4b	0.3202766
50	0x40046055	2.0683796
51	0x40796b40	3.897171
52	0x411a911a	9.660425
53	0x4046a90e	3.1040683
54	0x3f0c79ce	0.5487336
55	0x409680b0	4.703209
56	0x3e6a8bca	0.22904888
57	0x3f9091da	1.129451
58	0x3fc3274e	1.524637
59	0x3dedcb34	0.116110235
60	0x3ef8e8cb	0.48615107
61	0x3ef826ff	0.48467252
62	0x40c0372c	6.006735
63	0x3f85e512	1.0460532
64	0x3f809801	1.0046388
65	0x41059f75	8.35143
66	0x3e50e272	0.20398882
67	0x4091784e	4.5459356
68	0x40106079	2.2558882
69	0x40c07ce2	6.0152445
70	0x4048fa13	3.1402633
71	0x403307a1	2.7973406
72	0x3fc4f021	1.5385782
73	0x3faed096	1.3657405
74	0x4091f715	4.5614114
75	0x3ff1c1b7	1.8887242
76	0x40582fc5	3.3779156
77	0x3f1d5fc5	0.6147426
78	0x401e9cd4	2.478322
79	0x3f56cc46	0.83905447
80	0x40bd87a4	5.9228077
81	0x41079527	8.473914
82	0x3cef3ef6	0.029204827
83	0x3fceaceb	1.614652
84	0x40b0a188	5.519718
85	0x3f17b195	0.59255344
86	0x414600f4	12.375233
87	0x3f3664ec	0.71247745
88	0x40b99d8d	5.8004823
89	0x40a2442a	5.070821
90	0x3eab9a55	0.33516183
91	0x4080d9f9	4.026608
92	0x401d4d4e	2.4578433
93	0x40bc4ce1	5.8843846
94	0x3cf90e51	0.030402334
95	0x402a8f8c	2.6650114
96	0x40931b61	4.597092
97	0x40373f88	2.8632526
98	0x414178a1	12.09195
99	0x4101c30f	8.110122
100	0x404bd596	3.1849113
101	0x3d8b981b	0.06816121
102	0x41713f74	15.0779915
103	0x3dccd8a4	0.100022584
104	0x3ddd2aa4	0.10799149
105	0x3f6896f7	0.90855354
106	0x40c53c5d	6.1636186
107	0x3fc2f44c	1.5230803
108	0x3ff7c849	1.9357997
109	0x40dff24d	6.9983277
110	0x3f8ea88d	1.1145188
111	0x4029ef56	2.655233
112	0x3e31cf4b	0.17364232
113	0x403546ed	2.832454
114	0x3e735bdc	0.2376551
115	0x406a2c4d	3.658954
116	0x3fc10e91	1.508257
117	0x40806752	4.0126123
118	0x3fe9650c	1.8233962
119	0x401a7881	2.413605
120	0x3f28ee20	0.6598835
121	0x3f080593	0.53133506
122	0x406989d1	3.6490366
123	0x3fb960b7	1.448264
124	0x3f4636a0	0.774271
125	0x3f05e043	0.5229532
126	0x3f0ce6e3	0.55039805
127	0x4031bcf0	2.7771568
128	0x4018852b	2.383128
129	0x40f78ada	7.7356997
130	0x3ea99eb7	0.33128902
131	0x40824a78	4.0715904
132	0x3f5614c4	0.83625436
133	0x00000004	6e-45
134	0x4042bd27	3.042795
135	0x4004bcb3	2.0740173
136	0x410d0abb	8.81512
137	0x410cee94	8.808247
138	0x4003c71b	2.0590274
139	0x3fc4dec7	1.5380486
140	0x4013c2ca	2.308764
141	0x30a08c04	1.1681327e-09
142	0x3f02eaa8	0.5113931
143	0x3f9dbfcc	1.2324157
144	0x3fb3aa10	1.4036274
145	0x3f544c80	0.8292923
146	0x3f9432c0	1.1577988
147	0x40ada285	5.426089
148	0x40e69a46	7.206332
149	0x4033e0f7	2.8106058
150	0x4129f7c2	10.622988
151	0x3f8573ac	1.0425925
152	0x41097500	8.591064
153	0x40c9da0c	6.307867
154	0x3f6abf15	0.9169782
155	0x40918380	4.5473022
156	0x3e553e6c	0.20824593
157	0x4059f57b	3.405608
158	0x3f997a3e	1.199043
159	0x40873b54	4.225992
160	0x3f1b2948	0.60609865
161	0x3e8e27df	0.27764794
162	0x3f028e8f	0.5099878
163	0x00000004	6e-45
164	0x40f79b21	7.7376866
165	0x40bde333	5.9339843
166	0x3f7adf0d	0.979966
167	0x40ce1e6a	6.4412127
168	0x40770272	3.8595243
169	0x3f442d1b	0.76631325
170	0x40a230c9	5.068455
171	0x414bf1ba	12.746515
172	0x3e32cf50	0.17461896
173	0x404091d6	3.0089011
174	0x3e042f46	0.12908658
175	0x3eaedda9	0.34153488
176	0x3feea222	1.8643229
177	0x37fd7321	3.0213561e-05
178	0x30b7434b	1.3334128e-09
179	0x4077477d	3.8637383
180	0x3fc6aac2	1.5520861
181	0x4061844e	3.5237002
182	0x3f5daed9	0.8659492
183	0x3e6b87d6	0.23001036
184	0x3fde898e	1.7385728
185	0x407a0512	3.9065595
186	0x3f01bf6e	0.50682724
187	0x3ff08d37	1.8793095
188	0x3f57c927	0.8429131
189	0x40d92f06	6.78699
190	0x3ec422d6	0.38307828
191	0x3fa6226e	1.2979257
192	0x40c493c4	6.143038
193	0x3ef29c45	0.4738485
194	0x3db47ac5	0.08812479
195	0x40044907	2.0669572
196	0x40b5e559	5.6842465
197	0x3f27b596	0.65511453
198	0x4092c4ac	4.586508
199	0x3f47625e	0.7788447
200	0x3fc938b3	1.5720428
201	0x41260b35	10.377736
202	0x3f73778c	0.9510429
203	0x3eae674a	0.34063178
204	0x3f6f70fb	0.9353177
205	0x3e9599f9	0.29219034
206	0x3fe7fb17	1.8123502
207	0x3f1e68f1	0.6187888
208	0x402b400b	2.6757839
209	0x3fd5d38a	1.6705182
210	0x4167cc11	14.487321
211	0x3fcb33cd	1.5875183
212	0x402373d0	2.5539436
213	0x40f9df92	7.8085413
214	0x41177888	9.466927
215	0x417537b0	15.326096
216	0x3ffd9d43	1.9813617
217	0x40b4dd23	5.651994
218	0x3e618176	0.22022042
219	0x3fa66bf9	1.3001701
220	0x00000004	6e-45
221	0x00000004	6e-45
222	0x3f0149d9	0.5050331
223	0x3ec3f99e	0.3827638
224	0x4024702a	2.569346
225	0x3f963cb6	1.1737278
226	0x40289831	2.634289
227	0x3fa1fde7	1.265561
228	0x3f209084	0.62720513
229	0x4128fce0	10.561737
230	0x40d3e06c	6.6211452
231	0x3f6a6e7b	0.9157483
232	0x4023b9a1	2.558205
233	0x3fa10d9b	1.2582277
234	0x3f8481d1	1.0352117
235	0x40c9d4ac	6.307211
236	0x3fa27121	1.2690774
237	0x4080333f	4.0062556
238	0x40d19e09	6.5505414
239	0x40345efd	2.8182976
240	0x3e00ea5d	0.12589402
241	0x40b02e52	5.5056543
242	0x4019453e	2.3948512
243	0x00000004	6e-45
244	0x13aba242	4.3326467e-27
245	0x3f502859	0.81311566
246	0x3dff79ba	0.124743894
247	0x4088766b	4.2644553
248	0x3fdb670b	1.7140821
249	0x408765b4	4.231165
250	0x407ab8e7	3.9175355
251	0x3ff82ad8	1.9388075
252	0x3e265ee4	0.16247135
253	0x3fd6968d	1.6764694
254	0x3daf6030	0.08563268
255	0x40e29597	7.0807605
