checkpoint_critic.pth (torch_old, 159804 bytes, 5 tensors)

fcs1.weight f4 [256, 24]
-0.09398761 -0.1453599 0.025311822 0.054841828 0.10224582 -0.84432745 -0.01792483 0.08586013
-0.08320573 0.011831589 0.00014895 0.1608738 0.25197774 -1.4654993 -0.025939697 0.11414772
0.006068632 0.05199322 -0.009771247 0.23592272 0.119349696 0.013625933 -0.0028575745 0.29387972
0.0802412 -0.16775526 -0.03954165 -0.026210837 0.47230837 0.0079976935 0.0037973323 -0.039017633
0.03276093 -0.07025236 -0.039076608 -0.043431256 0.65178114 -0.036339153 0.055225328 -0.06492572
0.07533092 -0.061879214 0.008064486 -0.23634373 1.0661458 -0.28745663 0.017535398 -0.14104393
0.07248573 -0.30699447 -0.010509595 0.22809434 0.24111831 0.0745828 0.02204169 0.2357877
0.12155729 -0.35866636 0.0058657206 0.2474674 -0.08333234 -0.10511266 0.032639965 0.14201032
0.25046888 -0.35672826 0.014422867 0.18681972 -0.3367116 -0.5028163 -0.07244411 0.11644467
0.31460193 -0.21686108 -0.118675984 -0.11055743 0.44212478 0.016830053 -0.087430716 -0.040093508
0.32415402 -0.2024245 0.03674025 0.096155316 0.08619232 -0.34373465 0.027164185 0.15449731
0.24582018 -0.2616969 -0.016801663 0.00017823868 -0.41129062 -0.6466676 0.069458656 0.02432169
0.1165415 -0.45271748 -0.04659462 -0.17777759 0.2234234 -0.96753526 0.03336096 -0.10757213
0.16875693 -0.35339645 0.082013935 0.1481859 0.12275651 -0.6706965 0.052627787 0.15276182
0.17422514 -0.327309 -0.031767637 -0.08250083 0.35068214 -0.9438196 -0.065106995 -0.07074126
0.06513622 -0.15047148 -0.043343678 -0.09369732 -0.15348306 -0.69118154 0.0052917567 -0.05432299
0.1303633 0.1487691 0.04632036 0.16117677 -0.16711238 -0.9368951 -0.002471043 0.109684825
0.20766504 0.31750885 -0.12351547 0.21916306 -0.15343942 -1.0247262 -0.05962282 0.17071205
0.12173149 -0.30528682 -0.04290467 0.00097618887 -0.087267734 -0.15421683 0.008418796 -0.010279932
0.18373016 -0.006514698 -0.06630341 0.12267882 0.13689288 0.16304922 -0.016849598 0.021935428
0.29950425 0.29191577 0.027101252 -0.12968667 0.8106209 -0.16637202 -0.008564401 -0.18566382
0.26146153 -0.42791125 0.068474695 -0.1731249 0.21100506 -0.31818828 0.07643828 -0.11092964
0.7697643 -0.57836485 -0.04642248 -0.24295455 0.09606955 -0.41560015 -0.05387024 -0.27990988
0.6384395 -0.6523686 -0.07559664 -0.3558967 0.018201867 -0.36326468 -0.122024015 -0.26671743
0.3219636 -0.009393519 0.026970703 0.12358655 -0.87229186 -0.8609392 -0.0049892482 0.11981776
0.2160045 -0.047865987 -0.030592801 0.029484076 -0.15141071 -0.044424128 0.060564023 -0.03636905
0.12405002 -0.36492935 -0.103504285 0.035338223 0.5775459 0.35152814 -0.026302755 0.036905114
1.0891088 0.7012263 -0.049530968 -0.12200395 -0.28196052 -0.9930353 -0.017410405 -0.012795228
0.12384322 -0.1986437 -0.023590615 -0.21244758 0.35526147 -0.028715488 -0.020576276 -0.15199602
0.008067812 -0.6657446 -0.06763967 0.0032004782 0.36508796 0.120986186 -0.0058233864 -0.0504061
0.031762388 0.11350678 -0.07433188 -0.14691046 0.24949113 -0.2727274 -0.07760699 -0.21330562
0.07985891 0.16979487 -0.07244034 -0.009253086 0.1565846 -0.12559369 -0.05356304 -0.05217949
00000000: 937c c0bd 3ad9 14be bd5a cf3c d3a1 603d
00000010: 4266 d13d d825 58bf 18d7 92bc 70d7 af3d
00000020: c467 aabd 48d9 413c 762f 1c39 1abc 243e
00000030: 3a03 813e 7b95 bbbf 7d7f d4bc 48c6 e93d
00000040: 60db c63b d8f6 543d 9517 20bc ba95 713e
00000050: 9d6d f43d 4e3f 5f3c 2546 3bbb 6777 963e
00000060: 8055 a43d 09c8 2bbe 6df6 21bd 1cb8 d6bc
00000070: 67d2 f13e c208 033c aadc 783b f4d0 1fbd
00000080: 5330 063d 78e0 8fbd cb0e 20bd f9e4 31bd
00000090: 21db 263f 5dd8 14bd f433 623d c7f7 84bd
000000a0: 1947 9a3d 0f75 7dbd e820 043c 1704 72be
000000b0: 7777 883f 842d 93be 65a6 8f3c d26d 10be
000000c0: 6673 943d 612e 9dbe 7030 2cbc 9091 693e
000000d0: b8e7 763e debe 983d c690 b43c 5572 713e
000000e0: 07f3 f83d 1ea3 b7be 3b35 c03b 1868 7d3e
000000f0: 25aa aabd 4e45 d7bd 7cb1 053d 276b 113e
00000100: 753d 803e 16a5 b6be e44d 6c3c ab4d 3f3e
00000110: 7665 acbe 92b8 00bf 945d 94bd 8b7a ee3d
00000120: 8113 a13e d510 5ebe 650c f3bd ef6b e2bd
00000130: 2e5e e23e 2edf 893c e00e b3bd 1739 24bd
00000140: 84f7 a53e 5e48 4fbe f27c 163d 14ed c43d
00000150: 9985 b03d fdfd afbe 6d87 de3c 8b34 1e3e
00000160: 49b8 7b3e 23fd 85be a4a3 89bc 95e5 3a39
00000170: af94 d2be 028c 25bf 5740 8e3d 483e c73c
00000180: 4fad ee3d 96ca e7be 00da 3ebd 540b 36be
00000190: 1bc9 643e 64b0 77bf 81a5 083d c74e dcbd
000001a0: 9ece 2c3e 61f0 b4be ecf6 a73d 0bbe 173e
000001b0: c467 fb3d c4b2 2bbf 3c90 573d 986d 1c3e
000001c0: 1368 323e 0c95 a7be c81e 02bd 32f6 a8bd
000001d0: 9c8c b33e 299e 71bf d156 85bd cbe0 90bd
000001e0: 2366 853d 3215 1abe 2489 31bd 61e4 bfbd
000001f0: aa2a 1dbe 46f1 30bf 7966 ad3b c981 5ebd
00000200: f57d 053e ed56 183e 6bba 3d3d 860b 253e
00000210: 821f 2bbe 5bd8 6fbf 39f1 21bb 70a2 e03d
00000220: 25a6 543e 8590 a23e aef5 fcbd 486c 603e
00000230: 391f 1dbe 3a2a 83bf 0f37 74bd 24cf 2e3e
00000240: 5c4e f93d 8e4e 9cbe cfbc 2fbd ede6 7f3a
00000250: 6db9 b2bd 04eb 1dbe fdee 093c 296d 28bc
00000260: c223 3c3e 3f79 d5bb 15ca 87bd 083f fb3d
00000270: a62d 0c3e 60f6 263e 2b08 8abc edb1 b33c
00000280: 9f58 993e fc75 953e 7203 de3c 95cc 04be
00000290: da84 4f3f 6d5d 2abe b451 0cbc a81e 3ebe
000002a0: 49de 853e 2f17 dbbe 763c 8c3d a747 31be
000002b0: b611 583e 93e9 a2be ac8b 9c3d 142f e3bd
000002c0: 460f 453f b80f 14bf 8025 3ebd 14c9 78be
000002d0: 1dc0 c43d 8bc9 d4be 0aa7 5cbd 5950 8fbe
000002e0: c570 233f a101 27bf 69d2 9abd 1838 b6be
000002f0: 151c 953c d4fd b9be bae7 f9bd 308f 88be
00000300: 6ad8 a43e 46e7 19bc aaf1 dc3c f21a fd3d
00000310: 854e 5fbf 8366 5cbf d97c a3bb 0463 f53d
00000320: 4930 5d3e 200f 44bd c19d fabc 9788 f13c
00000330: 690b 1bbe 13f6 35bd fb11 783d b7f7 14bd
00000340: f00d fe3d 05d8 babe 0efa d3bd d0be 103d
00000350: 0cda 133f 7ffb b33e e078 d7bc d129 173d
00000360: eb67 8b3f 9183 333f fce0 4abd 35dd f9bd
00000370: 215d 90be 9037 7ebf 44a0 8ebc 13a3 51bc
00000380: 84a1 fd3d 4169 4bbe 1b41 c1bc dc8b 59be
00000390: d5e4 b53e be3c ebbc 948f a8bc d8a4 1bbe
000003a0: db2e 043c 3d6e 2abf ab86 8abd 1dbf 513b
000003b0: cfec ba3e 9bc7 f73d 1bd2 bebb a076 4ebd
000003c0: 4719 023d 3e76 e83d 503b 98bd b26f 16be
000003d0: 9a7a 7f3e eda2 8bbe 6af0 9ebd ca6c 5abe
000003e0: 118d a33d b5de 2d3e 9a5b 94bd 419a 17bc
000003f0: b757 203e a29b 00be eb64 5bbd 29ba 55bd

fcs1.bias f4 [256]
0.013480918 0.24239346 -0.35339373 0.15386385 -0.44562212 -0.03154583 -0.420159 -0.24370572
-0.07354979 0.010429885 -0.030413233 -0.77292556 -0.34876776 -0.37241244 -0.21641724 -0.38856503
-0.32567844 -0.54643434 -0.031507656 -0.393695 -0.6202071 -0.19787912 -0.13124682 -0.06318221
-0.097416595 -0.33228704 -0.4921134 -0.0905802 -0.03022778 -0.05048409 -0.22009806 -0.30701083
-0.42053157 -0.2458818 -0.436113 -0.42219058 -0.7605155 -0.23831853 -0.25081405 -0.51109654
-0.37155914 0.1261414 0.08170246 -0.17932297 -0.5712338 -0.12174734 -0.039174937 -0.4378108
-0.37619206 -0.4433267 -0.4787084 -0.2291956 -0.018103687 -0.41623595 -0.47872052 0.13621977
-0.18500145 0.12460631 -0.1984564 -0.30867788 -0.17205802 0.35915527 -0.27329463 -0.21538086
-0.31163993 -0.26578495 0.23738179 -0.23756328 -0.52048135 -0.07676886 0.2059468 -0.093133435
-0.5492241 -0.15879941 -0.3232555 0.55317783 -0.70402724 -0.27934164 0.24974237 -0.31824017
-0.5587094 -0.23481241 -0.37561578 -0.5813882 -0.2617285 -0.60086393 -0.0075874035 -0.3418604
-0.58794594 0.107987076 -0.12862664 -0.32121003 -0.72831863 0.14072126 0.04890687 0.33262303
0.005257991 -0.32982984 -0.2904289 -0.12141712 0.051665142 0.0678615 -0.5884037 0.051231556
-0.3407399 -0.12689933 -0.20841113 -0.29943419 -0.49708214 -0.41493422 -0.118954346 -0.10853492
-0.69194317 -0.7930154 0.14208238 -0.5932891 -0.022561163 -0.0372426 0.055013582 0.18344639
-0.037371457 0.07437023 -0.22440444 -0.11635995 -0.1989106 -0.32464826 -0.09767797 -0.27640522
-0.36890963 0.059177432 -0.14325316 -0.45859158 -0.13584654 -0.1625308 -0.43160596 -0.22895531
-0.15083152 -0.37053454 -0.02865125 -0.577135 -0.24987577 -0.12973785 -0.26497197 -0.043547567
0.014280641 0.14951013 -0.49721012 -0.48939177 -0.107218534 0.15704496 0.09936611 -0.036647607
0.013804576 -0.048378848 -0.35796538 -0.13830192 -0.3184701 0.1647404 -0.5735509 -0.13786493
0.0043395953 -0.43913108 -0.44620797 -0.018675862 -0.3797712 -0.12689741 -0.19760309 -0.4711607
-0.26698247 -0.3875623 -0.3786473 -0.023890793 -0.20761104 -0.51661086 0.06546641 -0.24502711
0.08740156 -0.47948354 -0.60856754 -0.055035748 0.030843448 -0.11783497 0.0872721 -0.8989115
-0.1067178 -0.13774058 -0.17571498 -0.31368947 0.07602942 -0.41926745 -0.066375755 0.06686138
-0.26822376 -0.23479211 -0.09290527 -0.41261557 -0.23670788 -0.38087782 -0.5188349 0.1309982
-0.32751292 -0.435938 -0.3916955 -0.22159329 -0.084833704 0.003611267 0.18104655 -0.14528613
-0.10428928 -0.10182089 0.097678214 0.15600057 -0.10364653 -0.19492468 -0.22418292 -0.12090722
-0.7591865 -0.35368523 -0.6707014 -0.14959787 -0.5166031 0.27214763 -0.2291116 -0.44906375
-0.35797256 -0.16114898 -0.07948356 -0.3178843 -0.37678885 -0.36993113 -0.26712015 -0.17653224
-0.35560092 -0.48732927 0.0009620894 -0.31051776 -0.42468837 -0.6167711 -0.19173017 -0.16016637
-0.43210882 -0.07240968 -0.3168545 -0.33210284 -0.3119521 -0.3140934 -0.602884 -0.36641133
-0.3528704 -0.21784446 -0.31172436 -0.061326392 -0.044495936 0.09464697 -0.1582243 -0.11855093
00000000: 11df 5c3c fe35 783e 06f0 b4be 7c8e 1d3e
00000010: 9528 e4be 3336 01bd 151f d7be fe8d 79be
00000020: 46a1 96bd 1ce2 2a3c 2c25 f9bc 73de 45bf
00000030: b091 b2be d8ac bebe 7b9c 5dbe fff1 c6be
00000040: 53bf a6be 1fe3 0bbf 2c0e 01bd 6492 c9be
00000050: e4c5 1ebf d3a0 4abe 9165 06be ad65 81bd
00000060: 5a82 c7bd 8721 aabe 4af6 fbbe 1d82 b9bd
00000070: 40a0 f7bc 68c8 4ebd 6361 61be 8630 9dbe
00000080: ea4f d7be 70c8 7bbe 344a dfbe 5d29 d8be
00000090: 25b1 42bf c609 74be b36a 80be 39d7 02bf
000000a0: 003d bebe 362b 013e 9f53 a73d 71a0 37be
000000b0: 613c 12bf ab56 f9bd e675 20bd bd28 e0be
000000c0: 3f9c c0be b8fb e2be 4419 f5be 40b2 6abe
000000d0: 2f4e 94bc e11c d5be db1a f5be 327d 0b3e
000000e0: 0571 3dbe 9831 ff3d 2838 4bbe 070b 9ebe
000000f0: fa2f 30be 33e3 b73e 46ed 8bbe cd8c 5cbe
00000100: 458f 9fbe f714 88be 3614 733e ca43 73be
00000110: 443e 05bf fe38 9dbd b8e3 523e bebc bebd
00000120: f399 0cbf 509c 22be bf81 a5be 109d 0d3f
00000130: 213b 34bf de05 8fbe 77bc 7f3e 60f0 a2be
00000140: 9407 0fbf aa72 70be b650 c0be dbd5 14bf
00000150: 4701 86be 38d2 19bf c19f f8bb 5408 afbe
00000160: a083 16bf 5428 dd3d b4b6 03be a475 a4be
00000170: 1773 3abf 3c19 103e 9252 483d 914d aa3e
00000180: 3a4b ac3b 75df a8be 19b3 94be 8aa9 f8bd
00000190: d49e 533d f8fa 8a3d a0a1 16bf 2ed8 513d
000001a0: 7675 aebe e6f1 01be ba69 55be 704f 99be
000001b0: 8d81 febe 4272 d4be 569e f3bd 8e47 debd
000001c0: 3023 31bf 0f03 4bbf 0b7e 113e cbe1 17bf
000001d0: 30d2 b8bc b28b 18bd ec55 613d 5fd9 3b3e
000001e0: d012 19bd 6b4f 983d 47ca 65be 204e eebd
000001f0: 38af 4bbe 4c38 a6be 630b c8bd fc84 8dbe
00000200: b9e1 bcbe 0964 723d f5b0 12be 84cc eabe
00000210: 5b1b 0bbe 796e 26be 75fb dcbe 4373 6abe
00000220: 9473 1abe b4b6 bdbe 07b6 eabc 1fbf 13bf
00000230: 6fdf 7fbe 00da 04be 68aa 87be ef5e 32bd
00000240: 5af9 693c 2f19 193e 5392 febe 8f91 fabe
00000250: 6495 dbbd 65d0 203e 7680 cb3d cd1b 16bd
00000260: 972c 623c e628 46bd 3d47 b7be 059f 0dbe
00000270: 830e a3be b5b1 283e 3bd4 12bf 772c 0dbe
00000280: 2a33 8e3b cad5 e0be 5f75 e4be 1ffe 98bc
00000290: 5f71 c2be 65f1 01be 7758 4abe fa3b f1be
000002a0: edb1 88be 916e c6be 0fde c1be a0b6 c3bc
000002b0: fd97 54be 9c40 04bf 4113 863d 63e8 7abe
000002c0: 97ff b23d de7e f5be 15cb 1bbf 2a6d 61bd
000002d0: 66ab fc3c 7653 f1bd b7bb b23d 101f 66bf
000002e0: dd8e dabd de0b 0dbe a1ee 33be e89b a0be
000002f0: 50b5 9b3d 39aa d6be 03f0 87bd 9fee 883d
00000300: a054 89be 586d 70be 1e45 bebd 5942 d3be
00000310: 8d63 72be 6b02 c3be 5dd2 04bf 6424 063e
00000320: c6af a7be 4433 dfbe 508c c8be 5ae9 62be
00000330: 4bbd adbd 02ab 6c3b 4464 393e e3c5 14be
00000340: 9e95 d5bd 7987 d0bd 840b c83d 9dbe 1f3e
00000350: a244 d4bd 569a 47be 3590 65be 349e f7bd
00000360: 0c5a 42bf 3b16 b5be 16b3 2bbf 2f30 19be
00000370: 1a40 04bf ef56 8b3e 3b9c 6abe afeb e5be
00000380: 2e48 b7be 3d04 25be 47c8 a2bd bbc1 a2be
00000390: 78ea c0be 9d67 bdbe f9c3 88be dec4 34be
000003a0: 5311 b6be 3983 f9be ba34 7c3a 2ffc 9ebe
000003b0: c170 d9be b6e4 1dbf ea54 44be a702 24be
000003c0: 5e3d ddbe 874b 94bd c13a a2be 6209 aabe
000003d0: 30b8 9fbe dad0 a0be 9b56 1abf 449a bbbe
000003e0: 6eab b4be 9e12 5fbe 569a 9fbe 6231 7bbd
000003f0: 5f41 36bd 45d6 c13d 8d05 22be d4ca f2bd

fc2.weight f4 [128, 258]
-0.14563411 -0.49620473 -0.078932695 -0.020943834 0.01171293 -0.5089664 0.007908867 0.03747427
-0.066301286 0.07904925 -0.0772696 0.001329547 -0.2032694 -0.48012 -0.023796793 -0.13977407
-0.010656164 -0.038569506 -0.0989709 -0.24188535 -0.012363449 -0.32489493 -0.034209467 -0.15539053
0.08980758 -0.08140646 -0.14995317 -0.04791521 0.34793684 0.037036672 -0.15210365 -0.33489305
-0.041360162 -0.25610057 -0.14946309 -0.056016535 -0.1431838 0.06747799 0.07475154 -0.62112933
-0.2077128 -0.23130134 -0.07057042 -0.3381628 -0.23854291 -0.11155629 -0.23668556 -0.07077492
0.21615925 -0.1488157 -0.18370679 0.15886168 -0.24711241 -0.15485102 -0.23805971 0.027077021
0.17762326 -0.052954253 -0.28233063 0.012697462 -0.22180851 -0.06170135 0.04238765 -0.023949426
-0.06360059 -0.13104168 -0.8234027 -0.14087074 -0.48107788 0.025275972 -0.7633188 -0.062377363
-0.014423836 -0.12368584 -0.020729044 -0.2760769 0.017555319 -0.18372203 0.12058452 -0.37277213
-0.19793832 -0.044359356 -0.03355319 0.017150255 0.08429677 0.11007066 -0.059905164 0.086374
0.024984403 -0.06705226 0.022259438 0.37036934 -0.4279642 -0.07391836 -0.6102505 0.032811914
-0.0727332 0.013252386 -0.24395695 -0.2493999 0.06623345 -0.1631917 -0.050034527 -0.2177952
0.19371341 0.18251978 -0.31283414 -0.07993967 -0.0063002403 0.0107187955 -0.20020245 0.16994938
-0.11292434 -0.34882006 -0.35745198 -0.071497984 0.10400767 -0.072236516 -0.026127374 0.20923287
-0.106211916 -0.029485969 -0.17206687 -0.30161473 -0.010749308 -0.020942636 -0.3552568 -0.06717676
-0.30597043 -0.21883371 0.0032723504 -0.15204956 -0.031525083 -0.20518407 -0.2147214 -0.25847998
0.02449284 -0.04617703 0.056702737 -0.059519548 0.002279496 -0.058130827 -0.121125534 -0.46262315
-0.030296335 -0.05190157 0.009989557 0.12979634 -0.051939014 -0.823822 -0.67789245 -0.036317725
-0.07403205 -0.10743669 -0.22434536 -0.19091257 -0.065352656 -0.030171005 -0.48277667 0.054651882
-0.09141195 0.089310616 0.08812685 0.20311943 -0.22085485 0.027875334 -0.046751335 0.08631193
-0.09073773 -0.013933414 0.18731934 -0.3449064 0.018709164 -0.08140679 -0.17721146 -0.23492433
0.067674436 0.086430766 -0.10468549 0.028264767 0.081486665 -0.05497004 -0.036632076 -0.027163481
-0.041213635 0.08754067 -0.024498587 -0.15018976 -0.06794497 -0.25732857 -0.1219457 -0.22542076
0.01982021 -0.10184186 -0.022679288 0.016972112 0.0888647 -0.025236152 -0.12615773 -0.21824077
0.12917967 -0.26938885 0.022736404 -0.0596271 0.20247522 0.15276393 -0.2148948 0.041174762
-0.14187428 -0.033714574 0.18694739 -0.5514421 -0.24829495 -0.18291432 -0.3234067 -0.0880455
-0.21235964 0.26634124 -0.06718667 0.15963016 0.46907312 -0.4887492 0.051177036 0.09214251
0.11136907 -0.07021063 0.35489005 0.013605483 -0.44307938 -0.23449339 -0.05606554 0.089387074
-0.53881115 0.32876846 -0.35046834 -0.105169445 -0.60494745 0.040980343 -0.053825222 0.25520802
-0.0067724804 -0.34292105 -0.12419859 0.012529569 -0.25159356 0.15362109 0.035860267 -0.15657873
-0.07423638 0.1555752 -0.77746844 0.087949306 -0.17187396 -0.27264705 -0.54004836 0.16541861
00000000: 1c21 15be 8c0e febe 77a7 a1bd 6792 abbc
00000010: 97e7 3f3c 9f4b 02bf 3194 013c 9f7e 193d
00000020: f8c8 87bd 93e4 a13d 863f 9ebd 3244 ae3a
00000030: db25 50be 4ad2 f5be 7ef1 c2bc ef20 0fbe
00000040: 3197 2ebc 0ffb 1dbd 41b1 cabd cbb0 77be
00000050: 1090 4abc a158 a6be 3a1f 0cbd b21e 1fbe
00000060: 09ed b73d 6eb8 a6bd 538d 19be bd42 44bd
00000070: c724 b23e c4b3 173d 0fc1 1bbe 1a77 abbe
00000080: 4669 29bd 9d1f 83be da0c 19be 9871 65bd
00000090: c69e 12be e731 8a3d 5617 993d 5502 1fbf
000000a0: aab2 54be 42da 6cbe 3987 90bd ad23 adbe
000000b0: 9844 74be a077 e4bd b35d 72be 71f2 90bd
000000c0: da58 5d3e 2563 18be a21d 3cbe a3ac 223e
000000d0: 090b 7dbe 4491 1ebe edc5 73be a1d0 dd3c
000000e0: dfe2 353e 8fe6 58bd a48d 90be 0409 503c
000000f0: c521 63be 8eba 7cbd ac9e 2d3d 9631 c4bc
00000100: 0741 82bd ca2f 06be 85ca 52bf 6b40 10be
00000110: d74f f6be 8e0f cf3c dc68 43bf 687f 7fbd
00000120: f451 6cbc 004f fdbd f5cf a9bc f459 8dbe
00000130: 2cd0 8f3c a121 3cbe 04f5 f63d fddb bebe
00000140: 58b0 4abe 28b2 35bd 126f 09bd b17e 8c3c
00000150: c9a3 ac3d ba6c e13d 1e5f 75bd dae4 b03d
00000160: 17ac cc3c b252 89bd 6d59 b63c 0da1 bd3e
00000170: 201e dbbe 8262 97bd 6039 1cbf c965 063d
00000180: 25f5 94bd 8920 593c dacf 79be b062 7fbe
00000190: 67a5 873d ba1b 27be 01f1 4cbd b405 5fbe
000001a0: cf5c 463e 77e6 3a3e cc2b a0be 69b7 a3bd
000001b0: 3f72 cebb e39d 2f3c df01 4dbe 3607 2e3e
000001c0: e044 e7bd 8b98 b2be f203 b7be 896d 92bd
000001d0: f901 d53d bdf0 93bd 1309 d6bc 2441 563e
000001e0: a285 d9bd 8f8c f1bc 4c32 30be 3f6d 9abe
000001f0: de1d 30bc e48f abbc 38e4 b5be f893 89bd
00000200: 28a8 9cbe f215 60be ee74 563b e1b2 1bbe
00000210: 7220 01bd c61b 52be eddf 5bbe 7d57 84be
00000220: 35a5 c83c 2024 3dbd 2141 683d c5ca 73bd
00000230: 9963 153b 971a 6ebd aa10 f8bd f1dc ecbe
00000240: 0530 f8bc be96 54bd 3dab 233c 55e9 043e
00000250: 01be 54bd 00e6 52bf 5c8a 2dbf e5c1 14bd
00000260: 1e9e 97bd c407 dcbd caba 65be 967e 43be
00000270: 9dd7 85bd 2f29 f7bc 812e f7be a7da 5f3d
00000280: 3036 bbbd 7ce8 b63d da7b b43d 8afe 4f3e
00000290: c627 62be d05a e43c 547e 3fbd 4fc4 b03d
000002a0: b4d4 b9bd f948 64bc a4d0 3f3e 9297 b0be
000002b0: f643 993c 9ab8 a6bd ec76 35be 0190 70be
000002c0: e598 8a3d 9d02 b13d 5965 d6bd 838b e73c
000002d0: 7be2 a63d 4428 61bd 840b 16bd f385 debc
000002e0: a1cf 28bd 8648 b33d 43b1 c8bc 58cb 19be
000002f0: bc26 8bbd 92c0 83be abbe f9bd b3d4 66be
00000300: fe5d a23c 7792 d0bd eac9 b9bc 1909 8b3c
00000310: b2fe b53d 0cbc cebc 7e2f 01be 827a 5fbe
00000320: ad47 043e 56ed 89be b241 ba3c 8c3b 74bd
00000330: aa55 4f3e 266e 1c3e 620d 5cbe dea6 283d
00000340: 7e47 11be 4b18 0abd 236f 3f3e 4f2b 0dbf
00000350: 0841 7ebe e44d 3bbe 9095 a5be 3351 b4bd
00000360: ce74 59be e15d 883e 2a99 89bd 1776 233e
00000370: 5a2a f03e 563d fabe 039f 513d 36b5 bc3d
00000380: 7815 e43d 97ca 8fbd 26b4 b53e 88e9 5e3c
00000390: 4ddb e2be 091f 70be fba4 65bd 9210 b73d
000003a0: 87ef 09bf 5754 a83e 9670 b3be 1463 d7bd
000003b0: d6dd 1abf 01db 273d d677 5cbd a0aa 823e
000003c0: afeb ddbb 5993 afbe d55b febd d248 4d3c
000003d0: dfd0 80be d94e 1d3e 37e2 123d 2d56 20be
000003e0: 3e09 98bd 1b4f 1f3e 2c08 47bf c41e b43d
000003f0: baff 2fbe 6598 8bbe 9c40 0abf 7f63 293e

fc2.bias f4 [128]
0.17656566 0.10698085 -0.013185632 0.03657357 -0.10853213 -0.062447987 -0.053445566 -0.08295267
-0.04876162 -0.11397203 -0.030640194 -0.058536183 -0.1385939 -0.015130647 -0.1857418 -0.10119322
-0.08821629 -0.0890762 0.091552444 -0.063593365 -0.04534261 -0.13626349 0.17587633 -0.1656392
-0.0616278 -0.07291275 -0.28415996 0.3019263 0.013513421 -0.12621875 -0.11990784 -0.04331735
-0.042339552 0.1794039 -0.11851812 0.3475424 -0.52826136 -0.03186871 -0.051453926 -0.11517937
-0.40460825 0.023098387 -0.08361731 -0.05996588 -0.01558333 -0.035204463 -0.32115903 -0.10454558
0.010628023 0.12106699 -0.13345394 0.017052803 -0.1893897 -0.03892381 -0.048100527 -0.09593196
-0.13516082 0.0031036113 -0.22166403 0.03938109 -0.15259524 -0.049293958 -0.012123989 0.43917182
-0.0912017 0.02298936 -0.39014593 0.25104102 -0.111273825 0.06344958 -0.08111159 0.1798232
-0.10932045 0.006381368 -0.035077438 0.058943473 -0.001772215 -0.038938165 -0.07591741 -0.041856136
-0.056837443 -0.2182148 -0.1823782 -0.28152287 0.048888575 -0.06160425 -0.12887523 -0.04255828
-0.19838145 -0.02057286 -0.14786266 -0.020273643 0.093746535 0.08983119 -0.0036441858 -0.09502829
-0.25848746 -0.023607828 -0.07652999 -0.0050254557 -0.11731991 -0.01574256 -0.120888375 -0.05729178
-0.051876854 0.13427784 -0.03522783 -0.0932186 -0.023083 -0.14367215 0.013343762 0.19460014
0.15783276 -0.08757262 0.010622848 -0.10187791 -0.040625487 -0.038046528 -0.120821446 0.1555857
-0.1335073 -0.08117452 -0.074543044 -0.017036015 0.00713282 0.011212164 0.5046234 -0.042785566
00000000: a1cd 343e c718 db3d 8d08 58bc 2bce 153d
00000010: 1846 debd 76c9 7fbd bde9 5abd 17e3 a9bd
00000020: 44ba 47bd 2b6a e9bd 2501 fbbc a3c3 6fbd
00000030: 8feb 0dbe 89e6 77bc 1933 3ebe 643e cfbd
00000040: beaa b4bd 956d b6bd d97f bb3d 3d3d 82bd
00000050: 2cb9 39bd a888 0bbe ed18 343e 539d 29be
00000060: 6f6d 7cbd 4853 95bd 6a7d 91be 1696 9a3e
00000070: 6567 5d3c 7d3f 01be 3e92 f5bd 896d 31bd
00000080: 3d6c 2dbd a8b5 373e a1b9 f2bd 14f1 b13e
00000090: 233c 07bf c488 02bd 5ac1 52bd 29e3 ebbd
000000a0: d028 cfbe d438 bd3c 8d3f abbd c89e 75bd
000000b0: 3951 7fbc 8e32 10bd f56e a4be fe1b d6bd
000000c0: 2921 2e3c f8f1 f73d 26a8 08be 52b2 8b3c
000000d0: 60ef 41be 936e 1fbd 0f05 45bd fa77 c4bd
000000e0: 9967 0abe f565 4b3b e5fb 62be 114e 213d
000000f0: ed41 1cbe 76e8 49bd b2a3 46bc 21db e03e
00000100: f5c7 babd 2f54 bc3c 35c1 c7be 7388 803e
00000110: 88e3 e3bd daf1 813d d51d a6bd 9323 383e
00000120: 66e3 dfbd cb1a d13b 5cad 0fbd b66e 713d
00000130: ab49 e8ba a07d 1fbd 967a 9bbd 5771 2bbd
00000140: 61ce 68bd b373 5fbe 5ac1 3abe c423 90be
00000150: 633f 483d bd54 7cbd def7 03be 9751 2ebd
00000160: 8224 4bbe 6a88 a8bc 4f69 17be e914 a6bc
00000170: 2ffe bf3d 6af9 b73d 4bd3 6ebb 319e c2bd
00000180: 7858 84be 3465 c1bc c1bb 9cbd 94ac a4bb
00000190: 6c45 f0bd 8bf6 80bc 5394 f7bd c9aa 6abd
000001a0: d37c 54bd 2180 093e 0f4b 10bd 65e9 bebd
000001b0: 8f18 bdbc cb1e 13be cb9f 5a3c 4245 473e
000001c0: e99e 213e 4659 b3bd 740b 2e3c 5ea5 d0bd
000001d0: e966 26bd add6 1bbd 3c71 f7bd dc51 1f3e
000001e0: 23b6 08be d43e a6bd 06aa 98bd 1d8f 8bbc
000001f0: 6eba e93b 39b3 373c 002f 013f eb3f 2fbd

fc3.weight f4 [1, 128]
0.016530806 0.016591098 -0.011401319 -0.11068514 0.020634273 -0.026580976 -0.0219343 -0.014127571
-0.0043762233 0.0051280167 -0.0047711474 -0.010354529 -0.018741686 0.021045914 0.013577006 -0.00070306665
0.007806433 -0.008143332 0.049851622 -0.00456249 0.0030231501 -0.008943697 0.012156302 0.03290653
0.019324137 -0.00053916936 -0.023164043 -0.053756267 0.009555583 -0.056433614 0.0109921135 -0.009255486
-0.03076476 0.015615081 -0.01766618 -0.027294561 -0.027437426 -0.018805068 -0.0018090063 -0.018276757
0.04625016 -0.014223699 0.005295967 -0.005660479 -0.026687764 0.014760333 0.008314244 -0.006060221
0.00033093276 -0.021928903 -0.021239493 -0.019142848 -0.03778413 -0.014221094 -0.011874318 0.015044182
0.024597734 -0.0028052807 0.100390665 -0.024240369 -0.008074372 0.00672564 0.015871806 0.028906407
-0.016216079 -0.002469785 -0.12570216 -0.019162998 0.006769458 -0.062812634 0.011859641 -0.02490397
-0.01953921 -0.015516795 0.0143714165 -0.022836085 -0.024741547 0.011689089 -0.013094423 0.004874074
-0.020389322 0.023475196 -0.048301805 -0.01410319 0.02617428 -0.009313033 0.008999458 0.033460863
-0.031030249 -0.035475805 -0.00035691704 0.008366196 0.021129785 -0.09531904 0.001814717 -0.0047845864
-0.08147802 -0.0028726114 0.02078724 -0.0010326987 -0.017641023 0.0036264926 0.022345625 -0.006935747
0.011995819 -0.1245532 -0.010151947 -0.005968914 -0.0044325013 0.018831434 -0.035235684 0.025663787
-0.0361588 0.0120279845 -0.05892993 -0.013400693 -0.021074072 -0.025524033 -0.018515017 0.0059044305
0.007423475 -0.007142007 0.007401887 0.017948288 -0.009502709 -0.004680994 0.015096656 -0.02548741
00000000: 9d6b 873c 0eea 873c 99cc 3abc e4ae e2bd
00000010: 3509 a93c 59c0 d9bc 90af b3bc 5477 67bc
00000020: 6c66 8fbb ec08 a83b 4957 9cbb 0ba6 29bc
00000030: 2a88 99bc 7b68 ac3c 1772 5e3c 014e 38ba
00000040: 1bcd ff3b 9c6b 05bc 3731 4c3d f180 95bb
00000050: 0b20 463b 9688 12bc 3a2b 473c ffc8 063d
00000060: a74d 9e3c 0b57 0dba 85c2 bdbc 882f 5cbd
00000070: 058f 1c3c ef26 67bd 4418 343c 52a4 17bc
00000080: 6106 fcbc 66d6 7f3c aab8 90bc d898 dfbc
00000090: 74c4 e0bc 160d 9abc 2e1c edba 23b9 95bc
000000a0: cf70 3d3d 850a 69bc cb89 ad3b 8a7b b9bb
000000b0: 4ca0 dabc 53d5 713c 7838 083c d294 c6bb
000000c0: 0b81 ad39 3ea4 b3bc 72fe adbc 76d1 9cbc
000000d0: 88c3 1abd 97ff 68bc 808c 42bc df7b 763c
000000e0: 3081 c93c cdd8 37bb 9f99 cd3d bd93 c6bc
000000f0: 5f4a 04bc c262 dc3b 9705 823c 21cd ec3c
00000100: 95d7 84bc 1edc 21bb 11b8 00be b8fb 9cbc
00000110: 54d2 dd3b e9a3 80bd f14e 423c 6903 ccbc
00000120: b110 a0bc 283a 7ebc 1776 6b3c be12 bbbc
00000130: c9ae cabc 9883 3f3c fe89 56bc b2b6 9f3b
00000140: 8207 a7bc 0e4f c03c 1dd8 45bd 1111 67bc
00000150: 726b d63c b195 18bc 7672 133c 420e 093d
00000160: 2633 febc 144f 11bd 9820 bbb9 5f12 093c
00000170: 5f18 ad3c a136 c3bd ccdb ed3a 05c8 9cbb
00000180: f3dd a6bd 6c42 3cbb 004a aa3c 9e5b 87ba
00000190: e883 90bc 73aa 6d3b 2c0e b73c 4345 e3bb
000001a0: 1d8a 443c c015 ffbd 5a54 26bc e196 c3bb
000001b0: 843e 91bb 6144 9a3c 4b53 10bd dd3c d23c
000001c0: 401b 14bd 0611 453c 8360 71bd 958e 5bbc
000001d0: 88a3 acbc c717 d1bc ceac 97bc f479 c13b
000001e0: 9f40 f33b 7f07 eabb 878b f23b 4a08 933c
000001f0: 40b1 1bbc 0663 99bb f757 773c f9ca d0bc
