checkpoint_critic.pth (torch_old, 159804 bytes, 5 tensors)

fcs1.weight f4 [256, 24]
000000 6a 1a bb bd c5 f3 80 bd a8 0a a6 3c 8d f5 af 3c
       -0.091358975 -0.06296495 0.020268753 0.021479392
000010 4d 17 52 3d ae 46 21 bf 16 27 bc bc 9d 07 57 3d
       0.051291753 -0.62998474 -0.022967856 0.052497495
000020 e6 9d cf bd f4 78 b3 3b 97 1f dd bc 89 47 2f 3d
       -0.101375386 0.005477065 -0.026992602 0.04279283
000030 c3 31 20 3e 25 a6 82 bf d3 6b 59 bd af f1 80 bb
       0.15643983 -1.0206953 -0.053081345 -0.003935061
000040 3d 6e d3 bc d0 15 65 3d f2 1d 9d bc b6 e7 e6 3d
       -0.025809402 0.055929005 -0.019179318 0.11274664
000050 ed c6 b9 3d 79 1d 5a bd 79 f5 48 bc a5 cc 2e 3e
       0.09071145 -0.053250764 -0.0122655565 0.17070253
000060 3e 33 1d 3d e2 16 9b 3d 77 aa c3 bc a1 a8 7e 3d
       0.038378946 0.07572724 -0.023884995 0.062172536
000070 25 a7 f2 3e 12 8d da 3d c0 5d 9f 3c 5b 33 4a 3d
       0.47393146 0.10671438 0.019453883 0.049365383
000080 b3 d7 16 bd 53 39 02 3e 13 d0 3e bd 7f b4 83 3b
       -0.0368268 0.1271718 -0.046585154 0.0040193195
000090 70 66 0f 3f 0e a2 58 3d ba 72 43 3d 66 27 8f bc
       0.5601568 0.052888922 0.047716834 -0.017474841
0000a0 0c 77 6c bb 8a 9b aa 3d 4d f8 80 bb 38 e5 8e bd
       -0.00360817 0.08330448 -0.0039358498 -0.06977314
0000b0 d5 e1 3a 3f 0a 8d 21 be 05 60 b5 3b e7 1d d1 3c
       0.7300084 -0.15776458 0.005535128 0.025526954
0000c0 6d 6b 82 3a 34 c6 f7 bd 55 46 8a 3b b2 b3 a5 3d
       0.0009950228 -0.12098351 0.00421981 0.08090915
0000d0 f1 27 02 3e 8e 17 80 3d 2d 9d 16 3d 2e 75 b5 3d
       0.12710549 0.06254493 0.03677099 0.08860241
0000e0 99 73 14 3d ef 09 3a be bd f0 ae bc fa 82 cf 3d
       0.036243055 -0.18167852 -0.021355027 0.10132404
0000f0 ad 84 cd bd 24 5c c2 bb 36 95 b1 3b b2 69 87 bb
       -0.100350715 -0.005931394 0.0054193987 -0.004132473
000100 9a f6 0f 3e 07 a9 e7 bd 66 9a b1 3a eb 14 57 3e
       0.14058915 -0.11311536 0.0013550043 0.21004073
000110 d5 ee 8e be 16 85 42 be c3 20 af bd 69 04 0f 3e
       -0.2791659 -0.18996081 -0.08551171 0.13966526
000120 56 51 39 3e 46 bc 46 3c 19 c7 d8 bd 2a 41 0f 3c
       0.18097433 0.012129849 -0.1058485 0.008743564
000130 16 49 69 3e da 42 22 3e a5 c9 98 bd d6 37 a2 3d
       0.22781786 0.15845814 -0.07460336 0.07920806
000140 3d 0c 2d 3e 1d 5c 08 3d ef ef dc 3c 7d d7 5b 3b
       0.168992 0.03329097 0.026969878 0.003354519
000150 19 99 95 bc cb c0 bb 3d 9a 7d 8e 3c 2f b5 7c 3d
       -0.01826148 0.09167632 0.017393876 0.061696228
000160 9d 50 33 3e 8d 4c e0 3d 0b 5f 08 3a e2 1f d0 ba
       0.1751122 0.10952101 0.0005202151 -0.0015878642
000170 cb 32 8c be 1e 1b 1e be 78 ba b1 3d 92 c6 b8 3c
       -0.27382502 -0.15440032 0.08678144 0.022555623
000180 a0 74 cd 3d e2 fb 8e be 42 dc ec bc d2 4b 0c be
       0.1003201 -0.27926546 -0.02891362 -0.13700798
000190 08 ae 2d 3e 54 0e 1e bf 4a 11 51 3d 2f d0 88 bd
       0.16960919 -0.61740613 0.05104188 -0.06680333
0001a0 43 f1 ab 3d b9 36 c5 be 07 8d cf 3c b5 5d 44 3d
       0.083956264 -0.38518313 0.025335802 0.04794093
0001b0 a9 8b 97 3d 1d c1 0c bf 72 be 84 bb 36 1c 57 3d
       0.07399685 -0.5498217 -0.004051023 0.05251714
0001c0 3e f7 97 3d 8b c0 a9 be 6f 15 8d bd 49 df 25 3c
       0.074202046 -0.3315471 -0.06888854 0.010124036
0001d0 de 08 f5 3d 2e 19 2e bf 00 5d d1 bd ac 45 b3 3c
       0.11964582 -0.6800717 -0.102228165 0.021883808
0001e0 62 0c 04 3d 25 c9 34 bd 5c 3a 89 bb a4 d2 72 bc
       0.03223837 -0.04413714 -0.004187865 -0.014820728
0001f0 bd d8 a4 bd 23 a6 48 be 8a 0e 36 3d f9 24 c9 3c
       -0.08049152 -0.19594626 0.04444746 0.024553763
000200 5c ef 86 3d 6a 73 c0 3d 2f 75 69 3d 30 10 96 3d
       0.06588623 0.093970135 0.05699652 0.07327306
000210 f8 fb d0 bd 6f 3e db be 11 6e 06 3c 6c 6d b2 3c
       -0.10204309 -0.4282107 0.008204953 0.021780692
000220 c7 16 20 3e df 90 2a 3e 43 1b 9f bd 0f 32 e2 3d
       0.15633689 0.16656826 -0.07768872 0.11044704
000230 1e 78 50 bd 99 13 ec be df fc 61 bc 30 f1 7d 3d
       -0.050895803 -0.46108702 -0.013793199 0.061997592
000240 64 e9 08 3e f5 dc 29 3c af 90 12 bd bf 98 a3 bd
       0.13370281 0.010367622 -0.035782512 -0.079881184
000250 82 dd a4 bd 3f ee eb bc 93 9f 7e 3c 6f a6 ba bd
       -0.08050062 -0.028800128 0.015540975 -0.09113776
000260 d5 b2 c7 3d 40 7a 24 3d 9e 04 02 bd 87 84 78 3d
       0.097509064 0.04015565 -0.031742685 0.060673263
000270 3c e6 11 3e e7 c4 d7 3d b9 16 91 3c 7a 20 24 bd
       0.14247984 0.10535603 0.01771103 -0.040070035
000280 9d 79 ff 3d 0b cb 90 3d 8e 27 a9 3c 24 2c d5 3c
       0.12474368 0.070699774 0.020648744 0.026022024
000290 a6 61 eb 3e ac b4 4b be 2b 09 76 bc 2c 67 f5 bc
       0.45972937 -0.1989314 -0.015016834 -0.029956423
0002a0 a4 a4 93 3e b2 9c fe bc 87 76 12 bd c0 fa 03 be
       0.28836548 -0.031080578 -0.035757568 -0.12888622
0002b0 78 81 a0 3d 7a 66 84 bd 8c b0 e3 bc d5 94 88 bd
       0.07837194 -0.06464858 -0.027794145 -0.066690125
0002c0 e0 19 a7 3e ed 51 21 be f2 37 e2 3c 41 8a 01 be
       0.3263693 -0.15753908 0.027614567 -0.12650396
0002d0 b2 60 2d 3d 88 6d f9 bd 57 35 a5 3c 7d 62 27 be
       0.042328544 -0.121790946 0.020167036 -0.16346164
0002e0 a3 81 92 3e 9c 17 63 be 93 63 c1 bc 19 59 2b be
       0.2861453 -0.22176975 -0.023607051 -0.16733207
0002f0 c0 36 69 3d 28 c5 c6 bd 25 6e 8f bd 1d 0f a0 bd
       0.05693698 -0.09705573 -0.0700343 -0.07815383
000300 a8 b0 9b 3d f4 92 a9 be 07 19 72 3c 72 fa b0 3d
       0.07602054 -0.3311993 0.014776475 0.08641519
000310 1f ee f4 be 50 60 88 be 11 c4 8c bc 93 42 a9 3d
       -0.47837922 -0.2663598 -0.017183335 0.08264651
000320 f6 95 b7 3d 11 7f ac be 94 1f 44 bd 62 35 e4 3d
       0.0896415 -0.33690694 -0.047881678 0.111429945
000330 71 7f de bd cd d6 b4 bd 5d 41 31 3d e8 ae 3a 3d
       -0.10864151 -0.088300325 0.043275226 0.04557696
000340 f3 f5 00 3e b8 6e dc be 74 a0 51 bd 1d 9a e9 bc
       0.12593822 -0.43053222 -0.05117841 -0.02851587
000350 a9 b8 a2 3e a3 41 2d 3d e0 2f d5 3c 04 c4 dc bc
       0.3178151 0.042298924 0.026023805 -0.026948936
000360 8f 78 ff 3e 2d 31 7c 3e c3 38 5f bd c9 ea c9 bd
       0.49896666 0.24628134 -0.05449749 -0.09859235
000370 d7 db 83 bd b6 83 1e bf b8 4f b7 bc 38 f3 2d 3c
       -0.064384155 -0.61919725 -0.02237688 0.01061707
000380 8d e8 be 3d 27 ac df bd 53 b3 0d bc 73 a0 db bd
       0.09321699 -0.10921507 -0.008648711 -0.10723963
000390 e4 82 6a 3e 3c 5a 94 3b a3 a0 b8 bb 1e a5 3f bd
       0.22901493 0.0045273583 -0.0056343838 -0.046788327
0003a0 0a 78 75 3d e5 b9 81 be d2 f4 69 bd 22 28 10 3d
       0.05992893 -0.2533714 -0.057118244 0.035194524
0003b0 ae 75 5d 3e d9 84 8c 3e 44 f3 99 3b 0c d5 96 bc
       0.21626922 0.27445105 0.004698189 -0.018412136
0003c0 a5 54 06 3d bb f7 41 bc 88 8e 2f bd bf 13 d8 bd
       0.032795567 -0.011838849 -0.042860538 -0.10550641
0003d0 ee da 69 3e 93 f6 4a be 84 f8 3c bd d6 06 30 be
       0.22837421 -0.19820623 -0.04613544 -0.17190108
0003e0 38 74 1c 3d 61 9a 66 3d 3f 05 4b bd 96 b4 28 bc
       0.038196772 0.05629957 -0.04956555 -0.010296961
0003f0 c2 7a de 3d 0a 73 c1 bd 3f 65 fb bc 87 00 5a bd
       0.10863258 -0.0944577 -0.030687926 -0.05322316

fcs1.bias f4 [256]
000000 fc 9b f3 3d 05 3e 93 3e 53 d5 21 be c8 c2 ce 3d
       0.11894986 0.28758255 -0.15804033 0.10095745
000010 e9 6d 8b be a8 c0 bc 3d 70 a2 d4 bc d2 2b 20 be
       -0.27232292 0.09216434 -0.025956362 -0.15641716
000020 d4 de 1a 3e 1a a1 bb bc 43 15 7d 3c 87 2f b0 be
       0.15124065 -0.022903968 0.015446964 -0.3441126
000030 3b 37 df bd 54 d2 8d be 3a cc 09 bd 82 03 8c be
       -0.10899206 -0.2769953 -0.03364203 -0.27346426
000040 9d 2a 39 be 90 fd 1a be 07 1b a1 bc f4 92 76 be
       -0.18082662 -0.15135789 -0.019666208 -0.24079496
000050 28 ff 9c be 1d 19 8c 3d f8 47 45 3d c2 d3 2f 3e
       -0.3066342 0.068407275 0.048164338 0.17170623
000060 f8 14 65 bd 56 a1 b5 bd 3d a9 80 be 63 f8 33 3d
       -0.0559282 -0.08868663 -0.2512912 0.043938052
000070 57 5d 3e 3e 68 c8 4e bd e6 32 28 be e8 21 83 bd
       0.18590294 -0.05048409 -0.16425666 -0.064029515
000080 29 2b a0 be 2c 8e 2a be 35 bb 42 be 6b 84 73 be
       -0.3128293 -0.16655797 -0.19016726 -0.23780982
000090 2d 6e c4 be 07 4e 52 bd cb 5b 0f be a6 2c 6b be
       -0.38365307 -0.051343944 -0.1399986 -0.22966251
0000a0 64 eb 90 be 36 cd 15 bb bb 20 be 3d 48 d0 83 bb
       -0.2830459 -0.002285791 0.092835866 -0.004022632
0000b0 2d 3d b0 be 15 3b 0b be b3 df a7 3d 90 3e 98 be
       -0.34421673 -0.13596757 0.08196964 -0.2973523
0000c0 3b 29 a5 bd 4e 59 c6 bd a3 aa 9a be 3f fc 7a be
       -0.08064505 -0.09685002 -0.3020831 -0.24510287
0000d0 e0 0d e2 3c ce 5d 85 be 23 48 ff bd 78 40 18 3d
       0.027594507 -0.2604813 -0.12464931 0.037170857
0000e0 5d 4d 03 3d c2 e5 6d 3d 0a 8c 81 bd 66 36 92 be
       0.0320562 0.058080442 -0.063255385 -0.28557128
0000f0 93 d6 cd bd 98 88 93 3e 2b 48 64 be b8 1c 60 bd
       -0.100506924 0.2881515 -0.22293155 -0.05471489
000100 ce ce 00 be 99 35 a8 be 3c aa 60 bd 2e 83 5e 3d
       -0.1257889 -0.32853392 -0.05484985 0.05432432
000110 bc 5c 8e be c3 b3 6a bd 4e 93 c2 3d d2 5d 83 3b
       -0.27805126 -0.05730034 0.095007524 0.004008987
000120 a0 a0 98 be 15 ab e0 bc 04 2e 66 be 79 cb b9 3e
       -0.29810047 -0.027425328 -0.22478491 0.3628805
000130 8a 8e 88 be 1e 3e 36 be b6 43 56 3e ed a1 d3 3d
       -0.2667125 -0.17797133 0.20924267 0.10333619
000140 d2 ea 7d be 3d f1 3c be 48 15 62 be 73 4f a5 be
       -0.24796608 -0.184514 -0.2207843 -0.32287177
000150 fd 3d 1a bd 58 5d b1 be 32 4a 2f bc 50 a3 c1 bd
       -0.037656773 -0.34641528 -0.010698842 -0.094549775
000160 dc a7 a0 be 80 56 3f ba 5f 8b 8f bd d7 90 ff bd
       -0.31378067 -0.0007298961 -0.07009005 -0.12478798
000170 f5 60 78 be 79 51 21 3e ed ca be bd ad 56 94 3c
       -0.24255736 0.15753736 -0.09316049 0.018107736
000180 6d 26 7c 3d 31 8b e8 bd 20 43 be bd 16 5b 42 be
       0.061560083 -0.11354674 -0.09290147 -0.18980059
000190 a5 b5 71 3b 13 66 20 3e d4 ba a1 be 31 02 ca 3d
       0.003688195 0.15663938 -0.3158785 0.09863699
0001a0 ba cd 77 be 97 49 2e bc ca d7 58 3d 1e 79 ef bd
       -0.24199572 -0.010637662 0.052940167 -0.11693023
0001b0 7c 91 41 be 16 3a 49 be a1 e1 08 be 71 0c a5 bd
       -0.18903154 -0.19651064 -0.1336732 -0.08059014
0001c0 6a 8b 83 be 30 78 c1 be 00 62 71 3e 3e fa c7 be
       -0.25692302 -0.37787008 0.2357254 -0.39058107
0001d0 4b 4e 33 be 31 e9 b6 3d 49 b0 cc 3c bc ef 41 3e
       -0.17510335 0.089311965 0.024986403 0.18939108
0001e0 f3 11 17 3d 5a 50 0a 3e 00 a5 02 be 00 10 fe bc
       0.036882352 0.13507214 -0.12758255 -0.031013489
0001f0 09 44 22 bd 14 da 7f be 18 b6 09 3e d2 9c 03 3c
       -0.039615665 -0.24985534 0.1344837 0.008032994
000200 97 a8 b0 bb cd 7b e6 3d 2c 3d a3 bd 59 75 5a be
       -0.005391191 0.11254082 -0.07970652 -0.21333827
000210 e2 85 ae b9 08 6b 9b 3c 3f 36 30 be bb 4c 98 bd
       -0.00033287617 0.018971935 -0.17208193 -0.0743651
000220 24 b3 5d bd 40 69 ed bd 6d b8 91 3c 41 fe bc bd
       -0.05412592 -0.115923405 0.017788136 -0.092281826
000230 ad a6 2c be ec 31 3b be 28 62 06 be 00 d7 a4 3d
       -0.16860457 -0.18280762 -0.13123381 0.080488205
000240 ee be 40 3e 88 f6 38 3e 53 6b 61 be 44 bc 56 be
       0.18822834 0.18062794 -0.22013597 -0.20970255
000250 25 e4 48 be 2b 7a 38 3e dc 59 c0 3d 52 75 09 bd
       -0.1961828 0.18015353 0.09392139 -0.03355915
000260 37 a0 93 3d ec 69 49 3e 7a 49 72 bd 76 06 eb bb
       0.07208293 0.19669312 -0.059152104 -0.007172401
000270 f0 99 1c be 4a 14 05 3e d9 bc 1a be df 8f fc bd
       -0.15293097 0.12996021 -0.15111102 -0.12332129
000280 a6 2d 19 3d 67 a7 93 be 75 ac 44 be f2 0e 35 b9
       0.03739705 -0.28838655 -0.19206412 -0.00017267073
000290 92 72 46 be 01 b9 05 be 9b f1 0d be cc 5e 64 be
       -0.19379643 -0.13058855 -0.13861696 -0.22301787
0002a0 af 05 57 be 28 e1 56 be fb 23 d4 bd 21 2e ab 3c
       -0.20998262 -0.20984328 -0.10358425 0.02089602
0002b0 22 b9 06 be fe bc ce be d6 9a 14 3e a9 f1 5d be
       -0.1315656 -0.40378565 0.1451219 -0.21674217
0002c0 77 7c 51 bd 0b e8 83 be ab 3a a4 be d0 e5 ef bc
       -0.05114409 -0.25762972 -0.3207601 -0.029284388
0002d0 06 88 4d 3e 49 7b 8a bd 5c ca 08 3c 9a 17 f2 be
       0.2007142 -0.06761796 0.0083490275 -0.47283632
0002e0 b4 cc 17 be 02 f6 59 bd a0 2b 95 bd c9 d7 aa bc
       -0.14824182 -0.053213127 -0.072837114 -0.020854848
0002f0 0b 87 e1 3d a2 8c 7a be 83 2b cc bc 82 8b a1 3d
       0.110120855 -0.2446771 -0.024923092 0.07887937
000300 62 f6 0f be 14 30 34 be 47 30 ce bd 95 7e 7e be
       -0.14058831 -0.17596465 -0.10067802 -0.24852975
000310 19 74 30 be 84 8d 8c be ca cc 99 be 8f dd 02 3e
       -0.17231788 -0.27451718 -0.30039054 0.1277983
000320 67 76 a8 be 3e f0 3f be b7 48 1a 3c ca 82 33 be
       -0.32902834 -0.18743989 0.009416751 -0.17530361
000330 87 b0 c4 bd c1 7f 16 3e 86 29 1d 3e 35 2e e5 bd
       -0.096039824 0.14697172 0.15347871 -0.11190454
000340 bd d0 0d bd 4f 5f 62 3c 49 3a fb 3d f5 0d f3 3d
       -0.034622896 0.013816669 0.122669764 0.118678965
000350 58 31 b9 bd eb b1 a4 bd 5c 02 b6 bd 26 a2 d7 bd
       -0.09042615 -0.08041748 -0.08887169 -0.10528974
000360 5d 96 c9 be b0 9f 8b be 12 8f bd be d2 d7 69 3c
       -0.3937253 -0.2727027 -0.37023216 0.014272647
000370 39 49 3c be ee fc 2a 3e d1 2e 21 be 3f fe 8b be
       -0.18387307 0.16698048 -0.15740515 -0.27342412
000380 00 c1 3a be d9 e5 0b be a9 41 5e bd 55 ae ad bd
       -0.18237686 -0.13661899 -0.054261837 -0.08480517
000390 9c 45 00 be 93 0c c3 bd 7a 14 51 be 6b d7 c4 bd
       -0.12526554 -0.09523883 -0.20417967 -0.096114
0003a0 ac c1 7e bd 9d 0f a1 be 8f 15 83 3d 0b f2 63 be
       -0.06219642 -0.31457224 0.06400596 -0.22260301
0003b0 bf fb 52 be f8 9d 9e bd ac 36 2b be 52 0b a5 3d
       -0.20603846 -0.07744974 -0.16720074 0.080588
0003c0 4c 06 ce bd 59 7a b3 3d 3d ca 54 be be d8 c9 bd
       -0.10059795 0.0876357 -0.20780273 -0.098557934
0003d0 a2 fe 51 3d 63 fc 35 be 53 d7 71 be ba 4c ee bb
       0.051268227 -0.17772059 -0.23617296 -0.00727233
0003e0 10 db 73 be ec 1e 48 bc 28 b2 99 bd 02 4e c7 3d
       -0.23814034 -0.012214404 -0.07504684 0.09731676
0003f0 75 78 01 3e 36 b8 07 3e 0e 5b 11 be 67 f8 58 bd
       0.12643607 0.13253865 -0.14194891 -0.05297127

fc2.weight f4 [128, 258]
000000 ba 8e a8 bd 95 34 51 bf b6 f0 ad bd c5 90 1b 3d
       -0.08230348 -0.8172086 -0.084931776 0.03797986
000010 97 e7 3f 3c 21 0f 8c be 31 94 01 3c 34 68 7f 3d
       0.01171293 -0.27355292 0.007908867 0.062355235
000020 cd e8 0f 3d 93 e4 a1 3d 0d 18 47 3d fe 70 42 3c
       0.035134126 0.07904925 0.04860692 0.01186776
000030 bd 02 03 be 17 6a b7 bd f1 67 e2 bc 37 34 57 bd
       -0.12794013 -0.08955782 -0.027637454 -0.05254003
000040 7d d8 45 3b b0 26 e2 bc fb ed 1b be e3 a3 77 be
       0.0030188852 -0.027606338 -0.15227501 -0.24183612
000050 75 5b 0c bd d2 8c 23 bc 2d 1d a4 bd 99 af 6f 3c
       -0.034266908 -0.009982305 -0.08013377 0.014629268
000060 b5 3d 10 3e 71 a8 d7 bd 0c 9e 5b bd bd 42 44 bd
       0.1408604 -0.105301745 -0.053617522 -0.04791521
000070 3a 7b 6c 3e c4 b3 17 3d f1 4c 77 bd 23 9b 10 be
       0.23093882 0.037036672 -0.06037611 -0.1412168
000080 03 01 48 bd 8b 7a 93 bd 27 68 0b 3d 98 71 65 bd
       -0.04882909 -0.072011076 0.034034874 -0.056016535
000090 7a 2f 6c 3b e7 31 8a 3d 1b 56 7f 3d d9 11 9d be
       0.003603904 0.06747799 0.062337976 -0.3067768
0000a0 e0 cb 7d bc 45 ba e4 3c fb 29 87 bd 45 27 a6 be
       -0.015490502 0.027920851 -0.06599804 -0.32451835
0000b0 46 14 88 be a0 77 e4 bd 3a 1f 5f bc df 7f 49 bd
       -0.26577967 -0.11155629 -0.013618285 -0.049194213
0000c0 97 47 11 3e e8 c5 d1 bd dd bf a4 bd 32 c6 e3 3c
       0.14187466 -0.10242826 -0.080444075 0.027804468
0000d0 76 d1 4b 3c 97 7b 5a 3c da cb 04 be d5 ee 47 3d
       0.012440076 0.01333513 -0.12968388 0.048811752
0000e0 0a 02 26 3e 8f e6 58 bd b4 2d 8a be 04 09 50 3c
       0.16211715 -0.052954253 -0.26987994 0.012697462
0000f0 b0 21 63 be ad b1 84 bd ac 9e 2d 3d 96 31 c4 bc
       -0.2218082 -0.064792015 0.04238765 -0.023949426
000100 02 f3 f7 bd ca 2f 06 be b9 3c ad be ea ec 93 bd
       -0.12106897 -0.13104168 -0.3383539 -0.07222922
000110 ef f7 80 3d ca 5f 28 bd fb 3e 90 be b4 1a 0e 3d
       0.062972896 -0.041106977 -0.2817305 0.034693435
000120 be 8b 54 3d 1d 1b f8 bc 2b ac d6 bc 16 72 fc bd
       0.05189108 -0.030286366 -0.026205143 -0.12326448
000130 9e 56 6a bc 03 79 1a 3a b2 ec 9d 3d 10 2c 8e bd
       -0.014302878 0.0005892666 0.07711162 -0.06941998
000140 ce db 31 be 28 b2 35 bd 0c 11 65 bc b1 7e 8c 3c
       -0.17369005 -0.044359356 -0.013981115 0.017150255
000150 45 fc eb 3d 00 c7 a7 3d 1e 5f 75 bd 3f cb cf 3d
       0.11522726 0.08192253 -0.059905164 0.10146188
000160 17 ac cc 3c 26 d1 81 be 6d 59 b6 3c d5 54 cd 3c
       0.024984403 -0.2535488 0.022259438 0.025064865
000170 c2 35 71 3d 81 3d b6 bd 74 4c cf be c9 65 06 3d
       0.058889158 -0.0889845 -0.40488017 0.032811914
000180 c6 2e e8 bd df 19 8e bd da cf 79 be 21 d8 45 be
       -0.11337046 -0.06938528 -0.24395695 -0.19320728
000190 2a b3 c2 3d 51 20 a1 bd 01 f1 4c bd ac 79 0b be
       0.09506829 -0.07867492 -0.050034527 -0.13620633
0001a0 ae df 59 bc 35 93 06 bd df 7e a0 bd b3 39 da bd
       -0.013297958 -0.03285523 -0.07836699 -0.106555365
0001b0 c3 13 f3 3d 9e e9 f7 bd 89 5b 76 bd d9 4f 11 3e
       0.118690036 -0.12105106 -0.06014589 0.14190616
0001c0 e0 44 e7 bd da 4d 8b 3d 8a f3 e8 bd 27 f8 98 bc
       -0.11292434 0.068019584 -0.113745764 -0.018673016
0001d0 b1 a9 cc 3d 25 ea 82 bd 13 09 d6 bc cd ff 27 3e
       0.099933036 -0.06392316 -0.026127374 0.16406174
0001e0 d7 26 7f be 3c 3f 2b be 32 23 45 be 18 98 21 be
       -0.2491716 -0.16723341 -0.19251707 -0.15780675
0001f0 57 c4 b9 bd 26 de 97 bc e1 f1 75 be 36 4d ba bb
       -0.09070652 -0.018538546 -0.2401805 -0.005685474
000200 bd c1 0b be 51 a7 ca bd 5b ac b3 3c e3 47 84 be
       -0.13648124 -0.09895194 0.021932771 -0.25836095
000210 a3 5d 26 3b 50 62 be 3c ae 11 e7 bc da bf 5c be
       0.0025385402 0.023240238 -0.028206673 -0.2155756
000220 c9 1e ee 3d 20 24 3d bd 21 41 68 3d 51 cf fc 39
       0.116269656 -0.04617703 0.056702737 0.00048219648
000230 4d cd 24 3d 40 63 9d bc 81 b1 b7 bd ed 65 a8 be
       0.040234853 -0.019212365 -0.08969403 -0.32890263
000240 eb dc 31 3a 35 87 d2 bd 5e 9b c8 3c a7 4d 89 3d
       0.00067849335 -0.10279695 0.024488147 0.06704264
000250 8a fc f8 3d 6f c0 0c bf 96 8e f7 bd da 5a ef bd
       0.12157543 -0.5498113 -0.12087743 -0.116872504
000260 d5 62 55 bd 35 52 ba bd fc da 0a be 94 3f 79 be
       -0.052096207 -0.09097711 -0.13560098 -0.2434066
000270 93 82 a1 bd 2f 29 f7 bc 7a bf 3c be 4c 74 ce bb
       -0.07886233 -0.030171005 -0.18432418 -0.0063004848
000280 4d 0a 9f 3d 85 4d d4 3d 66 70 12 3e 49 61 3c bd
       0.077656366 0.10366348 0.14300689 -0.045991216
000290 ef a6 f5 bc b4 23 11 3d 75 33 32 be 4f c4 b0 3d
       -0.029986827 0.03543444 -0.17402442 0.08631193
0002a0 b9 61 31 3b 5a 44 8e bd 5d e3 05 3d 11 11 6c bd
       0.0027066304 -0.06946631 0.032687534 -0.057633463
0002b0 ce b9 2d 3d ea 1a 3f bd a4 90 ee bc 35 54 01 3a
       0.042413525 -0.046656527 -0.029121704 0.00049335073
0002c0 cf ac c4 bd 35 25 65 3d 3f 65 d6 bd cc a6 81 3d
       -0.09603273 0.055943687 -0.1046853 0.06330642
0002d0 26 5e 78 bb 44 28 61 bd f6 f0 f1 3c b4 5d 85 bd
       -0.0037897914 -0.05497004 0.029533844 -0.06512013
0002e0 a1 cf 28 bd a0 16 c1 3c 89 7c ea bd 40 64 46 be
       -0.041213635 0.023570359 -0.114495344 -0.1937418
0002f0 ee fe 6e bd 73 92 de bc 78 a5 19 3d 09 5f bc bc
       -0.05834859 -0.027169442 0.03751132 -0.022994535
000300 90 d9 66 be d4 14 4c 3d 8f 2f 09 bc 8d f8 47 3d
       -0.22543931 0.04982455 -0.008373155 0.04882102
000310 33 f7 8a 3d 5c 88 b4 bc 7b 9f 32 3d 2e 53 44 be
       0.06785431 -0.022037677 0.043609124 -0.19172356
000320 ad 47 04 3e 85 9e b9 bd b2 41 ba 3c 75 37 94 bd
       0.12917967 -0.09063438 0.022736404 -0.0723714
000330 f0 79 08 3e ed 64 36 3d 95 5a 5e bd de a6 28 3d
       0.13327765 0.044529844 -0.054285605 0.041174762
000340 ce d2 87 bd 87 b4 6d bc 5b 14 c3 3d 4f 2b 0d bf
       -0.06632005 -0.014508373 0.09525367 -0.5514421
000350 67 83 9d bd 52 02 e2 bd 90 95 a5 be c4 8d 49 be
       -0.07691079 -0.11035599 -0.3234067 -0.19682986
000360 99 eb 10 3c 1a f0 9b 3d 70 01 a8 bd 53 09 37 3d
       0.008845233 0.07614155 -0.08203399 0.044686627
000370 f1 12 0d bd 4c 46 92 be 65 37 b4 bb a9 68 a1 3d
       -0.034441892 -0.28569257 -0.0054997676 0.078812905
000380 1e 9f 86 3d e5 d5 ae bd 29 10 a3 3e 88 e9 5e 3c
       0.06573318 -0.08536891 0.31848267 0.013605483
000390 34 73 9d 3d 9d 7f 12 be 3f 62 a0 bc b7 ca 7b 3d
       0.07687989 -0.14306493 -0.019578097 0.06147262
0003a0 9c 20 f3 bd d1 e1 16 3d 55 48 8e bd 94 9d bf 3c
       -0.11871454 0.03683645 -0.0694739 0.023390569
0003b0 4f 5a cc be 01 db 27 3d 60 de 9e bd b5 bd 24 3d
       -0.3991265 0.040980343 -0.077572584 0.04021998
0003c0 af eb dd bb 0c c0 a7 be 1c 6b 97 3d b7 18 8f bd
       -0.0067724804 -0.32763708 0.07393476 -0.06987136
0003d0 2b 46 5b be 08 dd 40 3b 40 43 88 3c d0 4a 25 ba
       -0.21413486 0.002942862 0.01663363 -0.00063053984
0003e0 fa 11 99 bd 53 e6 47 be 99 b2 32 bd 0e 2e 2a bd
       -0.07474132 -0.19521455 -0.043627355 -0.041547827
0003f0 64 20 c6 bd 3e 4d b2 bd b3 04 c2 be 11 ab 64 3e
       -0.09674147 -0.08706139 -0.3789421 0.22330882

fc2.bias f4 [128]
000000 0c 05 12 3d 9e ab ed bc 8d 08 58 bc 0c 27 cf bc
       0.035649344 -0.029012498 -0.013185632 -0.025287174
000010 02 4f b0 bd 93 62 2c bd 1c 65 4f bb 78 5d 3e bd
       -0.086088195 -0.042086195 -0.003164596 -0.046475857
000020 bc e7 bb bc ff d4 b3 bd 25 01 fb bc 61 70 21 bd
       -0.022937648 -0.0878086 -0.030640194 -0.039413814
000030 2b 11 cd bd 63 cb 36 ba 09 a1 e3 bd f7 07 ae bd
       -0.1001304 -0.0006973056 -0.111146994 -0.08497613
000040 be aa b4 bd 95 6d b6 bd 8a b5 46 3c 01 30 7d bd
       -0.08821629 -0.0890762 0.012128243 -0.06181336
000050 f2 09 54 bc e0 b3 c8 3d 49 d0 25 3c 56 b2 18 bd
       -0.012941824 0.097999334 0.01012046 -0.03727945
000060 98 f4 08 bd 13 1c 35 bd 54 48 0a 3e 23 a3 36 3d
       -0.033436388 -0.044216227 0.13504153 0.044589173
000070 65 67 5d 3c 12 8a 82 3c 85 9e d5 bd 89 6d 31 bd
       0.013513421 0.015934978 -0.10430626 -0.04331735
000080 e5 08 4b 3c 9e a4 57 bc 7c 33 f7 bc 69 a7 9e 3d
       0.012392257 -0.013161806 -0.030175917 0.07746775
000090 81 45 02 be c4 88 02 bd 76 04 34 bd 2c de bb bd
       -0.12721826 -0.03186871 -0.043949567 -0.09173235
0000a0 10 b9 3b be a3 b6 1d 3e 8d 3f ab bd b8 16 a1 bc
       -0.18332314 0.15401702 -0.08361731 -0.019664153
0000b0 4f 1f a1 3b 8e 32 10 bd 68 e9 99 bc fc 89 b2 bd
       0.0049170624 -0.035204463 -0.018788055 -0.08717725
0000c0 29 21 2e 3c e3 ed 1c 3c 2a 7a 8f bd 34 7a c2 3d
       0.010628023 0.009578201 -0.07005723 0.09495965
0000d0 4d 6a 8f bd 93 6e 1f bd 6d 68 9d bc fa 77 c4 bd
       -0.07002697 -0.03892381 -0.019214833 -0.09593196
0000e0 b1 da e9 bd f5 65 4b 3b 65 21 d8 bd f8 2a a6 3d
       -0.11418665 0.0031036113 -0.105532445 0.081136644
0000f0 cd 1d 55 bd b6 4a 10 3c 43 80 86 3c 0d 54 e4 3d
       -0.052030373 0.008806875 0.016418582 0.11148844
000100 1c 26 8f bd 44 83 a7 bb ba 5a 43 bd 7e a8 3b 3d
       -0.06989691 -0.0051120836 -0.047693945 0.045814984
000110 b4 c2 6b bd 5e db d4 3c d5 1d a6 bd 54 76 22 3d
       -0.05755873 0.025983509 -0.08111159 0.039663628
000120 98 2f 89 bd cb 1a d1 3b dc 82 a5 bc 70 15 50 3d
       -0.06698531 0.006381368 -0.020204 0.050801694
000130 35 19 db 3b a0 7d 1f bd 42 c5 38 bd c3 c4 05 bd
       0.0066863545 -0.038938165 -0.045109995 -0.03265835
000140 61 ce 68 bd 8c b6 a0 bd 5e bd 60 bd ba 93 df bd
       -0.056837443 -0.07847318 -0.054868095 -0.109168485
000150 9a 07 13 3d bd 54 7c bd b5 81 d7 bd 97 51 2e bd
       0.03589592 -0.06160425 -0.105227865 -0.04255828
000160 c8 73 9c bd d9 ff 98 3c 52 7e df bd e9 14 a6 bc
       -0.07639271 0.018676685 -0.109127656 -0.020273643
000170 84 aa c4 bc 7b 6a 14 3c cb d0 e7 3c 31 9e c2 bd
       -0.02400709 0.00905859 0.028297802 -0.09502829
000180 15 d4 c8 bd 49 3f 90 bb dc 01 30 bd b9 f8 de 3a
       -0.098060764 -0.0044020754 -0.042970523 0.0017011381
000190 6c 45 f0 bd a9 b6 07 3c db e0 c7 bd 54 83 4f bb
       -0.11731991 0.008283296 -0.09759685 -0.003166397
0001a0 bf 74 b1 3b 3d dc 02 bd b3 86 a8 3d 3b d1 03 bd
       0.0054155285 -0.031948317 0.08228817 -0.03218196
0001b0 bf 4d 85 bc 65 61 b6 bd fb 81 83 3d 06 2e b6 3d
       -0.016272424 -0.08905295 0.06421276 0.08895497
0001c0 49 34 9f 3d 46 59 b3 bd de 94 43 3d f2 d2 ad bd
       0.077736445 -0.08757262 0.047749393 -0.084875
0001d0 11 c0 90 bc d8 82 06 bd 9b 8b c4 bd 71 f2 00 be
       -0.01766971 -0.032839626 -0.0959694 -0.12592484
0001e0 a2 bd dd bd 2b 40 a6 bd 0c d8 2c bd ea f5 8e 3c
       -0.10827185 -0.08117708 -0.042198226 0.017451245
0001f0 6e ba e9 3b 0a 37 b1 3c 91 4e d3 3d b6 45 7c bc
       0.00713282 0.02163269 0.1031772 -0.01539748

fc3.weight f4 [1, 128]
000000 e4 e0 82 3c 4b 80 81 3c 99 cc 3a bc 49 10 c0 bd
       0.015976377 0.015808245 -0.011401319 -0.09378106
000010 2f b5 18 bc 28 e9 95 3b 63 8e 2f 3c 6a 03 2b bc
       -0.009320541 0.0045749135 0.0107151 -0.010437826
000020 21 43 29 3c 22 69 0d 3c 49 57 9c bb cb 5a 4d 3a
       0.010330946 0.008631023 -0.0047711474 0.00078336586
000030 22 8b 67 bc 4e 7c be bb d6 72 ee 3b 52 4f 7d 3c
       -0.014132293 -0.005813158 0.007276873 0.015460806
000040 1b cd ff 3b 9c 6b 05 bc 06 db 31 3d e7 4a 28 bc
       0.007806433 -0.008143332 0.043421768 -0.010271764
000050 62 1f 0a 3a a5 0c fb bb ce 2c 39 3c e3 1a 1e 3d
       0.00052689586 -0.0076614195 0.011302186 0.03859986
000060 35 d8 13 bc 9f 9a 99 3b 2c c5 95 bc 42 f1 3d bc
       -0.009023716 0.0046876217 -0.018282495 -0.011593165
000070 05 8f 1c 3c 3b e6 e7 bc 4c fb 84 3c 52 a4 17 bc
       0.009555583 -0.028308025 0.016233109 -0.009255486
000080 53 33 ce bc dc b4 99 3c e1 9d 99 bc 99 b7 cc bc
       -0.025170958 0.018762998 -0.01875204 -0.02498989
000090 de f8 b8 bc 16 0d 9a bc 06 b3 c3 38 71 95 9a 3a
       -0.022579607 -0.018805068 9.33167e-05 0.0011793805
0000a0 ac fd 16 3d cc e1 42 bc cb 89 ad 3b 01 a9 a1 3b
       0.036863014 -0.0118946545 0.005295967 0.004933477
0000b0 ba dd 65 3b 53 d5 71 3c c2 1d 0f 3c 7d 02 0e bc
       0.0035074786 0.014760333 0.008735122 -0.008667585
0000c0 0b 81 ad 39 41 98 ac bc c9 81 8f bc e2 dd 86 bc
       0.00033093276 -0.021068694 -0.017517941 -0.016463224
0000d0 2c d1 84 bd 97 ff 68 bc 77 da 9f 3c df 7b 76 3c
       -0.06485209 -0.014221094 0.019513352 0.015044182
0000e0 20 76 31 bb cd d8 37 bb 41 07 a7 3d a7 a3 a4 bc
       -0.0027078465 -0.0028052807 0.081556804 -0.020097567
0000f0 24 80 bf bc e1 8c 1e 3c dd 5f 4c bc a9 db 9e 3c
       -0.023376532 0.009677143 -0.012474027 0.019391851
000100 51 35 20 3c 75 e9 d0 3c 79 86 c5 bd 9e f7 6d bc
       0.009778337 0.025501946 -0.09644789 -0.014524369
000110 52 7d df 3b a8 19 a8 bc f1 4e 42 3c 8c 48 de bc
       0.0068203593 -0.020520046 0.011859641 -0.027134202
000120 d9 ff 3a 3b 28 3a 7e bc 62 ba ab ba 66 2f b0 bc
       0.0028533845 -0.015516795 -0.0013101811 -0.021506976
000130 87 68 29 3a 98 83 3f 3c 55 93 71 bb d1 d6 4e 3d
       0.0006462414 0.011689089 -0.0036861498 0.050497834
000140 82 07 a7 bc ba 01 82 3c 97 e5 53 bd b6 c5 82 bc
       -0.020389322 0.015869964 -0.051732626 -0.015963417
000150 3b f1 53 3d b1 95 18 bc 8d 6c 7a 3c 42 0e 09 3d
       0.051743727 -0.009313033 0.01528467 0.033460863
000160 35 1c 9b bc 6b 2d 49 bc 37 c0 de 3b 5f 12 09 3c
       -0.018934349 -0.012278895 0.006797816 0.008366196
000170 6d 3a ba 3c 87 48 47 bc 90 5f ea bb 05 c8 9c bb
       0.022732938 -0.012163288 -0.007152505 -0.0047845864
000180 f5 4f 7b bd 5b 98 1b bc b3 32 9a 3c 97 2a bf bc
       -0.06135555 -0.009496774 0.018823003 -0.023335738
000190 e8 83 90 bc 00 1f e6 3c 78 19 07 bc da cf 63 3b
       -0.017641023 0.028090954 -0.008245818 0.003476134
0001a0 48 86 55 bc dc 84 80 bc 20 7c 79 bc f9 33 60 bc
       -0.013032503 -0.015688352 -0.015227348 -0.013684266
0001b0 33 b3 d5 bb 15 39 68 3c 47 1b 48 bc 8a c1 26 3d
       -0.0065216064 0.014173766 -0.012213535 0.040711917
0001c0 45 f7 c5 bc 06 11 45 3c 4f c1 4c bd 54 78 75 bc
       -0.024165759 0.0120279845 -0.04998904 -0.014982302
0001d0 ac a2 9b 3c a8 26 dd bc 61 d5 42 3c 2a d7 8b 3c
       0.018998466 -0.026995972 0.011891694 0.017070372
0001e0 cd fb b7 bc d9 06 ea bb da 94 fb bc dd 3e 74 bb
       -0.022458935 -0.0071419296 -0.030710626 -0.0037268915
0001f0 40 b1 1b bc 0e e9 a4 bb 92 2a a9 3c bc d9 74 3c
       -0.009502709 -0.005032665 0.020650182 0.01494449
