MADDPG/checkpoint_maddpg_actor_agent_0.pth (torch_old, 296656 bytes, 10 tensors)

fc1.weight f4 [256, 24]
00000000: 4268 853e 6021 663f 13dd a1bd 0477 403f
00000010: 8800 ed3e a12e 87be 9cb5 2ebd 75e8 373f
00000020: 802c 2f3e 2b6c 893f ed68 2abe d85a 973f
00000030: 8874 403f bebf 963f 01a0 21be da41 9a3f
00000040: 897c ef3e 0c53 ef3f 8280 1bbe 2a96 ed3f
00000050: 7e06 633f 266f 0d40 3718 d1bd 69fc ed3f
00000060: a464 853f da5f ad3d 5ef2 1b3b 07ce b0bd
00000070: be39 0a3d e59e 43bf 58cf acbd b1ab 48bb
00000080: 168c 433f cb12 803e 675d d4bb cddf f83d
00000090: dcf5 90bd 39e7 1bbe 8398 16bc 22cf 313e
000000a0: 014c e23e 4bf7 013e ad33 e8bc fac9 2a3d
000000b0: 7fbd 1abe 70e7 8f3e 80bf a3ba 9288 ff3c
000000c0: f98f 46bf 35b6 b03f 51e5 ccbe 49eb 923c
000000d0: 0ece 5440 e2db 60bf 9abf b6be e7d4 35bd
000000e0: 434a 8fbe 273a bd3f 2343 0bbe 9766 f83e
000000f0: 9f8a 0640 cdd5 a8be 9b07 30be 67ce f23e
00000100: 2886 91bd c0a7 bd3f c8f4 77be 0ea3 80be
00000110: b8c6 bf3f 3085 a2bd 3d70 42be 29bf 5cbe
00000120: d546 33bd 41fe 36bf f676 ef3c 4c61 66bf
00000130: 69be 0f40 1684 02bf 69a1 fa3c c0f6 4fbf
00000140: 1e7b ca3e 577d 55bf d70e c13c 9994 b73e
00000150: 5445 1340 783e d2be 9edb 28bd 6812 dd3e
00000160: d55b 863f 1905 46be 545c fb3d ca67 6a3f
00000170: b438 ed3f 0267 9fbe 45c4 9d3d 9dc6 613f
00000180: 1d91 873d c243 e5bf 8e06 a2be 0342 923e
00000190: 8043 d23f 4864 1b3e 83fa 8dbe 25a1 863e
000001a0: d86a 653e df14 d8bf d7e9 a2be 9528 03be
000001b0: 671f 7e3f 2110 843f 1f8b bfbe 6483 1cbe
000001c0: 8911 f03b b1d0 c0bf 7d6b 02bf 78e8 f5be
000001d0: 8c2a ca3e f850 2040 2164 06bf 4f21 00bf
000001e0: 20ee f13d a908 aa3f 9b9a 8d3e ce90 06bf
000001f0: 1790 413f 5997 0dbf 36a5 ad3e 7d8e fcbe
00000200: 94e6 e43e 34e4 973f 156c 0bbf ad24 b3ba
00000210: 5a2a 833f 8c80 97bf 6251 0abf 6fe9 6dbd
00000220: 9112 8d3f 171a 673f d0c7 533d 5bc1 56bf
00000230: a4d8 8f3f c8e9 cfbf 9f87 9ebc f88a 68bf
00000240: ef75 363f 15a1 b33e fbcc 7a3e fe7b debf
00000250: bee9 1cbf 3b4a a1bf 38af 9c3e 3ed0 e0bf
00000260: 4b81 153f f626 2cbf 8b29 343e 9dbe dabf
00000270: c967 8dbd ea84 9fbe 62fd 2a3e 8b05 e0bf
00000280: 0eb1 763f 6415 bfbf 23f7 a23e f244 2abe
00000290: bf77 cb3e b224 adbe 581c 703e b19b 5ebe
000002a0: b1a4 f13e 8620 e23e b6e2 e33e d24f 2bbd
000002b0: 6eb7 153f dc45 8dbf 32a9 ea3e 5ff5 ddbd
000002c0: 3afd 823f bb3a 263e 0d92 913e 1354 3fbf
000002d0: 8e76 c43e d166 f0bf 76a9 723e ab9d 3dbf
000002e0: 3a3b b23f e92d 09bb 2d39 a23e 2fac 1ebf
000002f0: 1dd5 a23d 4fd0 d7bf 21fb d73e 6c29 10bf
00000300: 78c4 84be 8455 50bf 2176 d63b bd85 5c3f
00000310: d1c6 363f 166b 91bf 7a5a d73d 25d7 633f
00000320: 57a1 54bd c5c6 d4be 14e9 b5bd 30a5 9c3e
00000330: 8666 fa3e 3618 8ebe 3e23 bebc 88fc 973e
00000340: 98f7 cc3e ef2a 2e3d a732 753d 58cd 7740
00000350: 210f db3d 947a 0f3f 8e26 493d 7915 7840
00000360: d2bd 5e3f 903b 1dbe 5da5 24be d595 aabe
00000370: 0629 a83d e86b 9ebf dd24 58be d194 9ebe
00000380: b58d a83f 67bf 573c 7748 a7bd 0b6d 7f3d
00000390: 6618 62bd 2fed eebf 4c8c febd 75b5 babc
000003a0: f04c c03f 91d6 783e 37b9 b63c 155c 48be
000003b0: 814b 66be 4dae 32c0 c386 90bc 7ecf 6abe
000003c0: 628a 8b3e 1528 babe fed2 c33c 71c5 17bf
000003d0: 7a20 eabe d5a6 e1bf c4dc 8d3c d802 11bf
000003e0: e9ca aabc 30ce 13bf 3713 3a3f 61a2 24bf
000003f0: 84ac 08bf 65a2 e4bf 8efa 4e3f 27d2 29bf
0.26056105 0.89894676 -0.07903495 0.75181603 0.46289468 -0.26402763 -0.042653665 0.71839076
0.17106819 1.0736135 -0.16641589 1.1824598 0.7517781 1.1777265 -0.15783693 1.2051346
0.467747 1.8697219 -0.1518574 1.8561451 0.8868178 2.209909 -0.10209697 1.8592654
1.0421338 0.08465548 0.0023795585 -0.086330466 0.033746473 -0.7641433 -0.08437985 -0.0030619914
0.7638563 0.25014338 -0.006480861 0.121520616 -0.07078144 -0.15224923 -0.009191635 0.17364171
0.4419861 0.12691991 -0.028344953 0.041696526 -0.1511135 0.2810626 -0.0012492985 0.031193051
-0.77563435 1.3805605 -0.40018705 0.017934458 3.3250766 -0.87835515 -0.35693055 -0.044392493
-0.27986345 1.4783372 -0.1359983 0.4851577 2.1022108 -0.32975617 -0.17190401 0.47423097
-0.071056664 1.4816818 -0.2421447 -0.251244 1.4982519 -0.0793556 -0.18988128 -0.21557297
-0.043768723 -0.7148171 0.02923153 -0.89992213 2.2459967 -0.509828 0.030594544 -0.81235886
0.39547056 -0.8339438 0.023566647 0.3585556 2.3011065 -0.41063285 -0.04122507 0.43178105
1.0496775 -0.19337882 0.122734696 0.9156462 1.853293 -0.31133276 0.07703451 0.88193685
0.06619475 -1.7911303 -0.31645626 0.28565988 1.6426849 0.15174973 -0.27730188 0.2629482
0.22404039 -1.6881369 -0.3181903 -0.1280845 0.99266666 1.0317422 -0.37410828 -0.15284497
0.007326309 -1.5063688 -0.50945264 -0.48028922 0.39485586 2.504942 -0.52496535 -0.50050825
0.11812997 1.3283893 0.27657017 -0.52564704 0.7561049 -0.55309063 0.33915108 -0.4932746
0.44707167 1.1866517 -0.54461795 -0.0013667546 1.02473 -1.1836104 -0.5403043 -0.058083948
1.1021291 0.90274185 0.051704228 -0.8388879 1.1237988 -1.6243219 -0.019351779 -0.9083705
0.712737 0.35083833 0.24492256 -1.738159 -0.6129416 -1.2600778 0.3060243 -1.756355
0.5840041 -0.6724695 0.17593972 -1.708942 -0.06904561 -0.31156093 0.1669822 -1.7501692
0.96363914 -1.4928403 0.31829175 -0.16627863 0.39739797 -0.3381706 0.23448312 -0.21739079
0.47195962 0.44165438 0.44508904 -0.04182417 0.58483016 -1.1036944 0.4583221 -0.108378164
1.0233529 0.16233341 0.2843174 -0.7473766 0.383717 -1.8781377 0.23697457 -0.7406871
1.3924325 -0.0020931906 0.31684247 -0.6198148 0.079508044 -1.6860446 0.42183784 -0.56313205
-0.25931144 -0.81380486 0.006544844 0.8614157 0.7139712 -1.1360805 0.10515304 0.8900016
-0.05191168 -0.415579 -0.08882347 0.30594778 0.48906344 -0.27752846 -0.023210164 0.29684854
0.4003265 0.042521413 0.05986276 3.8719082 0.10696245 0.56046414 0.049109034 3.8763106
0.8700839 -0.15354753 -0.16078706 -0.33317438 0.082109496 -1.237668 -0.21107812 -0.30972913
1.3168246 0.0131681925 -0.081681184 0.06235985 -0.05519905 -1.8666133 -0.12429103 -0.022791604
1.502348 0.243006 0.022305114 -0.19566377 -0.2248974 -2.7918885 -0.017642384 -0.22930714
0.27254015 -0.36358705 0.02390432 -0.59285647 -0.45727903 -1.7629038 0.017317183 -0.56644964
-0.020848708 -0.5773649 0.7268557 -0.6431027 -0.5338824 -1.7862059 0.80851066 -0.6633629

fc1.bias f4 [256]
00000000: dd0a d1bf 20a7 69be aa43 12c0 060d c7bf
00000010: 1407 75bf 7a53 0ec0 6c87 6cbf fb0d 3ebf
00000020: 4ebb d8bf 68e8 69bf c679 1cbf eb21 1cbf
00000030: 0008 a4be 4e76 3ac0 37d4 f7bf 226b d0bf
00000040: 47cc 03bf 04fe 97bf f776 d8bf b8d7 c3bf
00000050: 1fbb c7be d692 11c0 cfa6 bbbf 4145 ebbf
00000060: 6547 8bbf 5924 a0bf 0220 82bf 1b7c 94bf
00000070: 900a 76bf e250 d0bf 02a1 a4bf 01d1 a0be
00000080: 724a 0ac0 6e34 98bf 224a dcbe a5dc e73d
00000090: 13df a8bf f668 92bc 75af 28c0 3741 2cbf
000000a0: ff23 03c0 4319 81bf 1c87 08bf e2b7 8bbf
000000b0: 26ae b3bf 3b2f c6bf 3a24 10bf 71ec bbbf
000000c0: 206e 7dbe 0fca ebbe 63a0 a1bf 1dc7 7dbf
000000d0: 3368 aabf ee9e 57bf 760b 91bf e4ab 95bf
000000e0: e7c2 87bf e790 bebe 50e7 c5bf 5d86 e0bf
000000f0: 1977 bbbf b0d2 0d3d c113 1cbf 5c92 d0bf
00000100: 25a8 3fbf f60f b8bf e4f1 d0bf e2c5 95bf
00000110: 515f 90bf ccc4 57bf 93da 4dbf c858 bfbd
00000120: 4bb3 8ebf e147 f8bf e51a 83bf 4930 57bf
00000130: 3d42 fdbf a2d4 40bf 55b7 9bbf 3a3d d4bf
00000140: 23d2 8bbf e2a1 60bf 59ab 35bf 5228 3abf
00000150: 5a8c 863e 1437 7dbf 31f8 eebe e57b 8bbe
00000160: 3155 abbf 78ee 08c0 f7dd debf f186 babf
00000170: dd98 bebf 4ef8 5cbf 4657 dbbf adea b2bf
00000180: 98e7 54bf 475a 4fbf 04dc f4be e23d 3bbf
00000190: 0b23 f6bf 7fb7 bfbf a9fd 81bf af71 90bf
000001a0: be77 8dbf 49de 45bf 5110 84bf ec5d 28c0
000001b0: 10a1 b6bf bd00 e7bf 528c b8bf 2cb6 793f
000001c0: 38c3 50bf f258 e9bf 8422 96bf 5fd4 ecbf
000001d0: d5ab 7abf 3b3b b9bf 9e5d 17bf 8ab2 f6be
000001e0: 2eac 82bf d383 d6bf 88db 373f 6049 1cbf
000001f0: dc2e 46bf 8ca7 fcbe 063d 36bf eef0 c4bf
00000200: d0ce 7bbf 1086 b9be f7d3 74bf 49a8 e3be
00000210: a388 6a3e 2024 85bf 2d37 82bf cfd0 823e
00000220: 3dce 42bf ebee 3dbf 40ea 18bf 2f10 71bf
00000230: 6ec0 9abf b196 bcbf 00de 0bc0 4ddf a3bf
00000240: 9587 a1be ec40 d2bf 85ec b7bf 4b77 bebf
00000250: 75c7 68bf 00f1 3ebf ef00 c1bf 4e04 a5be
00000260: 2fae 10bf 2e50 63bf 3bcf 02bf 3282 96bf
00000270: c15e 48be 4d1b 67bf c175 b3bf cd2f 7dbf
00000280: 895a 91bf 2466 94bf 1549 36bf d401 f1be
00000290: 4d69 bfbf 8977 c5bf da9a 26bf 6625 64bf
000002a0: 1be9 a8bf d47c 5dbf df53 93bf 7481 29c0
000002b0: f71c 47bf 9259 7cbf 6f93 febf 62f7 c7bf
000002c0: 540f b6bf 46ce edbf 5bd0 5abf 8eb2 cfbf
000002d0: 6080 1bbf 9ae9 25bf 38a7 33bf cf36 ecbd
000002e0: aea9 aa3e 461f f8bf 9e64 d1bf 09e8 37bf
000002f0: d7e8 6ebe 8cc8 abbf a5b6 7ebe 8e35 86bf
00000300: d043 eebe ad72 f8bf b99a 25bf d008 8dbf
00000310: d782 bebf 5457 96bf c5c0 02bf 099c 0140
00000320: 9847 8fbf 343c 06c0 051d bbbf 4027 eebf
00000330: 5e5f 8ebf 54a0 a5bf e3c7 a9bf b4f0 30bf
00000340: 6e27 3bbe 6166 e0bd 7a89 55bf f911 69bf
00000350: 962c 08bf 381a c5be 447e a23e dc17 b6bf
00000360: 5afe 2fbf 2aa4 d9bf 1f03 63bf 8d7a 8fbf
00000370: 271c 86bf 0d1f 6ebf a7f9 75bf 3c17 20bf
00000380: fc1c 9cbf c381 c6bd 1126 85bf e9e6 febe
00000390: 5b4f a9bf d87e aa3d 56ea c8bf 97f6 9bbf
000003a0: d02b 48bf e909 b2bf 7c88 76be ad4b 41bf
000003b0: eff8 1abf ac0b dcbf df7e 8fbf 8c8b 57bf
000003c0: 768a 96bf 2b98 1fc0 26c4 49bf b37a 66bf
000003d0: 906b cebf 420b c5bf 01be 4bc0 fb85 d3bf
000003e0: 14ae 6b3e 54d5 03c0 92be 39bf cd9e fcbf
000003f0: db68 acbf 2650 94bf 5ab5 fabe 629f 6dbf
-1.633144 -0.2281766 -2.28538 -1.555085 -0.95713925 -2.223845 -0.9239414 -0.7424008
-1.6932161 -0.9137025 -0.6112331 -0.60989255 -0.32037354 -2.9134707 -1.9361638 -1.6282694
-0.5148358 -1.1874394 -1.6911305 -1.5300207 -0.3900995 -2.2745872 -1.4660281 -1.838051
-1.0881163 -1.2511092 -1.0166018 -1.1600374 -0.9610987 -1.6274683 -1.2861636 -0.31409457
-2.1607938 -1.1891 -0.4302531 0.113213815 -1.3193077 -0.017872315 -2.635709 -0.6728701
-2.049072 -1.0085834 -0.5333116 -1.0915492 -1.4037521 -1.5483164 -0.5630528 -1.4681531
-0.2474904 -0.46052596 -1.2627071 -0.9913195 -1.3313049 -0.8422688 -1.1331623 -1.1693082
-1.0606354 -0.37219927 -1.5461216 -1.7541004 -1.4645721 0.034624755 -0.6096764 -1.6294665
-0.74865943 -1.4379871 -1.6323819 -1.1701014 -1.1279088 -0.84284663 -0.8041164 -0.093431056
-1.1148466 -1.9396936 -1.0242583 -0.8405805 -1.9785839 -0.7532445 -1.2165323 -1.6581185
-1.0923504 -0.87747014 -0.7096458 -0.72717774 0.26278955 -0.9891217 -0.4667373 -0.27242962
-1.3385373 -2.139555 -1.7411488 -1.4572431 -1.48904 -0.8631638 -1.7136009 -1.3977867
-0.83165884 -0.8099713 -0.4782411 -0.731413 -1.9229444 -1.4977874 -1.0155536 -1.1284693
-1.1052167 -0.77292305 -1.0317479 -2.6307325 -1.4267902 -1.80471 -1.4417822 0.975436
-0.8154788 -1.8230269 -1.1729283 -1.850231 -0.97918445 -1.4471201 -0.59127223 -0.4818309
-1.0208795 -1.675898 0.71819353 -0.6104946 -0.7741525 -0.49346578 -0.71186864 -1.5386026
-0.98362446 -0.36235094 -0.9563593 -0.4446433 0.22903685 -1.040165 -1.0173088 0.25549933
-0.76095945 -0.74192685 -0.5973244 -0.9416532 -1.2089975 -1.4733487 -2.1854248 -1.2802521
-0.31548753 -1.6426063 -1.4369055 -1.4880155 -0.9092935 -0.74586487 -1.507841 -0.32229847
-0.56515783 -0.8879422 -0.5109746 -1.1758482 -0.19567396 -0.9027603 -1.4020311 -0.98901063
-1.1355754 -1.1593671 -0.71205264 -0.47071707 -1.495401 -1.5427104 -0.65080035 -0.89119565
-1.3196138 -0.865186 -1.150997 -2.6485262 -0.7777857 -0.98574173 -1.9888743 -1.562237
-1.4223428 -1.8578575 -0.85474175 -1.6226366 -0.6074276 -0.6480957 -0.7017703 -0.115338914
0.3333258 -1.9384544 -1.6358831 -0.7183843 -0.23331009 -1.3420577 -0.24874361 -1.0485094
-0.46536112 -1.9409996 -0.64689213 -1.1018314 -1.4883679 -1.17454 -0.5107539 2.0251486
-1.1193724 -2.0974245 -1.4618231 -1.8605728 -1.1122854 -1.2939553 -1.3264126 -0.69117284
-0.1827676 -0.10957027 -0.834129 -0.9104305 -0.5319303 -0.38496566 0.31736958 -1.4226031
-0.68747485 -1.7003224 -0.8867664 -1.1209275 -1.0477341 -0.9301613 -0.96084064 -0.6253545
-1.2196345 -0.09692719 -1.0402242 -0.49785545 -1.3227342 0.08324975 -1.5696514 -1.2184628
-0.7819185 -1.3909274 -0.24075502 -0.755061 -0.6053609 -1.7191062 -1.1210593 -0.84197307
-1.1761005 -2.4936626 -0.78814924 -0.90030974 -1.6126575 -1.5394061 -3.183472 -1.6525263
0.23015624 -2.0598955 -0.7255641 -1.9735962 -1.3469499 -1.1586959 -0.48966485 -0.92821324

fc2.weight f4 [256, 256]
00000000: 10b9 c03d 37fe 1dbf 8be8 0cbe 698a 823d
00000010: 078d 873e 7fc6 263e 5942 b03e 8a99 c93e
00000020: 653e 47bf 33f6 0abe e17b 4cbf c213 ffbd
00000030: 3418 1fbf a1e0 293f 07c8 e53d 631e a1bd
00000040: 2567 2ebe 90d9 24be a8a5 08be 2270 99be
00000050: b5c6 53bf 2fc3 e5bb efb2 20bf 62f2 adbe
00000060: ab1a 38bd 5dcb 413b 5676 de3e 8312 733e
00000070: a6bd 1abf 92b0 2cbe 4284 72be 7696 4cbe
00000080: 4cc0 853d cb0f 03be b548 02be 6e50 753e
00000090: 8e30 aabe 3eed 4a3e cd64 39bf 2588 9abe
000000a0: dc16 dfbd 885b b9bd cba9 23bf c727 d43e
000000b0: e4b4 ae3e 8464 3abf 2754 573e 5b60 5c3e
000000c0: 4cc0 4fbd d987 cb3d f709 fbbe acef cd3e
000000d0: 02b5 0a3e 5c13 e4be 964c 50bf 659b c33c
000000e0: ec23 55be b2f2 3ebe 8f7d b1be 4988 d0be
000000f0: 6ada 0d3e fb33 af3e 560f 103f d8c5 89be
00000100: 0a2c 28bc f9c6 c9be 7c52 8b3e 57e5 ca3e
00000110: 7b1a b3be f531 58bc c6fb fc3d 2f5d c9be
00000120: eb44 b93e 1b3c 27be 2678 96be c7e1 853e
00000130: 995b f73e 874d d2be 5069 aa3e 2a2f 96bd
00000140: d78b 1c3e a6e8 f03c 97d5 e63d 0a6d 23bd
00000150: 0301 c2be 3425 18be 616c 76bf 9d7d 80be
00000160: 5c32 4dbe c7ed f9be 537a 9abe 8894 8e3e
00000170: d7c3 b3bd 116a ecbe 0136 3f3d 8105 503e
00000180: bbd6 28be 8f35 c5be 73f4 eabe 6996 5dbe
00000190: 83ee 77be b3d6 e3bd 9e5b b83e 61f6 a9be
000001a0: f7f7 a7bd 48bb 9cbd 9e32 003f cb08 533e
000001b0: fc16 8dbe fd4d 44be 621d 59bf dad4 a73e
000001c0: 7518 103f 7ce2 04bf bc65 11bd d6c8 d3be
000001d0: 5538 35bd f596 563d 6ec8 e53d 00ec cd3d
000001e0: 149f 0fbf 133a d7be 10e0 673d e2c3 f2be
000001f0: 4af8 17bd e12a 59be d27d f13d d0f0 35bf
00000200: edfa da3e 7d4f 1ebf 04f1 81be 2236 0d3e
00000210: d4f3 f83e aede 013e 5800 a5be d4f9 84be
00000220: 623c 43be 4e4d abbe e82b 7b3d a072 0fbe
00000230: a03b 9dbe cba1 25bf 12e2 e23e 003d 31be
00000240: fb02 46be 2050 d1be b5b2 b4be 8b75 acbd
00000250: 4119 9ebc 55aa 35be db57 6cbe 0427 193e
00000260: b48c 1d3e e163 36be 99e4 76be 8a6b a73e
00000270: 9976 333e 23e3 d4be 187c 16be 8770 253e
00000280: a295 4bbe 3e4b 73be 868b 3ebe 60c7 7b3d
00000290: b1cb 4dbf 66ed 03bf ff5a 993d 10d1 2e3d
000002a0: 6aad afbe 552b 5ebf 6dc8 143d 45f1 ba3e
000002b0: 2f43 9cbe d49d 8dbe 1474 d33d d8ca 9bbe
000002c0: 0704 9e3e 367d e2bd c36e 693e 2e58 adbe
000002d0: fdce 11bf f079 ecbd 1c45 0dbe b595 9cbe
000002e0: 52e8 0ebe d4eb 38be 16dd 923b c66d 6cbd
000002f0: 4348 453e 4c7d 4bbe 5792 fdbe 9df0 d93e
00000300: 54cf 8cbe 795e 66be 23ec a6be b49c 353e
00000310: 4150 a3be c281 ddbe 4a8f 95be de18 16be
00000320: 0204 193f 6b89 063e dbf9 9b3e 0ddf 393c
00000330: 8ae8 b4be a7f1 3cbf 130e 15bf ce94 723e
00000340: 6ebe 873e eabd 973e 74e3 723f 53f7 11bf
00000350: ab76 7ebe d397 073e acab c63e e1b8 103e
00000360: 5ebe 2abb 213a c9bd 8642 d8bc 1b3b 2bbe
00000370: 2b3f 82be a418 efbd 8f97 b7bd 27f0 eebc
00000380: 3c17 b8be 6708 f7bc ac85 77be ac56 4dbf
00000390: 159b 263e 0f48 e33c 9a41 523c 70e9 c73c
000003a0: 5945 b3be ae86 6fbd 0a61 37bd 6e7c 97be
000003b0: debb cebd 48ec 473d b02c 00bf de39 9a3d
000003c0: 6cc5 1e3d a1cc b63e 9abe 4dbf 27a6 243d
000003d0: 1d6d c2be 8d19 98bd cfda 0e3f 2cdd 6c3e
000003e0: d93a 87be 5526 ec3e 951b a2be e33d b53e
000003f0: 7999 42be efe7 67bd 84ff 8e3e f919 38be
0.09410298 -0.61716026 -0.13760583 0.06374056 0.26474783 0.16286658 0.3442562 0.39374954
-0.7782958 -0.1357048 -0.79876524 -0.124549404 -0.62146306 0.6635838 0.11219793 -0.07867124
-0.17031534 -0.16098619 -0.13344443 -0.29968363 -0.8272508 -0.007011793 -0.6277303 -0.33973986
-0.044947308 0.0029570677 0.43449658 0.2373753 -0.6044563 -0.16864231 -0.23683265 -0.19979271
0.06530818 -0.12798993 -0.12723048 0.23956463 -0.3324017 0.19817063 -0.72419435 -0.30181995
-0.10893032 -0.09050661 -0.6393096 0.41436598 0.34122384 -0.72809625 0.21028195 0.21521132
-0.050720498 0.0993802 -0.4903104 0.40221918 0.13545612 -0.4454602 -0.8136686 0.023877809
-0.20814484 -0.18647268 -0.34666106 -0.40728977 0.1385285 0.34219345 0.562734 -0.26908755
-0.010264406 -0.39409617 0.27211368 0.39628097 -0.3498114 -0.013195504 0.123527095 -0.39328906
0.36185393 -0.16331522 -0.2938854 0.26148817 0.4831207 -0.41074774 0.33283472 -0.073332146
0.1528772 0.02940781 0.11271208 -0.03989891 -0.37891397 -0.14857942 -0.96259123 -0.25095835
-0.20038742 -0.48814222 -0.3017145 0.27847695 -0.08777588 -0.46174672 0.04668236 0.203146
-0.16488163 -0.38517424 -0.45889625 -0.21639408 -0.24212079 -0.11124935 0.36007398 -0.33195785
-0.082015924 -0.076529086 0.50077236 0.20608823 -0.27556598 -0.19170375 -0.8481046 0.3277958
0.5628732 -0.5190809 -0.035497412 -0.41364163 -0.044243176 0.052390058 0.112198696 0.10054779
-0.5610211 -0.42036495 0.056610167 -0.47415072 -0.03710202 -0.21207763 0.117915764 -0.71070576
0.42769566 -0.6184004 -0.25379193 0.13790181 0.48623526 0.12682602 -0.32226825 -0.25971854
-0.19066003 -0.33457416 0.06132117 -0.1400857 -0.30709553 -0.647 0.44313103 -0.17308426
-0.19337074 -0.40881443 -0.35292593 -0.08420857 -0.019299151 -0.17740758 -0.23080389 0.1495629
0.15385705 -0.17811538 -0.2411064 0.32699233 0.1752571 -0.41579542 -0.14695776 0.16156207
-0.19881299 -0.23759171 -0.18607911 0.061469436 -0.80388933 -0.51534116 0.07488059 0.042679846
-0.34311992 -0.8678487 0.036323953 0.365122 -0.30520007 -0.27659476 0.103248745 -0.30428195
0.30862448 -0.11059038 0.22796158 -0.33856338 -0.56956464 -0.11546695 -0.13795894 -0.30582967
-0.1395581 -0.18058711 0.004481922 -0.057721876 0.19265847 -0.19872016 -0.4952571 0.42566386
-0.2750193 -0.22496976 -0.32602033 0.17735559 -0.31897166 -0.4326306 -0.29210883 -0.14657924
0.5977174 0.13138358 0.30464062 0.011344683 -0.35333663 -0.7380623 -0.582246 0.23689577
0.26512474 0.2963708 0.94878316 -0.5701801 -0.24849956 0.1324151 0.3880285 0.14133026
-0.002605341 -0.0982554 -0.026398908 -0.16721766 -0.25438818 -0.11674622 -0.089644544 -0.029167248
-0.35955226 -0.030155374 -0.24172086 -0.80210376 0.16270097 0.027744321 0.012833023 0.024403304
-0.35013846 -0.05847805 -0.044770278 -0.2958712 -0.100944266 0.04880932 -0.5006819 0.075305685
0.038762495 0.35702994 -0.8036896 0.040197518 -0.37973872 -0.074267484 0.55802625 0.23131245
-0.26412085 0.46122995 -0.31661668 0.35398778 -0.19003858 -0.056617673 0.27929318 -0.17978658

fc2.bias f4 [256]
00000000: 01b4 15be ebab 03bf d151 28bf 1677 adbe
00000010: 188d 86be 2585 3bbd 559d b43c 1fad 1abf
00000020: e1d7 e4be f961 92bc 4533 54bf adec 49be
00000030: 31ed b83e 6e2c f0be 7651 c8be 1d16 45bf
00000040: 6a37 da3e ddac c9be e173 bebe 7bfa e2be
00000050: 0a79 9ebe a2ad acbe 7dac 8bbf 4ac3 e3be
00000060: 3caf 08be 694e cbbe 542a 83be 2603 cdbe
00000070: 936b 08bf 01fe ed3d ca61 a2be 8b2c b43d
00000080: 88e9 10bf 5147 80be ba10 a4bf 9143 22bf
00000090: 0280 98be 1202 8dbf 4dde bbbe c74c f3be
000000a0: 8c00 1bbf edd7 063f 29c9 86be f507 9bbe
000000b0: df71 d5bb e79b 14be 92ac 7dbe df50 f3bc
000000c0: 4442 29bf 4c77 29bf e1aa 28bf c662 27bd
000000d0: b92b efbd ea07 17bf 932e 78be acbe 35bf
000000e0: 5b86 49bf d57e 0cbf b596 09bf 79ca a0be
000000f0: 808e 4fbe 7238 04be d1ad 90bd 9e0e 5bbf
00000100: e3c1 39be fd9f 08bf 64bf 18bf a63d ccbe
00000110: 37b8 d2be 6aa1 7cbe cf83 e43d 27e6 46bf
00000120: 155d 87bf 3879 f73d 0295 3dbf d16d 8bbd
00000130: bd71 babd 5b3e 4abf 0526 02bf a647 69bf
00000140: ffd4 00bf 8663 edbe 2a6a 14bf 442f be3d
00000150: a8a3 8bbe 6467 9bbe f2e7 19bf 8a5e 12be
00000160: 7422 cf3d a2ad 01bf 6260 9fbe caf0 02bc
00000170: a49a cfbe 8815 e6be 0aec 15bf 40ba 09bf
00000180: c97e 17bf 6212 1abf 9ce3 a7be a352 25be
00000190: a333 19be 2746 06bf 4a75 dcbe 0f9b 63bf
000001a0: 8d37 14bf 3a24 13bf c8b9 97be f106 5ebe
000001b0: 792c 87be b3df 23bf 9659 37be 4a71 01bf
000001c0: 1275 a03d 2a42 76bc f5bd 75be abed 213c
000001d0: 1acc 3cbf c403 00bf 9947 4f3e 9d1f 02be
000001e0: ee9b 4cbf cd66 32bf 7945 c5be d7c9 8cbf
000001f0: 5a90 09be 1f1a 0cbe 585a febe 90d2 0fbe
00000200: 82ea 87bd 65ed cf3e 511a a7be 6d7d 92be
00000210: 8514 02bf 85ab efbe 1f94 17bf 2793 08bf
00000220: 8712 63bf 446e 0ebf 6e28 dcbe 0322 a5be
00000230: 2be7 33bf 8f82 67bf 351c 39be 8d07 c0be
00000240: 9d1e 5cbe 9cee 09bf 0b69 41be 7d3a 90bf
00000250: 7862 f9be f319 fdbe d538 16bf 71de 0ebf
00000260: fb9b debe 4349 6dbf 4872 bfbc 19e1 cebe
00000270: 272a a2be 5a51 85bf 3a85 d23e 383a 43be
00000280: 0324 62be 9497 69be d4ab 3f3e dfc1 ed3b
00000290: d319 76be 5ff4 303e f814 9cbe 6f85 6abf
000002a0: c3f2 22bf 2225 a4bd af20 debe eedd 2bbf
000002b0: be3a 22bf a649 babe e86e 40bf 9fd9 89be
000002c0: d665 153d 746e 68bf 40d6 11bf be2b ffbe
000002d0: 851b b6be 71fe bebe 491e 16bf 649a 49bf
000002e0: 2259 86be c75b 13be 23f8 cdbe c88a 14bf
000002f0: 7f14 33be 69f8 60bf a14d f8be 0b30 4e3e
00000300: 0f45 03bf 3152 29bf 2ec2 12bf 5994 3fbf
00000310: 83b4 bfbe 1c3e 74bf ab88 4bbe 377c 84be
00000320: d0ea 6fbe b2c8 f2be f3d6 6abf a0c1 51bf
00000330: b569 83bf 8ca6 17be a753 a4be 6148 71bf
00000340: b934 01bf 3b6b 64bf 724c 6bbf 28a8 4abf
00000350: dd4b 28bf bbce e8be a592 30bf b94d 3cbf
00000360: aa65 11bf d596 4dbf c33d b7be 0fe2 0ebf
00000370: 1109 60be dfa3 18bf c878 85bc 8c21 0cbf
00000380: 7ae1 27bf 1340 4ebe 2501 c33c fae0 86be
00000390: 53e6 f0be 0672 81bf 8bda 2fbf b27a 83bf
000003a0: c03b 8b3b bd4a 303d 1b4f 683e ee45 67bf
000003b0: e5d4 0fbf c6d7 5ebe 4ffb 30bf 854f d6be
000003c0: 5d53 02bf 62cd 88bf 9259 4d3e c5c0 19bf
000003d0: 0e13 46be 70ba 15bf 50bc 22bf aaa7 01bf
000003e0: f53b 32be 0282 86bf 7553 11bf b89d 0cbe
000003f0: f81f e7bd 3f67 ddbe 7f47 d0be 2474 abbe
-0.14619447 -0.514342 -0.6574984 -0.33879918 -0.2627952 -0.045781273 0.022047678 -0.6042041
-0.44695953 -0.017868983 -0.8289073 -0.19719191 0.36118463 -0.46908897 -0.3912465 -0.7698687
0.42620403 -0.39389697 -0.37197784 -0.44331726 -0.3095172 -0.3372622 -1.0912014 -0.4448493
-0.13348097 -0.3970826 -0.2561823 -0.40041465 -0.53289145 0.11620713 -0.31715232 0.087975584
-0.5660634 -0.2505441 -1.2817605 -0.6338435 -0.29785162 -1.1016257 -0.3669304 -0.47519514
-0.6054771 0.52673227 -0.26325348 -0.30279508 -0.0065138186 -0.14512597 -0.24772862 -0.029701648
-0.6611674 -0.6619766 -0.6588574 -0.040865682 -0.11678261 -0.5899645 -0.24236517 -0.7099407
-0.78720635 -0.5488103 -0.53745586 -0.31404474 -0.20269203 -0.12912157 -0.07064403 -0.8556918
-0.18140368 -0.5336912 -0.5966704 -0.39890784 -0.4115617 -0.2467095 0.11157953 -0.77694935
-1.0575281 0.120836675 -0.7405549 -0.06808055 -0.09103725 -0.79001397 -0.50839263 -0.9112495
-0.50325006 -0.46364993 -0.57974494 0.09286359 -0.27273297 -0.30352318 -0.60119545 -0.14293876
0.10113993 -0.5065557 -0.31128222 -0.007991979 -0.4054767 -0.44938302 -0.5856329 -0.5379982
-0.59177834 -0.601843 -0.3279084 -0.16144805 -0.14961104 -0.52450794 -0.43058234 -0.88908476
-0.57897264 -0.5747715 -0.29633927 -0.21682335 -0.26401117 -0.6401321 -0.17905268 -0.5056349
0.078348294 -0.015030423 -0.23998244 0.009883325 -0.73748934 -0.50005746 0.20242156 -0.12707372
-0.7992543 -0.6968811 -0.38529566 -1.0999097 -0.13433972 -0.1368184 -0.49678302 -0.14045167
-0.06636526 0.40610805 -0.32637265 -0.28611317 -0.5081256 -0.46810547 -0.5921039 -0.53349537
-0.88700145 -0.55637 -0.42999595 -0.3225251 -0.7027461 -0.9043359 -0.18077166 -0.3750576
-0.21496053 -0.53879714 -0.18887727 -1.1267849 -0.48707938 -0.4943386 -0.5868047 -0.5580817
-0.4347838 -0.92689914 -0.023369923 -0.4040611 -0.31672785 -1.0415452 0.4111727 -0.19065177
-0.2208405 -0.22811729 0.18717891 0.0072557773 -0.24033289 0.1728072 -0.30484748 -0.91609854
-0.63651675 -0.08014895 -0.4338431 -0.6713551 -0.63370883 -0.36384314 -0.7516923 -0.26923844
0.03647407 -0.9079354 -0.56967545 -0.4983806 -0.3556787 -0.37303498 -0.5863996 -0.78751206
-0.26239878 -0.14390479 -0.40228376 -0.58024263 -0.17488287 -0.87879044 -0.48496726 0.20135514
-0.5127725 -0.6614104 -0.57327545 -0.74835736 -0.37442407 -0.9540727 -0.19876353 -0.25876018
-0.23429418 -0.47418743 -0.91734236 -0.81936073 -1.0266634 -0.14809626 -0.32095072 -0.94251066
-0.50471073 -0.8922612 -0.9191352 -0.79162836 -0.6574076 -0.45470223 -0.6897376 -0.73556095
-0.5679575 -0.80308276 -0.35789308 -0.5581369 -0.21878459 -0.5962505 -0.016292945 -0.5473869
-0.65578425 -0.2014163 0.023804257 -0.26343518 -0.47050723 -1.0112922 -0.68692845 -1.0271819
0.004249066 0.043040026 0.22686426 -0.9034108 -0.56184226 -0.21761999 -0.69133466 -0.41857544
-0.5090845 -1.0687678 0.200537 -0.6005977 -0.19343206 -0.58487606 -0.6356859 -0.5064646
-0.17405684 -1.0508425 -0.5676797 -0.1373204 -0.112853944 -0.43242833 -0.40679547 -0.33487046

fc3.weight f4 [2, 256]
00000000: aaed 23be a6af cebe 106d d33e e061 0dbf
00000010: 316e 64bf 0d1c 713f 817c 4ebf 39b0 9abd
00000020: 67df 31bf 2185 ccbf 0a6a 02bc e7fb 7abf
00000030: c08d fdbf 6f28 7e3d 5e62 853f ad05 de3f
00000040: 5a22 8fbf 440f 4a3f 3431 553c 96bc 433f
00000050: ff7c 3c3d 81bc 58be 55c8 2c3f 2918 20be
00000060: 3f5a d53e 4f38 6d3f 4d24 873f 2acb 4e3c
00000070: aa72 553f 05b8 4a3e dcc3 c73f 80fe d7bf
00000080: 2118 5ebe e57b 55be 421d c13e b759 2a3d
00000090: b001 cf3c 5d19 4b3f 5e5d bfbd cc5d 4cbf
000000a0: 6197 b6bd 0763 5cbf 79f9 c0bf eabc 83be
000000b0: 698d a1be 8aa1 1fbf 83c4 5ebf 7ef7 1c40
000000c0: 04ab 0c3f 395f 623f 991b 13be 89c1 af3f
000000d0: edac 9ebd 50ce 2fbd c52e 803f 10d8 8d3d
000000e0: b7bc e3be ed1d 46be cb5a e33d d749 2ebf
000000f0: 1fad c0bf 9693 8f3f dd01 8abf 8b5e 3c3e
00000100: 1582 253f b372 39bf d4af 2e3e 0011 c33d
00000110: 424c 853c 5b74 263e 3849 89bf 020a 7b3f
00000120: acc1 453f 83f1 ad3e 2524 073f ef72 4dbc
00000130: 0854 d93d 8581 023f 204b 52be 5fee b53e
00000140: 7dd7 c3bf bea4 32bd 39f9 a0be 803c 36bf
00000150: a3b8 aabe 8bf3 7f3f 8b1f e0bf 2749 1c3e
00000160: 0a77 83bf 6787 81bc 118b 873d 9e91 98bf
00000170: bfb8 3e3f 0514 bf3f 9f37 933f 99ac 0940
00000180: 8e58 e43b 8a99 1b3f 82f7 2d3e e13e 893f
00000190: 2144 c43c f2aa 4f3f 0491 38bf 9d19 c13d
000001a0: 9193 3f3e e7b1 4a3e 5c7d 0d3e 9980 e33f
000001b0: 190d 443f 8f2e d53d f92d 52be 878b 92bf
000001c0: 93b3 99bf 6d3a 3fbf 7be9 733e c487 0bbf
000001d0: 941a 163f c7f6 acbf f248 9c3d 0f14 3bbf
000001e0: 0fd5 c73f 3789 8a3d 133e eb3d 1386 873e
000001f0: c0db acbf 8ec1 85bd 9b98 fabf a747 0bbf
00000200: ec2b 9abc e6cf 1bbf 7b99 283f 8703 20be
00000210: 8cf3 983e 35ec 45be 6d05 ecbf 154c d33e
00000220: 9532 68be 3797 8f3e e352 1abe cb85 cd3f
00000230: 52fb 0240 d749 e7be b20a c7be 5819 83bf
00000240: 720f ea3f 750d 06bf 6982 a93e 05df a63f
00000250: 8273 173f 8caa 9b3f 30ed af3e 7fcb b73e
00000260: 367d 1dbe de18 003f 5f5b bf3e 2b7e efbd
00000270: 041b d53f e519 393f 0663 a2bf c8fb ce3e
00000280: b384 363e 2988 dfbe fd5f e3bf 8b68 44bf
00000290: edf1 cbbf 1360 b9bf 5a60 9fbe 06a8 843e
000002a0: a1c5 5cbe d270 e73e 5fa8 20be ae15 663f
000002b0: 4ae7 993f 9e00 503f df3b 803f 9b58 ef3d
000002c0: 4e60 86bf 7e3d 3e3f ee6a e93c a600 0040
000002d0: 1692 cbbf d741 ee3e 9102 1b3f 6fb4 b3bd
000002e0: 9d15 3a3f 207f 58bf 4045 25bd 6473 35be
000002f0: 5486 d7be 624e 883e 7b4d 91be b439 0f3e
00000300: 3eb5 813e 2390 1ebf 774c 95be 787e e8be
00000310: 7ca4 a5bf c95a e5be 0633 7f3e ad78 9fbf
00000320: f40d c53e dfc9 b9bc 0db9 31bd da40 c73e
00000330: c6b9 323f 5703 08bf c7cf 26bf 1508 383f
00000340: 28ef d0be 3c1a 823f e562 3f3f 4d61 803e
00000350: de93 d33e f31a 2abe d9ec 433e ec1b 393f
00000360: f6b3 c83d ba7f b63e 9661 8fbf ee14 163e
00000370: 845e 183e eb36 2a3e 36c6 253f 404e 003f
00000380: 8bd6 f7be 7317 40bf 2bda a1bf 2891 8abf
00000390: 6328 9dbd 6485 fdbe b632 42bd f11a 503f
000003a0: bdf7 77be 35e4 85bf 596c 00be 73bf 78bd
000003b0: 9874 c63d d3c8 a7bf cf6a 26bf 1de3 b9bd
000003c0: b58d f2be 340d a03e 8698 22be d53d 963f
000003d0: a49c 2f3d 79f3 ca3e 5465 133f 4737 12bf
000003e0: da5a 99bf 37d7 493f e6b7 6a3e 4d70 593e
000003f0: 8380 9ebc 18c6 25bf c243 7bbe 3b6d 9b3c
-0.1600863 -0.40368384 0.41294146 -0.5522747 -0.8923064 0.9418343 -0.8065873 -0.07553143
-0.6948151 -1.5978128 -0.007959852 -0.9804062 -1.9808884 0.06205028 1.0420644 1.7345482
-1.1182358 0.78929543 0.013012219 0.76459634 0.046017643 -0.21165659 0.6749318 -0.15634216
0.41670415 0.92664045 1.0557953 0.01262168 0.8337809 0.1979676 1.5606647 -1.6874542
-0.21688892 -0.20848043 0.37717634 0.041589465 0.02526936 0.79335576 -0.0934398 -0.7983062
-0.08915592 -0.86088604 -1.5076133 -0.25730067 -0.315532 -0.62355864 -0.87018603 2.4526057
0.5494845 0.8842655 -0.14365996 1.3730937 -0.07747827 -0.042921364 1.0014273 0.06925976
-0.44479915 -0.19347353 0.11101302 -0.6808142 -1.5052832 1.1216915 -1.0781819 0.1839544
0.64651614 -0.7244064 0.1705926 0.09524727 0.016271714 0.16255324 -1.072547 0.98062146
0.77248645 0.3397332 0.5278953 -0.012539609 0.10611731 0.5097888 -0.2053647 0.35533425
-1.5300137 -0.04361414 -0.31440142 -0.71186066 -0.33343992 0.9998099 -1.7509626 0.1526228
-1.0270703 -0.015811635 0.06618322 -1.1919439 0.7450065 1.4927984 1.1501349 2.1511595
0.0069685644 0.60781157 0.16988948 1.0722314 0.023958268 0.81120217 -0.72096276 0.094287135
0.18708636 0.19794427 0.13817352 1.777362 0.76582485 0.10409271 -0.2052535 -1.144883
-1.2007927 -0.74698526 0.23819534 -0.54504037 0.58634305 -1.351281 0.07631101 -0.7307748
1.5611895 0.06764453 0.11486449 0.26469478 -1.3504562 -0.06531058 -1.9577821 -0.5440621
-0.018819772 -0.608641 0.6585919 -0.15626346 0.29873312 -0.19328387 -1.8439156 0.41268983
-0.22675546 0.28045055 -0.15070681 1.6056455 2.0465894 -0.45173523 -0.38875347 -1.0242109
1.8285964 -0.52364284 0.33107308 1.303681 0.59160626 1.2161422 0.34360647 0.35897443
-0.15379795 0.50037944 0.37374398 -0.116939865 1.664887 0.72305137 -1.268647 0.4042647
0.17824058 -0.4365857 -1.7763668 -0.7672202 -1.5933205 -1.4482445 -0.31128198 0.25909442
-0.21559764 0.45203263 -0.15689228 0.8987683 1.2023709 0.8125094 1.0018271 0.11686822
-1.049814 0.7431258 0.02849337 2.0000396 -1.5903957 0.46534607 0.6055079 -0.08774649
0.7268923 -0.8456898 -0.040349245 -0.177198 -0.42094672 0.266223 -0.28379425 0.13986856
0.2533359 -0.61938685 -0.291599 -0.45408988 -1.2940822 -0.44795826 0.24921808 -1.2458702
0.38487208 -0.022679267 -0.04338937 0.38916665 0.6981472 -0.53130096 -0.65160793 0.7188733
-0.40807462 1.0164256 0.74760276 0.25074235 0.4132375 -0.16611843 0.19133319 0.7230823
0.0979995 0.35644323 -1.1201656 0.14656422 0.14879805 0.16622512 0.6475557 0.501194
-0.4840587 -0.7503578 -1.2644705 -1.0825548 -0.07673719 -0.4951583 -0.047411643 0.8129111
-0.24215598 -1.0460268 -0.12541331 -0.060729455 0.09690207 -1.3108162 -0.65006727 -0.090765215
-0.4737374 0.31260073 -0.15878496 1.173762 0.042873994 0.3963888 0.5757649 -0.57115597
-1.1980851 0.78844017 0.22921714 0.21234246 -0.019348389 -0.6475539 -0.24537566 0.018972984

fc3.bias f4 [2]
00000000: 02e0 bdbe b2ba 133f
-0.37084967 0.5770675

bn.weight f4 [256]
00000000: d8b2 f33d 545a 363f 766d c43e 777a 0fbf
00000010: e644 ccbb cf30 6d3e 1cb9 453e 98ae 97be
00000020: bf38 073f 6e83 a13e 2076 a33c 3c91 9d3e
00000030: 96b9 0e3f 41e9 0440 8f84 e13e f0e7 fdbe
00000040: 9733 4ebe dad1 f33d ee82 a43e 5511 1c3f
00000050: 33c5 fb3e 2b9e 873f 749a 9c3f 8cbf bcbd
00000060: 249e ac3e db7a 8e3e d7d2 ac3e c98a cb3c
00000070: 971d d53e ce6f bbbe 6e9e a03e 5c48 3d3f
00000080: c353 a83c 532d f9be 327c 073f 2d3d f93e
00000090: fac3 763e 672b 7f3f 71ed 7c3e 0f4e b0bf
000000a0: bf2d 6e3f 0124 fdbd 4fd0 543f 74f5 5cbe
000000b0: 3325 a03e bcea ed3e 88d9 d23f a813 a03e
000000c0: c714 553f b1f9 813e 0b37 083f 145d 603f
000000d0: 7191 b93e 9c05 393e 5810 ef3e ee04 163f
000000e0: 6d49 0940 512c e53c 3df0 943d c72d ae3a
000000f0: 56e0 933e b56f b23f a3ba 7d3d 3a1a 953e
00000100: 929a 843f 5e3d b0bd 919d 4c3e 6117 c73d
00000110: b534 763d 8a9e 68be 2b32 5d3d cbb6 073f
00000120: c78e 0c3f b066 843e 3f02 fa3d 1950 563e
00000130: e362 4a3e 7c57 ad3e 3295 d73d 20dd af3f
00000140: 5901 d33d af67 273f 6105 003d 2fb4 023f
00000150: 47b1 f73e 81e2 9f3e b46f 893f 8412 c8be
00000160: 3ed1 a13e dc7c 563f b913 913f bd0a 473e
00000170: 9d94 c63e f70b fb3e bd90 1f3f 89d1 993f
00000180: f5ad 2d3d 9a7a 4a3d 353f b73e 2da4 743f
00000190: a9ca 243f a806 ae3f 0135 b43d 9dd7 c63e
000001a0: 415b 143f bf27 1ebe 0945 d43e 8451 d53e
000001b0: b7b1 6a3e b770 633e 3086 ea3d d97c e63f
000001c0: e837 a43e 8a9e 143f ebdf 62bd 128d 1fbe
000001d0: 5031 f73c 3faf e93e 1323 89bc 2f13 ea3d
000001e0: 82a6 203f d7c3 0e3f de4f 3440 b060 d63e
000001f0: 8c1a 883e a7fc 3a3f 2f1f 323f a9a2 ae3e
00000200: 6ba3 5b3c df35 4e3f ae8f 2c38 c080 a03f
00000210: c36e a43e 56a6 963e 5415 9a3e dbba 063f
00000220: 97e5 f13e 7844 8f3f 21c4 113f 3cd8 573e
00000230: 4d8d 903c ee1a 7bbd d77d f93e 3cc7 323f
00000240: a3ca 13bd a209 943f 55ee 403f 8a16 97be
00000250: 8f29 4b3f f69e df3c 99f1 5e3e 5c30 9e3e
00000260: 143a d03f 965a 973e 0134 d93e 2dd8 faba
00000270: ecec 79bd 570b 083f d502 be3d 1ae4 3c3e
00000280: 84df 093f 958b df3e 9609 d83e eb79 1abc
00000290: 77ab c83e 8698 b8bd 6f24 403e b184 8fbe
000002a0: 104a 163f f3c0 983e e498 1d3f 875e 923f
000002b0: 4f18 903c a1ed 863f c3c5 a1be 2c6e af3d
000002c0: c267 0abd e714 103d 06ab bebc 1e85 e93d
000002d0: f031 db3f dfc6 9cbd bcc8 95bc a2ea 4d3f
000002e0: ae03 54bc 8cf1 8c3e 6f8b 653d 14b5 ef3e
000002f0: 43eb e83f 507c 1e3e d7c7 0e3e fe2f 04bf
00000300: 66ed 7e3f 0f72 0f3e 04de 683d d5ab 173f
00000310: b552 913e 8545 e73f 87ac c63e 8e36 2440
00000320: 8979 233c ee2d 3e3f a23c 9f3d 9a0d 4d3e
00000330: 5706 e03e 54de e43e 1a91 973e 89df d23d
00000340: eec7 1a3f b044 1abd f223 603f f407 cd3e
00000350: 3aac 503f fb1f 9f3f 99f9 da3f 9331 5fbe
00000360: a211 16bd 82d9 be3e 416b 143d c734 4dbd
00000370: cdb7 073f 50ac 5b3f 25b7 b2bf b276 6b3f
00000380: 794f 653f addd e43e 5118 b93e e296 c93e
00000390: ddcd 633f 2dda 513f 765e 513e 65bd 2c3f
000003a0: fd1b 263e ecee 0b3e 9527 263f 7470 5f3f
000003b0: e39a d43e ffb3 f53e bcc2 463f 7d8d 353f
000003c0: e7fd d33f 8870 4a3b 2dec 773f 1a06 1c3e
000003d0: 4ba5 73be c7e2 c73f b109 033f 6f1e 8c3e
000003e0: 5038 3d3f 6593 5a3f 2901 f3bb b188 6fbe
000003f0: 751a 6d3d 73c0 c93f 9c26 193f 2abb bd3f
0.11899346 0.7123158 0.38364762 -0.5604624 -0.0062337993 0.2316315 0.19308895 -0.29625392
0.5282096 0.31545585 0.019953787 0.30774868 0.5575193 2.0767367 0.44046447 -0.49591017
-0.20136867 0.119052604 0.3213114 0.60963947 0.4917389 1.0595144 1.2234635 -0.09216222
0.33714402 0.27828106 0.33754608 0.024846451 0.41624138 -0.36608738 0.31370872 0.73938537
0.020547753 -0.48667392 0.5292388 0.48679486 0.24098197 0.996756 0.24699952 -1.3773822
0.93038553 -0.12360383 0.83130354 -0.21578008 0.3127838 0.4646815 1.6472635 0.31264997
0.8323483 0.25385812 0.5320899 0.87642026 0.36243775 0.18068546 0.46692157 0.5860127
2.1451066 0.027975233 0.07272384 0.0013288789 0.28882092 1.394034 0.06194557 0.29121572
1.0359671 -0.08605455 0.19981982 0.09721256 0.06010886 -0.22716728 0.054002922 0.53013295
0.5490536 0.25859594 0.1220746 0.20928992 0.19764285 0.33855808 0.105265036 1.3739357
0.103029914 0.65392584 0.03125513 0.5105619 0.4837744 0.31227496 1.0737214 -0.39076626
0.31604952 0.8378427 1.1334144 0.1943769 0.38785258 0.49032566 0.6233023 1.201707
0.042402226 0.04943333 0.3579041 0.9556301 0.64371735 1.3595781 0.08799172 0.38836375
0.5795174 -0.1544485 0.4145892 0.41663754 0.22919355 0.22210966 0.114513755 1.800685
0.32073903 0.5805441 -0.055389326 -0.15581158 0.030174881 0.45641515 -0.016740358 0.1142944
0.6275407 0.5576758 2.8173747 0.41870642 0.26582754 0.73041767 0.6957883 0.34108475
0.013405661 0.8055095 4.1141808e-05 1.2539291 0.32115754 0.2942378 0.30094397 0.5262887
0.47245476 1.119277 0.56939894 0.2107858 0.017645502 -0.06130498 0.4872882 0.6983526
-0.03608192 1.156544 0.75363666 -0.29509383 0.7936029 0.027297478 0.2177185 0.3089627
1.6267724 0.295613 0.42422488 -0.0019137912 -0.061016962 0.53142303 0.09277884 0.18446389
0.5385668 0.4366118 0.42194813 -0.009428482 0.39193317 -0.090134665 0.18763898 -0.28030923
0.5870676 0.2983471 0.6156142 1.1435097 0.017589716 1.0541269 -0.31596193 0.085659355
-0.033790357 0.035176184 -0.02327491 0.11402343 1.7124615 -0.07655119 -0.018284194 0.80436146
-0.01294033 0.27528036 0.056041177 0.4681784 1.8196796 0.15477109 0.1394342 -0.5163573
0.9958099 0.14008354 0.056852356 0.5924657 0.28383413 1.8068091 0.38803503 2.5658298
0.009977707 0.74288833 0.07775237 0.2002472 0.43754837 0.44700873 0.2960289 0.10296542
0.6046132 -0.03766316 0.8755485 0.4004513 0.81512797 1.2431635 1.7107421 -0.21796255
-0.03663791 0.3727532 0.036235098 -0.05009916 0.5301483 0.85809803 -1.3962141 0.9197799
0.8957439 0.44700375 0.36151364 0.39372927 0.88986 0.81973535 0.2044619 0.67476493
0.16221614 0.1366536 0.6490415 0.87280965 0.4152442 0.4798889 0.7764089 0.7091902
1.656186 0.0030889828 0.9684475 0.15236703 -0.23793523 1.5616082 0.5118666 0.2736697
0.7391405 0.85381156 -0.00741591 -0.23391987 0.05788656 1.5761856 0.5982454 1.4822743

bn.bias f4 [256]
00000000: b205 06be 82eb b43f 8620 42bf dff1 5dbe
00000010: 2489 8dbd d6ea 06be d89e d93d dfd4 b8bf
00000020: 9912 563e 0e6f 793b bf80 3a3c 75de b6bc
00000030: 0a7a c23f df6c bfbf 156e 26bf 0845 8dbd
00000040: 5956 4cbc fb1f 2b3c b5de 9f3d 7ed0 653f
00000050: 9a45 9b3f e8ba c6bd a35a ce3f 841a 903d
00000060: e0bf 43be f45c d13f aecf 583b 48be 47bd
00000070: 6252 173e 1330 6b3d 669b ef3b e9f1 f2bd
00000080: 6617 0dbe d982 853f b074 083f 34cf 5f3e
00000090: 0d4b b23d 25a7 55be 1d9e dc3d 3c7f 65bf
000000a0: b6bd 6f3f a281 593d 8c3c 773f 3563 08c0
000000b0: 2b69 14bd c90c a1bc d28d 813f 2737 02be
000000c0: 741b 0a3d 1c79 40be 18fa f83e 12f0 2abe
000000d0: 2dc8 1e3e d8f5 cfbb 0452 643e 4480 07bd
000000e0: f67d 4b3f 4aac 36bc eb0c 723b 334c 86be
000000f0: f890 9d3d a833 843e 6529 67bc 43ac d43d
00000100: 79c3 373f 39dd a6bc c787 193e ae2a 17be
00000110: 2921 3a3b e7ea 723c 6ccf 953d 1705 0ebc
00000120: 7f37 d13e fff9 be3d 3dce 9f3f 0c65 eebf
00000130: e50a f4bd 5885 173e e83d 8dbc 035d 303f
00000140: c9cb 55bd 3ebe 333e 5248 32bd 13f9 0d3d
00000150: 840e 3b3e 2e94 bcbd 9dbb 9e3e 99a0 8ebd
00000160: 1c02 0f3e 55f0 323f 8301 27bf 5437 65bd
00000170: f045 9ebc f601 7e3f 2da2 4d3e 4632 f93e
00000180: 178f 373a 68d1 643f dfb8 973e 0460 573e
00000190: 3b47 a43e df09 3c3f 5b23 91bd bc0e 923d
000001a0: 6255 f43e 0796 c8bb d742 58bf de94 593d
000001b0: 2700 8bbd dc04 d93d 688d 253e e4ac c0be
000001c0: ea0c 9cbe 8983 883e 4397 f53c f6f7 c8bc
000001d0: a3d2 28bd ae90 e13d 86d0 3bbd 56c3 363e
000001e0: 3b3a f43d f747 353f 0c5f ea3f f1e5 943f
000001f0: e443 f23e 1eaa c7bc fd80 a7bb bd97 1e3e
00000200: 1836 95bd 4a3a 89be 5110 f73b 5791 533f
00000210: 13e9 a5bd fc7b bfbc 7e17 e43b bafe 16bf
00000220: 6eca e13d 3cf6 333f 0013 bdbc 3f30 833c
00000230: 7d9f 303e 09de 2b3d 661c c2bf 904a 02be
00000240: 14ae ad3f 38ab 743e 3573 7a3e cb28 89bd
00000250: 1536 d6bf 03d8 74bc 7a0b 2c3e a642 a9ba
00000260: 413d a13f 80db 613d f401 993e fd1d a4bd
00000270: 1c3e 073c 15c5 673e dfe9 1fbd 841b 43bd
00000280: b141 ac3e 4f1b cf3d 3ba6 bd3e f953 da3d
00000290: 42ee be3d 05ad be3e 1f1c c33d 3a82 85bd
000002a0: 2df6 0e3e d552 673e 859e cd3d 66bc 8abf
000002b0: 1564 31bc 853a 053f 1dde d5bb 6cad cebd
000002c0: 4410 343c 9652 923c ae1d b83c b6ba 9c3d
000002d0: 02be 3140 979c 003d f697 67bc 39c3 823e
000002e0: 22ab d93f 041e 64be 648e 343a e284 1a3f
000002f0: d837 0f3e 92c0 d43c 057e c73e d8a5 24bf
00000300: 259b 59bc 8fed b03d 87dc 89bd 9283 8d3c
00000310: 61a5 b03d ae05 923f c117 42be c4bf 09be
00000320: 8916 f6bc d0dc 31bf f656 f8bd 1c90 abbd
00000330: 84cb be3d 970e 413e 6611 2a3e 3fc6 063d
00000340: ad83 463d 44ee 00bd e5f1 4abd aa28 813e
00000350: 4db0 f63e b9ad 543f 9a53 0a3f e8f6 963d
00000360: 5e15 ee3c 2ea4 233e dc0b b1bc 2160 f8bb
00000370: 410f 5e3e 2c73 e83e 5eea 05bf 87c7 353e
00000380: 581c 8c3e 90ec edbc a3fa 813d 60f7 0e3e
00000390: c53e c23d 9753 0c3e 5a37 b3bb 2b2f 20bf
000003a0: b6ac 5e3e 8564 2d3c d7ad 5f3e d73e b43e
000003b0: 6f24 ef3e a243 8c3e 62b8 d13e ff8b 073e
000003c0: 3f77 a23e 16b5 1cbd 1da9 b13e e47d 003b
000003d0: 4677 323d 7513 753f 3f67 b8bf 86e1 0dbf
000003e0: 51ca 153f b9fc 79bf e5f6 49bc 8737 debd
000003f0: 1ad5 103f 3435 8e3f d4d1 0fc0 1329 4d3f
-0.1308811 1.4134371 -0.75830877 -0.21674298 -0.06910923 -0.1317552 0.10626 -1.4439963
0.20905532 0.0038060579 0.0113832345 -0.022322873 1.5193493 -1.49551 -0.6501172 -0.06897932
-0.012471759 0.010444636 0.0780615 0.8977126 1.2130616 -0.09703618 1.612141 0.070363075
-0.19116163 1.6356492 0.003308277 -0.04876545 0.1477752 0.057418894 0.007312226 -0.11862547
-0.13778457 1.0430557 0.5330305 0.21856385 0.08705721 -0.20864542 0.10772345 -0.8964727
0.9364885 0.053102143 0.9657676 -2.131055 -0.03623311 -0.019659417 1.0121405 -0.12716351
0.033717588 -0.187962 0.48628306 -0.16693142 0.15506049 -0.0063464455 0.22296911 -0.033081308
0.79489076 -0.011149475 0.003693397 -0.2623001 0.07693666 0.2582066 -0.01410899 0.10384419
0.7178264 -0.020369159 0.14993201 -0.14762375 0.0028401113 0.014826513 0.07314953 -0.008668206
0.40862653 0.09325027 1.2484814 -1.8624587 -0.119161405 0.1479696 -0.017241433 0.68891925
-0.052196298 0.1755304 -0.043526 0.034661364 0.18267256 -0.092079505 0.31002513 -0.06964225
0.13965648 0.6989797 -0.6523668 -0.055960968 -0.019320458 0.9922174 0.20081396 0.48671168
0.0007002218 0.8938203 0.29633233 0.21032721 0.32085595 0.7345256 -0.07086822 0.071317166
0.47721392 -0.0061214003 -0.8447699 0.053120486 -0.067871384 0.1059663 0.16167223 -0.37631905
-0.30478603 0.26662853 0.029979354 -0.0245323 -0.041216504 0.110139236 -0.04585316 0.17847952
0.11925169 0.70812935 1.8310256 1.1632673 0.4731742 -0.02437311 -0.005111812 0.15487571
-0.07285708 -0.26802284 0.007539787 0.82643646 -0.08101096 -0.02337455 0.0069608083 -0.5898243
0.110249385 0.702976 -0.023080349 0.016014216 0.1724834 0.041959796 -1.5164917 -0.12723756
1.356875 0.2389344 0.2445801 -0.06697234 -1.6735255 -0.014944079 0.16801253 -0.001291354
1.2596818 0.055140972 0.29884303 -0.08013532 0.008254554 0.22633775 -0.039041396 -0.047633663
0.3364387 0.101126306 0.37040886 0.10660548 0.09322788 0.37241378 0.09526848 -0.06518979
0.13961096 0.22590192 0.10040001 -1.0838745 -0.010827084 0.5204242 -0.006526722 -0.10091671
0.010990206 0.017861646 0.02247509 0.076528 2.7772222 0.031399336 -0.014135351 0.25539568
1.700535 -0.22277075 0.0006887673 0.60359013 0.13986146 0.02597073 0.38963333 -0.6431556
-0.013281618 0.08639061 -0.067315154 0.017274652 0.086252935 1.1407983 -0.18954374 -0.13452059
-0.030040042 -0.6947756 -0.121259615 -0.08377096 0.09316161 0.18853222 0.166082 0.032903906
0.04846542 -0.031477228 -0.049547095 0.25226337 0.48181382 0.8307758 0.54033816 0.073713124
0.029062923 0.15980598 -0.0216121 -0.007579819 0.21685506 0.4540037 -0.5231074 0.17751895
0.27365375 -0.029043466 0.06346633 0.13961554 0.094846286 0.13703762 -0.005469245 -0.6257197
0.21745571 0.010583048 0.21843658 0.35204193 0.46707484 0.2739535 0.40960985 0.13236998
0.31731603 -0.038258635 0.34699336 0.0019606287 0.04357078 0.95732814 -1.4406508 -0.55422246
0.58511835 -0.9765125 -0.012326931 -0.10850435 0.5657517 1.1109986 -2.247182 0.801408

bn.running_mean f4 [256]
00000000: 7320 4641 0400 0000 6b06 5441 0439 1b41
00000010: ee78 6f41 00e9 0a40 71a7 7a41 cc32 6841
00000020: d24b 5b41 b5fd 4439 7ac2 0741 5203 f13e
00000030: 6871 193d 5c72 fc40 ecd9 0e40 df65 853f
00000040: d3f0 8540 f843 e741 4ffa fd3f 6357 fd3f
00000050: 5df0 1d41 c8f3 1941 7f4a 8641 9098 1040
00000060: 6d68 a03f 5dd4 ab40 e497 6240 9a9d 0a41
00000070: 9120 1841 cbb5 e73e 79d2 4b3f dcfb 0c41
00000080: a1bc 3d3e acb3 2142 bee5 c840 c4b9 cb40
00000090: bad3 ff3e 7967 7242 8980 6a3f db53 8140
000000a0: 9438 a341 1c43 ff3d 3560 6041 b811 2240
000000b0: 21e4 2641 cee8 223f 78dc aa40 f001 f83f
000000c0: 4d0c 2540 89bb 2e3e 0a0d 9641 8ad6 fc3f
000000d0: 46c7 c340 0779 1926 f775 a53f c7d0 bb3d
000000e0: 4743 cb40 b555 1b41 6e1a 323e 85e8 2940
000000f0: aabb 5e42 9e1e 1b3f 3f2c 4941 d018 283e
00000100: c9f8 c240 61b8 ba3f 71af b341 9244 7d41
00000110: f2c0 a53f 585c 6d3d 2dc6 1241 f8f6 193e
00000120: 60fb 0042 23d9 053f a383 dd3f fadd 3c42
00000130: a7aa 0142 7899 a140 a305 be41 a0c5 5440
00000140: 2be1 9b40 8570 a53f c547 b940 4662 4940
00000150: a07a a140 1d38 523e 7fc6 3741 8370 3c3f
00000160: bae1 2841 f550 6640 0208 2841 0869 0f41
00000170: 88aa d53a e395 0f40 7d8a 0641 0f89 8041
00000180: d3f1 9e3f 2012 c440 f1c3 8441 9308 803f
00000190: 1ac6 e340 c444 a03f b133 1342 e2ba 823e
000001a0: 85bd 0e40 a248 1541 f4d8 4641 7c69 d341
000001b0: 8d8c 753f f187 1041 272a 5741 7ac3 ba41
000001c0: e91b 1941 4ab8 3740 60f9 1a42 6fe1 b23f
000001d0: e512 cc40 e5e1 e540 1c12 c641 aee7 1b42
000001e0: 3305 1840 35db b13f 1fef a140 5bc7 8b40
000001f0: a8be 8940 0400 0000 950a bb26 1f4c ee3f
00000200: 1096 f541 a88d 0341 6b92 0941 ab48 2c3f
00000210: 5a7d 0d42 3089 373e 8988 a23d acd9 bb41
00000220: e336 573f d7cd 9941 0400 0000 a3d3 593f
00000230: 37e4 9a41 d860 7a40 864e ac41 337e 8f41
00000240: f6d6 0541 ed0a 533f 7458 8140 b222 bd3e
00000250: b654 8d41 2b13 1041 5159 363d 83be 293e
00000260: 346d c541 0fc1 a03e ccd0 4840 c99b c93d
00000270: b0f7 fe40 3b27 3041 1f7b c33f 4f4d ed40
00000280: ee59 0c41 0a08 ae3e 79d9 0f40 0c35 0141
00000290: 337a f33f 17c2 7640 636f 943f c03f 8540
000002a0: b657 1c40 10c3 9440 f69e 723f e345 a140
000002b0: 10d4 9940 b736 a540 02bd f33e ff68 3f41
000002c0: ba29 9840 256a b101 69c2 1c41 c68e d240
000002d0: 0c75 2540 06fb b240 5174 903e 0400 0000
000002e0: 774b 1541 9467 6941 444a 9c3f 79c2 1340
000002f0: 9483 0d42 49a3 1541 a688 eb40 73e4 7b40
00000300: 0400 0000 ae54 6541 4f03 333e 5622 0e41
00000310: a603 d23f d0e9 7a41 febd b541 d126 2f41
00000320: 81be 073f 6f81 aa40 3d95 5240 139c 053f
00000330: f69c b73e 444a 3640 5c21 1d40 d292 8040
00000340: e9c9 803f f2ff 1342 0400 0000 663d d040
00000350: 6bab 5e40 d7dc 7340 42d0 833f c578 9740
00000360: 59e0 3541 d039 9940 be3c c840 c119 2a41
00000370: 186f 9a40 2234 1541 6e4e 9a3f db77 a540
00000380: e4ac 7f3f 3dc0 a13f ab9b 8f41 9025 1b3f
00000390: a991 853f 656c 2440 be86 713f e79f 1f40
000003a0: 8e19 8940 22a7 2e40 0643 6a40 2b26 623f
000003b0: 75a6 4440 a76e b140 b694 ca40 bfea 2040
000003c0: 7fca ee41 cd1b 963e 231d 283e 64a0 753f
000003d0: d85c d73a 3594 4041 db5b 7641 1c32 a541
000003e0: 98aa d240 33b3 5a41 9149 4241 0400 0000
000003f0: ef7e ef3f b84b b741 1b36 1242 25cf 2741
12.382922 6e-45 13.251567 9.70142 14.967024 2.1704712 15.665879 14.512402
13.706011 0.0001878653 8.48498 0.47072846 0.03746167 7.88896 2.232051 1.0421714
4.1856475 28.908188 1.9842013 1.9792293 9.871182 9.622017 16.786375 2.2593117
1.2531868 5.3696733 3.5405207 8.663477 9.507951 0.45255885 0.7961803 8.811489
0.18528987 40.42546 6.2780447 6.3664265 0.49966222 60.601048 0.9160238 4.0414863
20.402626 0.12463972 14.023488 2.5323315 10.430696 0.6363648 5.3394127 1.9375591
2.5788758 0.17063726 18.756367 1.9752972 6.1180754 5.324656e-16 1.2926625 0.091706805
6.3519626 9.708425 0.17392895 2.6548169 55.683266 0.60593593 12.573302 0.16415715
6.0928693 1.4587518 22.460665 15.829241 1.2949507 0.057949394 9.173383 0.15035617
32.245483 0.5228445 1.7305797 47.216774 32.416653 5.049984 23.752752 3.324562
4.8712363 1.2924963 5.790011 3.1466231 5.046219 0.20529218 11.485961 0.7360918
10.555109 3.5986912 10.501955 8.963142 0.0016301433 2.2435234 8.408811 16.066923
1.2417549 6.1272125 16.595675 1.0002617 7.1179323 1.2520986 36.80048 0.25533205
2.2303174 9.330233 12.427967 26.426506 0.9591759 9.033189 13.447791 23.345448
9.569314 2.870623 38.74353 1.3975047 6.3773065 7.183825 24.758842 38.97625
2.3753173 1.3895022 5.0604396 4.3680854 4.3045235 6e-45 1.29786e-15 1.861698
30.698273 8.222084 8.598247 0.6729838 35.372414 0.17923427 0.07936198 23.481285
0.84068125 19.225508 6e-45 0.85088557 19.361433 3.9121609 21.538342 17.93662
8.364981 0.82438546 4.0420475 0.36940533 17.666363 9.00468 0.044518773 0.1657658
24.678322 0.31397292 3.137744 0.09844167 7.9677353 11.009578 1.5271949 7.415687
8.7719555 0.33990508 2.2476485 8.075451 1.9021667 3.8555963 1.1596493 4.164032
2.4428535 4.6488113 0.94773805 5.039781 4.8071365 5.162929 0.4760514 11.963134
4.7550936 6.517184e-38 9.797463 6.5799284 2.585269 5.5931425 0.28213742 6e-45
9.330924 14.587788 1.2210164 2.3087447 35.378494 9.352365 7.3604307 3.9358184
6e-45 14.333174 0.17481731 8.883383 1.6407363 15.682083 22.71777 10.946977
0.5302506 5.3283 3.2903588 0.52191275 0.3586194 2.8482828 2.455161 4.0179224
1.0061618 36.999947 6e-45 6.507495 3.4792125 3.810354 1.029793 4.7334924
11.367272 4.788307 6.257415 10.631288 4.8260612 9.325228 1.2055185 5.170881
0.99873185 1.2636791 17.95101 0.6060419 1.0435077 2.5691159 0.94346225 2.4941347
4.2843695 2.728951 3.6603408 0.8833949 3.0726597 5.5447574 6.330653 2.5143278
29.848875 0.29318085 0.16417365 0.9594786 0.0016430868 12.036183 15.397426 20.649467
6.5833244 13.66875 12.142961 6e-45 1.8710612 22.911972 36.552837 10.488072
