MADDPG/checkpoint_maddpg_actor_agent_1.pth (torch_old, 296656 bytes, 10 tensors)

fc1.weight f4 [256, 24]
00000000: bb0b a83e 74cd 343e 5a87 733e d115 c43e
00000010: 4a6b a5bf 994c 8fbf 4864 8c3e 92f8 b23e
00000020: 37a1 3c3f c24e bc3e 3e15 633e 672f 993f
00000030: e0d4 b6bf d76a e6be afde 6b3e 9916 9c3f
00000040: 48a9 273f c11f cb3e 4689 b33e b707 d93e
00000050: 9ddd d1bf 7628 383f cf03 cd3e b0a0 da3e
00000060: b088 ab3e e8d1 c03f 20c9 b33c c1ed c63d
00000070: 7266 cbbd f81e 12c0 bdbf 84bd 59bc 383e
00000080: d546 253f 7519 c23f 4331 c3bb 0dcc 92be
00000090: f471 e5be 1a7d 0ac0 1600 0ebc 3b39 70be
000000a0: aff7 8b3f 1ed1 ce3f 565b 0e3e 2c48 383d
000000b0: 101a 7abf 6834 14c0 be19 2a3e 0744 0d3d
000000c0: eaab a03f bcf8 b7bd 53c2 95bd 84d1 8d3e
000000d0: 340b ee3e 5984 92bf 66b0 f4bc a8d0 5b3e
000000e0: 49d7 a33f d800 583d 2340 2ebd 2fd4 dfbc
000000f0: d44c 113e d4c8 ffbe 84a9 a0bd 0eac 1cbd
00000100: 7557 723f fce8 93bd 90ae 8ebd 9584 4fbe
00000110: db34 c3bd ea6a 233f 748e 8ebc 02ff 2abe
00000120: 7301 ebbe 0865 8bc0 6823 a6bb 3e57 9b3e
00000130: db5d 103f 12a1 8bbf 1ef3 72bb 142b c83e
00000140: 1351 273e 57ac 7cc0 fe2d ca3b 5416 cabd
00000150: 055f adbe 284b adbf 1321 70bd 8c86 d0bc
00000160: 936e f83d 4afd 6fc0 e03b 19bd 321c 773f
00000170: c63d b0bf 1c69 69bf e634 aabd 8f7a 6e3f
00000180: e6ce 6f3e 2017 78be 05c4 13bf 0a35 97be
00000190: 7288 343f b0f2 2ec0 ebbd 09bf 17d6 a2be
000001a0: 389f c8bd 4f9b 07bf 2606 cdbe b4ac d9be
000001b0: 7edc 843e 185d d1bf e5a6 e9be cd59 e6be
000001c0: c154 c5bd dfb4 43bf 6c78 05be e129 5fbf
000001d0: 1d77 cf3e 7be1 cdbe cc5a 15be 2357 64bf
000001e0: 2a4f 9a3f 777d bb3e 10a8 c8bd 11c4 ac3e
000001f0: 7d46 7abb 1ba7 94be 3efb 10bd 4956 bd3e
00000200: 1d4f 793f 4cac cd3e 1a9e 4bbd 9b7f e6bc
00000210: 536c a83d 8bad cabe 7af3 39bd a6c8 adbd
00000220: 7612 173f d665 e33e f9b9 32bc d5ba 0d3e
00000230: 7c05 003c ce97 edbe 3cdb a7bd dd24 8d3d
00000240: b9d4 0e3d 0b10 8c3f 6cae 9ebd 997f 343d
00000250: 840f 983f 0f69 31bf cb29 86bc fcf0 d33c
00000260: 5b51 393f 773b 6e3f 0244 28bd 5f1b 453e
00000270: 2bed b5bf bfb6 8b3d b9f5 4cbd 9be4 1a3e
00000280: e3c3 ab3f e162 813f ec6e fdbc d6e5 573e
00000290: 5821 88c0 ec05 943f c1fe eabd 218e 233e
000002a0: a1a0 7dbf e8e8 8e3f 052d 063e eade 3cbe
000002b0: 2a72 c1bf e209 16bf 6fba 133e 2384 80be
000002c0: 879a e1be 7ffd 733f 9e80 a43e 7913 35bf
000002d0: 69bf 143e 6b34 573f c742 8c3e 2a5d 33bf
000002e0: 4fd5 d5be a86c 7a3f b0bc be3e 0d0e f93b
000002f0: b573 e83f 9655 e63f 597f f43e 3dac 833d
00000300: 80c1 7d3f 57ce 753f 74b0 05bc 7578 0abe
00000310: 4701 a43f 8be3 9ebf 893a b93d d865 dabd
00000320: f9ec b63f 7cf5 613f 3649 3dbd 4e75 a3be
00000330: 6891 a93f 55e0 48bf 63ed 9e3c d61d a8be
00000340: 5db7 983f a75c 1f3f c174 87bd edb8 abbf
00000350: 3672 ae3f 667e dd3c d47b 9dbd b628 abbf
00000360: 56f0 5c3e c916 72bc 9a96 203e 4ebd f0bd
00000370: 83a5 933f 7b1e 38c0 dd31 da3d 56b8 c0bd
00000380: 07f3 343e 282f 163e 020b 913d bdca 5ebd
00000390: 54af 843f 5308 74c0 841f e73c 5ae3 0ebe
000003a0: 4aab 833e 1747 813e d1d3 843d 97de d3bd
000003b0: ad9d 8abe b16b a53f 6410 cc3c 5962 0cbe
000003c0: 3e00 a13e ce92 6640 21f5 e93b 1e75 933e
000003d0: 19ee 81bf 1bfb 393e 3815 113a 73fa a03e
000003e0: 9093 5f3e 9ec7 4340 31e5 90bd cecd 4abe
000003f0: 3ad1 0a3e 07fb 493e 5bcf 323c 808d 5fbe
0.3282145 0.17656499 0.23782101 0.38297895 -1.2923367 -1.1195251 0.2742026 0.3495527
0.73683494 0.36778837 0.22176072 1.1967591 -1.4283714 -0.45003387 0.23034166 1.2194396
0.6549268 0.39672664 0.3506567 0.42388698 -1.6395756 0.7193674 0.40041968 0.4270072
0.33502722 1.5064058 0.02194649 0.09713317 -0.09931649 -2.2831402 -0.06481884 0.18040599
0.64561206 1.5164019 -0.0059568 -0.28671303 -0.44813502 -2.1638856 -0.008667013 -0.23459332
1.0934962 1.6157568 0.1390203 0.044990703 -0.9769602 -2.3156986 0.16611382 0.034488704
1.2552464 -0.08982989 -0.07312455 0.2769891 0.46492922 -1.1446639 -0.02986927 0.21466315
1.2800075 0.05273518 -0.042541634 -0.027322857 0.14189464 -0.49957907 -0.078448325 -0.03825002
0.946647 -0.072221726 -0.06966889 -0.2026542 -0.09531566 0.6383501 -0.017401911 -0.1669884
-0.45899543 -4.356083 -0.0050701387 0.30339998 0.5639321 -1.090853 -0.0037071179 0.39095366
0.16339521 -3.9480188 0.0061700335 -0.0986754 -0.33861557 -1.3538561 -0.058625292 -0.025454782
0.12130465 -3.7498345 -0.037410617 0.965274 -1.3768852 -0.9117601 -0.08310871 0.9315576
0.23418769 -0.24227571 -0.5772098 -0.29532653 0.705207 -2.7335625 -0.53805417 -0.31803963
-0.097959936 -0.5297136 -0.40043753 -0.42514575 0.25949472 -1.6356535 -0.45635143 -0.44990388
-0.09635306 -0.7644786 -0.13034219 -0.8717328 0.40520564 -0.4021109 -0.14585418 -0.8919546
1.2055409 0.3661916 -0.097976804 0.33743337 -0.0038188987 -0.2903374 -0.035395853 0.36979893
0.9738634 0.40170515 -0.049711324 -0.028137019 0.08223786 -0.39585528 -0.045398213 -0.08485536
0.59012544 0.44413632 -0.010908597 0.13840802 0.007813808 -0.4640488 -0.081961125 0.06891797
0.034870837 1.0942396 -0.07748112 0.044067 1.1879735 -0.6930093 -0.01637735 0.025871746
0.72389764 0.93059486 -0.041080482 0.19248722 -1.4213003 0.068219654 -0.050039027 0.15126269
1.3419155 1.01083 -0.03093668 0.21083769 -4.2540703 1.1564307 -0.11474372 0.15972187
-0.99073225 1.1164827 0.13103111 -0.1844441 -1.5112965 -0.5860883 0.14426588 -0.25100812
-0.44063208 0.9530868 0.32129377 -0.7073284 0.14526142 0.8406436 0.27394697 -0.7006403
-0.41764304 0.97822046 0.37253332 0.007600552 1.8160311 1.7994869 0.4775341 0.06429336
0.9912338 0.96017975 -0.0081597455 -0.13522513 1.281289 -1.2413191 0.09044368 -0.106639564
1.4291068 0.88265204 -0.046212398 -0.31925434 1.32475 -0.78467304 0.019400304 -0.32835263
1.1930958 0.6225075 -0.06614066 -1.341581 1.3628604 0.02703781 -0.07689634 -1.3371799
0.21576056 -0.01477594 0.1568245 -0.11754857 1.1534885 -2.8768604 0.10654042 -0.09410159
0.17670833 0.14666426 0.07082178 -0.054392565 1.0366006 -3.813008 0.02821327 -0.13953915
0.2571662 0.2524955 0.06485713 -0.1034519 -0.27073422 1.292349 0.02491016 -0.13709392
0.31445497 3.6027102 0.0071398173 0.2880029 -1.0150787 0.18162195 0.0005534473 0.31441078
0.21833634 3.0590587 -0.07074965 -0.19805071 0.13556376 0.19724666 0.010913695 -0.21831322

fc1.bias f4 [256]
00000000: 2fb0 b1bf 2e68 00c0 c27c 95bf b5ed 87bf
00000010: 7193 c4bf b0df 49bf 1b56 19c0 a4ed a83e
00000020: 63f8 e1bf 907b a4be 624c c2bf f909 fabf
00000030: 2408 36bf 6bf8 0bc0 be7d 7cbf 1659 99bf
00000040: 9759 0bc0 c5d0 99be cd44 93bf 9e7e 6cbf
00000050: 909f 0ac0 b9b3 8bbf 3b03 2dbf ab16 9ebf
00000060: 45e4 dcbf 6da3 d4bf 9aa1 acbf 3aa4 33c0
00000070: 7bb5 45c0 0073 2abf fab7 54bf 9f67 523e
00000080: bd1b 8bbf dd0f f23e 8fcc 65bf 0be1 34bf
00000090: 8dbf 9fc0 6a5b 67bf 535e 26c0 e66f 5dbf
000000a0: 38ae dcbf 8489 c7bf 96c7 b8be d6d1 47bf
000000b0: 04f4 8dbf 64bd 0cc0 6923 cabf d2ad 6cbf
000000c0: 82d1 d2be ef03 9dbd 3d28 0ec0 c3d9 e7bf
000000d0: 8c99 86bf 5329 c4bf e08a 2ebd 71b0 04bf
000000e0: 04d6 8bbf 3bd2 b3bf 46bc dbbf 32e5 1fbf
000000f0: 5cd9 81be 8b89 1ac0 c3ea 80be d87d 86bf
00000100: 5d17 cfbf 0b39 d2bf 885c 69bf 4fb8 81bf
00000110: ed05 c3bc 312d 98bf 6549 89bf d3d6 92bf
00000120: 7eee f2be 8660 3fbf b29b ddbf 4602 c1be
00000130: 3e58 1fbf 6033 46bf d10f 05c0 525b c8bf
00000140: 54d7 49bf 952b bfbf e879 95be 83ce a9be
00000150: ca95 debf df7c c5bf 37a3 f1bf d017 63bf
00000160: e8aa edbf 4a84 4dbf 11da 46bf b69d ccbf
00000170: 7144 0ec0 a311 11c0 9b31 c8bf 17e2 aebf
00000180: 5051 54bf 1c0c a0be 1d96 53bf a2a7 99bf
00000190: 93b5 12c0 8fe7 fcbf 2d30 00c0 386a e1bf
000001a0: c5c7 60bf 48cc 8abf 2ab6 c5bf f418 09c0
000001b0: 5c15 a4bf 7785 16c0 f5fa 25bf 9c74 2bc0
000001c0: 9d62 05c0 6fbe 81bf c86d 21c0 14de 8abf
000001d0: aa1b 06c0 ce60 8bbf 43ce fa3e 6f94 8cbf
000001e0: e0a4 55bd cc48 a4bf c4ca 06c0 9250 1abf
000001f0: e94d b5bf b405 9bbf 4831 97bf 74f9 e1bd
00000200: 6acc adbe 8835 3ebf 7d96 4dbf e9f2 86bf
00000210: 3266 ffbf 98e9 94bf f16b 85bf 7ca3 b8bf
00000220: a54f 04c0 9583 9dbf 13c2 4fbe 86d5 e9bf
00000230: 55bb d4bf 3eb7 81bf e2bb 9ebe 3ac8 6fbf
00000240: 8106 eabe 3149 5fbf 8493 5fbf a704 97be
00000250: ff7c 57bf 1f09 f3be 370f 17bf f17d 82bf
00000260: 9ad2 e6be b13d abbf b092 22bf c611 03bf
00000270: cc5d 13c0 0441 6ebf 0d17 9cbf 4bc7 a9bf
00000280: ef69 aabf 0bbc 0bc0 5f40 73be 1644 80bf
00000290: 32c6 24c0 983a 84bf 3eec bbbf 86c9 c3be
000002a0: 240d 24bf c389 ac3e 6ac5 dc3e 4f32 e8bf
000002b0: 9c45 11bf 0047 d7bf 6717 17c0 15fe a0bf
000002c0: be34 dfbe 58b9 39c0 33f3 65bf da0b 2bbf
000002d0: e68a 50bf 9fdd 99bd ed0e f63f ce89 94bf
000002e0: 4069 d9bf a1e4 02bf e4c9 18c0 9a5f 96bf
000002f0: e06d 37bf 690e 7f3e 208d 4dbe 8391 42bf
00000300: 4aa5 69bf 7071 cebf 5a60 25bf 003a 24c0
00000310: dd9b 7bbf 0eee 5bbf f5a7 86bf 8566 02bf
00000320: 0e71 47bf 946d 2ebf cd02 9dbf c68f f2bf
00000330: 690f 09c0 a1f0 73bf 991d 03c0 597b dfbe
00000340: 44b8 4abf 7210 31c0 2e39 69bf 0c47 aa3e
00000350: e480 d5bf f15e 04c0 b418 a3bf 5bee 02c0
00000360: ada5 c7bf 7a2c 86bf d903 19bf 8b06 b0bf
00000370: c4b3 08c0 3166 c0be 84bf 1dbf 15b0 fcbe
00000380: 7fef 78bf e75a 39c0 02b2 64bf a276 6cbf
00000390: dbb0 17c0 23dd 7ebf bb93 08c0 9667 10c0
000003a0: 1dc9 e6bf 79d3 9ebf b76f 17bf c6fe 8bbf
000003b0: 0bb5 40be 548e d6bf f667 56c0 1e4d 833e
000003c0: 355c f8bf 7e36 97be 2892 c5be ed4f 87bd
000003d0: bf3e 9cbf 5755 8bbf a4f7 e0be 0b12 afbf
000003e0: da34 c7bf 5d09 bebf 87a5 99bf 5785 cfbf
000003f0: 6041 a0bf 8ae6 553e 4d9b a2bf 3616 1dc0
-1.3881892 -2.0063586 -1.1678698 -1.0619417 -1.5357496 -0.78856945 -2.3958805 0.32993805
-1.7653927 -0.3212552 -1.517956 -1.9534293 -0.7110617 -2.1870372 -0.9862937 -1.1980312
-2.1773431 -0.3004209 -1.1505371 -0.923807 -2.165989 -1.0914222 -0.67583054 -1.2350668
-1.7257162 -1.6612374 -1.3486817 -2.8068986 -3.0892017 -0.66581726 -0.83093226 0.20547341
-1.086784 0.47277728 -0.89765257 -0.7065589 -4.9921327 -0.9037386 -2.599507 -0.8649887
-1.7240667 -1.5588841 -0.36089772 -0.7805456 -1.1090093 -2.1990595 -1.5792056 -0.9245273
-0.41175467 -0.07666766 -2.221206 -1.8113331 -1.0515609 -1.5325111 -0.04261291 -0.5183173
-1.0924687 -1.4048532 -1.7166831 -0.624591 -0.25361145 -2.414645 -0.2517911 -1.0507154
-1.6179005 -1.6423658 -0.91156816 -1.0134372 -0.023806537 -1.1888791 -1.0725523 -1.1471809
-0.4744758 -0.7475666 -1.731314 -0.37697047 -0.6224402 -0.7742214 -2.0790904 -1.5652869
-0.7884419 -1.4935175 -0.2919457 -0.33165368 -1.7389462 -1.5428733 -1.8877934 -0.8870821
-1.8567781 -0.8027998 -0.7767649 -1.598563 -2.2229273 -2.2667015 -1.5640138 -1.3662747
-0.82936573 -0.3125924 -0.8265093 -1.2004282 -2.2923324 -1.9758166 -2.0029404 -1.761054
-0.87804824 -1.0843592 -1.5446217 -2.142148 -1.2819018 -2.351896 -0.64836055 -2.6789923
-2.0841439 -1.0136241 -2.5223255 -1.0849023 -2.0954385 -1.0888917 0.4898549 -1.0982798
-0.05215919 -1.2834716 -2.1061258 -0.6027919 -1.4164401 -1.2111115 -1.1811914 -0.110339075
-0.33945018 -0.7430043 -0.8030775 -1.054288 -1.9953063 -1.1633787 -1.0423566 -1.4424891
-2.067361 -1.2305781 -0.20288877 -1.8268287 -1.6619669 -1.0134046 -0.31002718 -0.93664896
-0.45708087 -0.87221056 -0.87334466 -0.29495737 -0.84175104 -0.47467896 -0.5900759 -1.0194684
-0.4508255 -1.3378202 -0.6350508 -0.51198995 -2.3026 -0.93067956 -1.2194535 -1.3263944
-1.3313578 -2.1833522 -0.23755024 -1.0020778 -2.574597 -1.0330381 -1.468147 -0.38239688
-0.6408255 0.33698854 0.43119365 -1.8140353 -0.5674684 -1.6818542 -2.3608034 -1.257754
-0.43594927 -2.9019375 -0.8982422 -0.6681496 -0.8146194 -0.07512974 1.9223305 -1.1604555
-1.6985245 -0.5113011 -2.3873224 -1.1747925 -0.7165203 0.24907841 -0.20073366 -0.76003283
-0.91267836 -1.6128368 -0.64600146 -2.56604 -0.98284703 -0.8591012 -1.0520006 -0.5093768
-0.7790688 -0.6813595 -1.226648 -1.8950126 -2.1415656 -0.95289046 -2.0486815 -0.43648794
-0.7918742 -2.7666287 -0.91102874 0.3325733 -1.6679959 -2.0682948 -1.2741914 -2.045798
-1.5597435 -1.0482323 -0.59771496 -1.3751997 -2.135972 -0.37577966 -0.61620355 -0.4935309
-0.9724044 -2.8961732 -0.8933412 -0.9236852 -2.3701694 -0.9955618 -2.1340168 -2.2563224
-1.8030125 -1.2408286 -0.5915484 -1.0937126 -0.18819062 -1.6762185 -3.3500953 0.25644773
-1.9403139 -0.29533762 -0.3858807 -0.066070415 -1.2206649 -1.0885419 -0.43938935 -1.3677381
-1.5563004 -1.4846607 -1.200364 -1.6212567 -1.2519951 0.20888725 -1.2703644 -2.4544806

fc2.weight f4 [256, 256]
00000000: 5809 2b3e 6a7f 5abf 2455 efbd 79a7 bc3e
00000010: 3e78 373e d6b1 3ebd 5157 993c 74a5 333e
00000020: ed83 acbe 2c98 4ebf d8fe 69bf 2d8c 53bf
00000030: 31d4 09be c81e 213f 792b 9f3e a486 b33a
00000040: 31c7 03c0 f09b 803e 8eb8 3ebf e738 91be
00000050: 590f 83be 3f64 46be efdc cbbd 82d5 2dbe
00000060: 5eef 89bc 7240 39bd 3d29 bb3b 7d0d ac3e
00000070: 0a40 8d3f 396c 8cbf e307 b73d 214f fbbe
00000080: 1873 bdbe 2221 64be d6b3 11be cda0 4cbd
00000090: f9f9 bcbf efbe a73d 1979 113f 9552 e93e
000000a0: eac3 9cbf e878 acbe 656d 3d3d 73ab bd3e
000000b0: 0234 83bf 18df d4bc 4caa 7fbd 5af9 1bbe
000000c0: 83ee 343f d8f6 fe3d 96b3 2bbf f99e 9cbf
000000d0: c010 133f 887f 52bf 1b76 c5bf c499 a53d
000000e0: a640 dd3e 0d34 4cbe 7668 06bd c3bb c53d
000000f0: 333e 28be 0f6f 1b3f a958 923c 5052 1cbd
00000100: 1aa1 cebe 9bce 7bbe 6622 b8be f3dc b23d
00000110: 8bb9 63bf 3b8d 0bbf e392 0c3d 60fa 483f
00000120: b553 453f 1ed3 7b3e de3b 24be 853a 70be
00000130: 3645 843c 44b7 2dbf 6837 163f 006f 2e3d
00000140: cf26 5dbe 02a0 3bbf d89c a5bd feb4 2cbf
00000150: fa0f d6bd 6901 cc3e 6925 183f 3bd2 4d3e
00000160: 6dce 8dbe f3c4 57be ebb3 4a3d 3e1e d0be
00000170: 8eeb 35bf 962b 303e 86dd a83d b6e3 663e
00000180: 82d5 143e 5113 b33e ce22 52bf 5e72 d13e
00000190: c70b 283f 3958 fabd 3ab7 2a3e 7ce1 213f
000001a0: 54d3 ed3e 4461 ac3e a275 1b3f 5cf6 9b3d
000001b0: 5e21 91bf dedd 93bf 18f4 84bf 085e 68be
000001c0: 480b 023f ca98 73bf c9ec 613e bf36 c1bc
000001d0: 285d 8b3e fd3e 40bf 48b1 e1be 5ff3 82be
000001e0: 50ba 99be 0fd4 63bf f712 833e 4b3f 0f3f
000001f0: 4c38 dbbe 727f 743d bdd9 c1bd d259 b53e
00000200: 6140 8ebe 2976 8a3e 8591 b0bf 6acd 51bf
00000210: ba3e 463f 1527 1a3e 1b86 c9be dca9 1bbf
00000220: dc4e 013e 1a99 d9be 738d d0be 03ba ea3e
00000230: 8227 dabd 7e0e 943e ea6c 5fbf 034f 443f
00000240: 08dd 92be d23b eebc c304 453e 2365 0e3e
00000250: f3d5 6cbf eff7 453d edd3 70be a40e 8fbe
00000260: 7f12 243f 0418 44bf 8f28 00be a419 f13e
00000270: c487 27bf 3e65 423f 5443 943f 2c71 523e
00000280: 2072 913e 0347 5f3c a03b bdbe c23b 613d
00000290: 5455 ce3b 043a 67bf 552f d4be 1895 d93e
000002a0: 7d64 88be 4e7d b03e d6f1 3b3f a288 81bd
000002b0: 6c3c bebc 4f2a 083e 64fd 113e c8e3 a4bd
000002c0: 3ac2 09bf b865 833f 079e 123f 6ccd abbf
000002d0: b97b 733e e601 aabe 85d1 0f40 9b05 3fbe
000002e0: 97b8 5f3f 6101 86bf 04c5 d5bf 9106 f03d
000002f0: 6ec4 363e 3d20 9f3e 3807 863d 3439 edbe
00000300: feec 9ebe b0f1 0f3f 46d3 873e bd1e 8abf
00000310: 54c0 bb3e 053d 02bf c711 a9bd 4f7a 713e
00000320: 0f97 383f b52d 02be 4595 1b3e 86e0 d13e
00000330: 6377 f9be 67ac 843f 1529 813f bd06 933d
00000340: 3ef6 003f 5029 af3d c332 97be fb4e eabd
00000350: 2e9b d1bf 0793 3f3f cf27 153f 853e 583f
00000360: 193d 19bc 5a1c bd3e c9b9 803e db42 8abf
00000370: 6918 013f 9816 46bf fb61 09bf 30ae 033e
00000380: 465b ebbe fdc3 01bf 86ea e63d ea07 84be
00000390: 92ef edbe 4833 1e3e 35f8 e53e 71ab 103f
000003a0: 90a7 a83e 2dd6 82bf 2acc f7be 1c3d c2be
000003b0: 30dc 27c0 6000 b1be 011b 32c0 14b4 ecbd
000003c0: 561d aa3e 4a8a 91bf 876f 2bbe b636 b9bd
000003d0: 26a9 283e 040b 1bbe d9f0 dc3d 0faa 05be
000003e0: d9a9 04bf ee8a 99be aa6c 66be abfc 58bf
000003f0: 4bd1 4cbe 1940 e0be fb7e b1be a5d7 32c0
0.16702783 -0.8535067 -0.11686161 0.36846521 0.17916963 -0.046556316 0.018718394 0.17543584
-0.336944 -0.80700946 -0.91404486 -0.82635766 -0.13459851 0.62937593 0.31087855 0.0013696742
-2.0590327 0.2511897 -0.7450036 -0.28363726 -0.25597647 -0.19374178 -0.09954249 -0.16975978
-0.016837772 -0.045227475 0.005711703 0.3360404 1.1035168 -1.0970527 0.08937051 -0.49083808
-0.37001872 -0.22278264 -0.14228758 -0.04995804 -1.4763786 0.081907146 0.56825405 0.45570818
-1.2247288 -0.33685994 0.046246905 0.37044868 -1.0250247 -0.025985286 -0.062418267 -0.15231839
0.7067644 0.124494255 -0.670709 -1.2236015 0.57447433 -0.8222585 -1.5426668 0.08085969
0.43213385 -0.19941731 -0.032814465 0.09654953 -0.16429977 0.60716337 0.017864542 -0.038164437
-0.40357286 -0.24590532 -0.35963744 0.08733549 -0.8895499 -0.54512376 0.03431977 0.7850704
0.7708085 0.24592254 -0.16038463 -0.23459823 0.016146284 -0.67857766 0.58678293 0.042586327
-0.21596836 -0.7329103 -0.08086556 -0.6746367 -0.10452266 0.39844826 0.59432083 0.20099728
-0.27696553 -0.21071224 0.04948799 -0.40648073 -0.7106255 0.17204127 0.08245377 0.22547802
0.14534572 0.34975675 -0.8208436 0.40907568 0.6564297 -0.122238584 0.16671458 0.63234687
0.46450293 0.33667958 0.6072637 0.07615349 -1.1338308 -1.1552083 -1.0386992 -0.2269212
0.50798464 -0.9515501 0.22062983 -0.023585675 0.2721951 -0.7509611 -0.44080567 -0.25576302
-0.30024958 -0.8899545 0.25600407 0.5595595 -0.4281639 0.059691854 -0.094653584 0.3542009
-0.27783492 0.27043274 -1.3794409 -0.8195406 0.77439463 0.15053971 -0.39360127 -0.6080606
0.12627739 -0.4249962 -0.40732917 0.4584504 -0.10652067 0.28917307 -0.87275565 0.7668306
-0.28684258 -0.029081259 0.19240098 0.13905768 -0.9251396 0.04833215 -0.23518343 -0.27940857
0.6409072 -0.76599145 -0.12515472 0.47089875 -0.65441537 0.75935733 1.1583047 0.20550984
0.28407383 0.01362777 -0.36959553 0.05498863 0.006296793 -0.903229 -0.4144236 0.42496562
-0.26639166 0.344706 0.7341589 -0.06324889 -0.02322217 0.1329739 0.14256817 -0.08051258
-0.5381199 1.0265417 0.5727238 -1.3422065 0.23777665 -0.33204573 2.247163 -0.18654482
0.87391037 -1.0469171 -1.6700749 0.117200024 0.1784837 0.31079283 0.065443456 -0.46332705
-0.31040186 0.5622816 0.26528376 -1.079063 0.36670172 -0.5087436 -0.08255344 0.23581813
0.721055 -0.12712748 0.1519366 0.4099161 -0.48723897 1.0365113 1.0090662 0.071790196
0.50375736 0.085528016 -0.29530916 -0.114408456 -1.6375482 0.7483372 0.5826387 0.844704
-0.009352946 0.36935693 0.25141743 -1.0801653 0.5042787 -0.77378225 -0.5366513 0.12859416
-0.45968074 -0.5068968 0.112752005 -0.25787288 -0.4647184 0.1544925 0.4491593 0.565116
0.3294034 -1.0221611 -0.48397952 -0.37937248 -2.6228142 -0.345706 -2.7828982 -0.11557785
0.33225507 -1.1370327 -0.16741763 -0.090436384 0.16470775 -0.15140921 0.107881255 -0.13053153
-0.51821667 -0.29988807 -0.2250239 -0.8476054 -0.20001714 -0.43798903 -0.3466719 -2.794412

fc2.bias f4 [256]
00000000: af82 9abe 0978 64bf dd60 33bf ef71 5dbf
00000010: f249 e4be ecaa 8bbf 5d60 19bf 4d5e 27bf
00000020: 37f9 36bf 0b21 30bf 6846 f7be df8e 983d
00000030: 31a6 9bbd c47d bdbe 1a4a 50bf d034 9e3d
00000040: 7e35 02be 782b 43bf 9f96 05bf 22bf 51bf
00000050: 0f97 27bf ee5d 5bbf ccef 173b 71a8 6cbf
00000060: c938 86bf d27d 93be 0804 2fbf 48ee 5abf
00000070: 38a9 aabf c999 1dbf 3dda 68be 42e9 edbd
00000080: 7e67 ccbe cf1f d3bd 16c6 22bf cfb5 c4be
00000090: 9027 453d 57fa 36bf 84fb 69be c7ff 96be
000000a0: d48f 4cbe 77e8 b5be d748 b4be 7e41 cbbe
000000b0: 6e58 58bf 36af cbbe c266 fbbe cc96 e9be
000000c0: 8a71 17bf b990 a9be 814a c6bd 1f93 1abe
000000d0: 27a8 9ebe 8fb9 83bf 0408 8bbe 4c33 25bf
000000e0: ff50 efbe 829d 31be 404e fdbe 8bb4 a6be
000000f0: 9965 c5be 4a70 fbbe 7e7e cfbb a14a 20bf
00000100: dce3 05bf 2a6d b9be b9ff 38bf ba1b 9dbd
00000110: 4736 38be c95c 21bf 1923 28bf 1fe1 44bf
00000120: da8d 39be 36ec b9be f519 d0be ffd7 46bf
00000130: 0b2c 04bf 1da9 b8bd 2bb9 ccbe 2ce6 abbe
00000140: a403 f9be 542c e7be f2fd 4abf e68e 5bbe
00000150: bd7f 15bd ca8e 3cbf f15f 4fbf 1d66 d8be
00000160: 62dc 08bf bbea 87bf 6e4f 65bd d7dd 15bf
00000170: de30 06bf 6fc0 d0bd d583 93be 3a24 50bf
00000180: 39a7 a9be d5de e6be cf3f 24bf e5d8 3abe
00000190: d70c dabe 6cca 31bd d200 d3be 5cf2 2ebf
000001a0: a5e0 f8be f281 51bf 9761 d5be 2950 f8be
000001b0: 7482 16bf 82c0 72be e7b4 91bf b155 6dbf
000001c0: dcd4 2fbf c373 25bf 027d 3fbf db98 1fbf
000001d0: c730 c33d 0385 dfbe cb7f ea3c f03a 06bf
000001e0: 0709 cbbe 4bd0 31bf d8be 0ebf b91d e3bd
000001f0: f81e 30be c58c e3be cc4e 0abf 991b 4fbf
00000200: 11b3 e9be 1725 e8be 4b83 71be 1598 09bf
00000210: 104c 09bf d614 e8bd b7bd e13a 4428 20bf
00000220: 080c b0be 1ea6 1bbf b486 8b3d 8ef7 77be
00000230: d78f 3fbf 926c 64bd 58d4 71bd ba04 71be
00000240: e007 63bf b673 e2be 830b e5be 775e 2fbf
00000250: 1f26 2fbf 5745 10be 80d6 32be 4206 9dbd
00000260: 07de c9be 6800 10be 06e6 87bf 2d30 40bf
00000270: c876 70be 6c2d 11be 866a 93be 4410 e7be
00000280: 2218 22bf 7827 8cbe bd95 15be 31b8 5dbf
00000290: b323 41be 33f0 7bbf 4410 f4be 76a0 06bf
000002a0: b245 47be 655b 45bf 0116 13bf be5e 25bf
000002b0: ffbf c4be 4ab0 c6be 6169 f5bd 8f03 63bd
000002c0: bbdb 91bd 9f56 44bf 8b6a c7be 0039 12bf
000002d0: 736a 1bbf a9f2 923e 2256 a4be bee4 16bf
000002e0: a9a6 6cbf 0ab7 4ebf 3cc6 62be 9f62 6ebf
000002f0: 11b0 6abe ede4 3cbe 1c33 35be baa0 9dbe
00000300: ffd3 c1be e130 47bf 05ff 39bd 32ed 35bf
00000310: 57cc 75be a847 9bbe cd5c 63bf 041b f1be
00000320: 02b2 2ebe 4ea5 21bf e2c4 1bbf 7ea1 21bf
00000330: 3a04 37bf bd47 15bf 3926 c9bf 61f1 eebe
00000340: 0b7a edbe 8162 8fbe 9922 06bf 1315 bfbd
00000350: f488 cdbd ba48 50bf 2720 b1be 080b e2bd
00000360: 4830 eebe 0984 78bc c6a7 d0be 8e90 e2be
00000370: 89e4 3abf e98d 0b3e 9ca1 3fbe 3682 5bbf
00000380: 21a3 ffbe 4c45 4ebf 1cbd ccbd 05fb 18be
00000390: 99ed b9be 026b 7abe 6c31 eebe 250f dabe
000003a0: ccf8 31bf 8594 17bf f43f 85bf 6058 c0be
000003b0: 7372 fbbe 6eeb a43c e93d 00bf 4da9 69be
000003c0: a6a1 f4be ab3b 88bd dcb3 83be 776b 36bf
000003d0: fd6a a6be b665 d8be e8d2 33bf 9200 08bf
000003e0: f5ec 64bf ac88 92be aeb8 63bf 072e 43be
000003f0: fb10 8dbe 8de1 1c3e 5bf7 65be 4ae1 71be
-0.3017783 -0.8924566 -0.70069677 -0.86501974 -0.44587666 -1.0911536 -0.59912664 -0.65378267
-0.7147402 -0.6880042 -0.48295903 0.074491255 -0.07600058 -0.37010014 -0.8136307 0.07724917
-0.12715718 -0.76238203 -0.52182955 -0.8193227 -0.6546487 -0.856902 0.0023183702 -0.9244452
-1.048608 -0.2880693 -0.68365526 -0.8551984 -1.3332891 -0.6156278 -0.22739501 -0.11616756
-0.39922708 -0.103088014 -0.63583505 -0.3841996 0.048133433 -0.7147574 -0.22849852 -0.29492018
-0.19976741 -0.3552892 -0.35211822 -0.39698404 -0.84509933 -0.39782113 -0.49101835 -0.4562286
-0.5915762 -0.33118227 -0.09682179 -0.15095185 -0.30987665 -1.0291003 -0.27154553 -0.645314
-0.46741483 -0.1734524 -0.49473763 -0.32559618 -0.38554075 -0.49109107 -0.0063322177 -0.62613875
-0.5230081 -0.36216098 -0.722652 -0.07671304 -0.17989455 -0.63032204 -0.65678555 -0.7690601
-0.18120518 -0.36313027 -0.40644804 -0.77673334 -0.51629704 -0.09016631 -0.39985022 -0.33574045
-0.4863559 -0.45151007 -0.7929374 -0.2144123 -0.036498774 -0.7365538 -0.8100577 -0.42265406
-0.5346128 -1.0618509 -0.055983953 -0.58541626 -0.52418315 -0.10192954 -0.28811517 -0.8130528
-0.33135393 -0.45091882 -0.64159864 -0.18246801 -0.4258792 -0.043405935 -0.41211563 -0.6833856
-0.4860889 -0.81838906 -0.41676018 -0.48498657 -0.58792806 -0.23706248 -1.1383332 -0.9270888
-0.6868417 -0.64629763 -0.7480012 -0.62342614 0.09530788 -0.43656167 0.02862539 -0.5243368
-0.39655325 -0.69458455 -0.55759954 -0.110896535 -0.17199314 -0.44443336 -0.54026484 -0.80901486
-0.4564443 -0.45340797 -0.2358524 -0.53747684 -0.5363169 -0.11332099 0.0017222677 -0.6256144
-0.3438418 -0.6080035 0.06812802 -0.24215528 -0.7482886 -0.055767603 -0.059040397 -0.2353696
-0.8868389 -0.44228905 -0.44735345 -0.68503517 -0.68417543 -0.14088951 -0.17464638 -0.07667209
-0.39427206 -0.14062655 -1.0617073 -0.7507351 -0.23482811 -0.14177483 -0.28792208 -0.45129597
-0.63318074 -0.27373862 -0.14607902 -0.8660918 -0.18861274 -0.9841339 -0.4766866 -0.52588594
-0.1946018 -0.7709258 -0.5745545 -0.6459769 -0.3842773 -0.38806373 -0.1198299 -0.055423316
-0.071219884 -0.76694673 -0.38948473 -0.57118225 -0.60709304 0.2870076 -0.32096964 -0.5894278
-0.92441803 -0.80748045 -0.22145933 -0.93119234 -0.22918727 -0.18446703 -0.17695278 -0.30786687
-0.37857053 -0.7780896 -0.04540922 -0.71065056 -0.2400373 -0.30328107 -0.8881348 -0.47090924
-0.17060092 -0.6314286 -0.60847294 -0.6313704 -0.71490824 -0.5831259 -1.571479 -0.46668532
-0.46382174 -0.2800484 -0.5239654 -0.093301915 -0.10035887 -0.8136097 -0.34594843 -0.1103726
-0.4652121 -0.015168198 -0.40753 -0.4425091 -0.73004967 0.13628353 -0.18713993 -0.8574556
-0.49929145 -0.8057449 -0.09997007 -0.14939506 -0.36314085 -0.24454883 -0.4652208 -0.4258968
-0.6952026 -0.59211 -1.0410142 -0.37567425 -0.49110755 0.020131793 -0.5009447 -0.2281849
-0.47779578 -0.06652006 -0.2572316 -0.7125773 -0.325035 -0.422651 -0.7024369 -0.5312587
-0.8942407 -0.28619897 -0.88953674 -0.19060527 -0.27552018 0.15320416 -0.2245764 -0.23621097

fc3.weight f4 [2, 256]
00000000: fc5a 9fbf 5e88 b9be e122 863f 397d 093f
00000010: f404 b33e fcb7 6f3f ee3d 4a3f a752 78bf
00000020: e598 b0bf 8106 3cbf 5cf3 5f3f 8993 fd3e
00000030: 0c63 843e 0679 4e3f 593f 8c3d adb8 0e3d
00000040: b65c 313d 001a 3c3f 1b33 55bf 7bb1 293f
00000050: 8129 9cbd b2cf e6bf b885 d73e ecea 69bf
00000060: c404 823f 9f2f 8a3e 2a12 d93e 9648 c5bf
00000070: 450f 7d3e 2c18 1e3e b7c3 6bbe d4bd 283f
00000080: 8e31 b4be 4edf 18bd a122 ebbe b1ea cdbe
00000090: 03ec 87be 0f15 90be 2a00 68be 11e0 7d3f
000000a0: 4267 c53e ff22 41bd 0c43 3ebf 96cc 15be
000000b0: 6754 1dbf ecbc 2e3f 2bbb 3c3f 6672 c83e
000000c0: c1b9 6b3f 871b 903c 392b 7cbc 60c6 e7bf
000000d0: 11cb 9bbe 98a8 9cbd 2f49 913f 8d24 65bf
000000e0: cbe6 ba3e 29a2 e8be c08e c93f 58f1 303f
000000f0: f6e6 bc3f 461c 1d3f e61d cc3e 5e64 c43f
00000100: 5de7 2abe 2fa8 d9be abfe bebf e01e be3d
00000110: b1d5 25bf e75a f2be 0516 463f 42eb 0e3f
00000120: 9b79 86be ae6d 72be 4e36 23bf f3bf 1240
00000130: 2b1e cfbe 9a3e 093f 7a35 ccbe 91b7 c2be
00000140: d2ca cb3e 6cd0 af3e 89cf c1bf 8d97 443f
00000150: fd53 153e 51fe 03bf 782c 36be 4ab4 0c3f
00000160: 2ad5 abbe 855f d73f 3f57 36be 695d 9b3e
00000170: 519e 123f 439e c73d 5a25 23bf f670 c13e
00000180: 3150 92bf 3859 0abf e2e6 ccbe 8dbc 03bf
00000190: 22b8 9abe 4b85 493c 50f1 8ebf b690 d1bc
000001a0: 7287 fd3e 7a64 0640 4444 f3be 31e1 983a
000001b0: 249c 0cbf 899c 63be 3f00 8cbd 0ba6 ac3f
000001c0: e721 66bf 5c42 21be 9199 61bf fba6 703d
000001d0: 3659 623d bd26 1bbe 4262 23bf 656a 463f
000001e0: b5f3 4f3f e5fc b6be 7a9e d83e 2368 31bd
000001f0: 106b 163f 03cb 813d 3805 17bf a75a 713e
00000200: 82d2 ed3f 5291 b1bc 75ec 4b3e 51c4 f3be
00000210: 5bf2 55be c02c 693e d521 e63e 7163 923d
00000220: dc2e 0e3f d33e 10be 4324 4bbc 5136 40bf
00000230: be2b 813e 33d7 f03e e9b4 dd3e 6b8e 943f
00000240: c6e6 f63e de16 ae3f 8061 503f 572a 2bbf
00000250: 1fb8 2c3f 0d35 6cbf 9e25 25bf 6efa f03e
00000260: a313 943f a6d4 e7be 9918 2e3f ff20 a03e
00000270: 0767 fb3e 274d c43e c25a d2be 4ecf 2e3f
00000280: 8aca bb3f c473 d63f 5b69 08bf 22e6 e7be
00000290: 4d7c a63f 5989 20be 2757 eabd 5c13 cbbe
000002a0: 9c70 4cbf 7ee1 b3bf ff86 b2bd 39f8 e0bd
000002b0: e5c8 bb3f b092 c23e 6be2 533d 308a d23e
000002c0: 2992 4fbe ac1f 78bf f171 e43f e79c 093e
000002d0: 2a25 0b3f 8d44 0e3d cbd4 83be 0636 a63e
000002e0: 99a5 bf3f 781c 28bf d795 0f3f e8b6 4ebf
000002f0: 9d78 b6be ae9e 4e3f 9ddd 793f b290 ea3c
00000300: 5d92 0cbe 7278 0b3f d77d eb3e 0ffb 44bf
00000310: 21f3 8b3e d2ff 1940 652a 57bf b713 49bf
00000320: ec88 babe 0008 473f 2c32 19be 3288 873e
00000330: 5357 a2bc 23dd f6be ca40 823f 6fa9 483e
00000340: 174c e9be 05a4 a1be 59df 52be fead bebf
00000350: 72e3 d8bd c094 c83e bd97 0e3f a13c f3bb
00000360: 2b2c e33f f91b 333e a0ff e5be 0c73 bbbc
00000370: cedb 153e 2ebe a03d 77f5 92bf de10 14c0
00000380: eb1f b0bf 94e1 1ebf 1076 c1be 4c87 a63a
00000390: ed43 ddbd f0f9 abbe 565b e7be 94b8 86be
000003a0: d8f0 34bf b060 4ebf 247c 083f 314a 2abe
000003b0: ec5b bdbe a6eb 683f 3e85 7dbf 1fa8 5ebe
000003c0: a44e 0a3f 0194 063e 5757 293e dd23 d63e
000003d0: 8bed b2be bbfd 883f d37f 293f 827c 7b3e
000003e0: e226 97bf ad25 2a3f 77ff 48be f927 473d
000003f0: 56d6 34bf 7dde 153f f1c5 183e cdda 37bf
-1.2449641 -0.36236852 1.0479394 0.537067 0.34964716 0.9364011 0.7900075 -0.9700112
-1.379666 -0.73447424 0.8748071 0.49526623 0.25856817 0.8065342 0.0684802 0.03484409
0.043301307 0.7347717 -0.83281106 0.6628644 -0.07625104 -1.8032134 0.42094207 -0.9137409
1.0157704 0.26989457 0.4239667 -1.5412776 0.24712856 0.15438908 -0.23023878 0.65914655
-0.35194057 -0.037322335 -0.45924857 -0.40218118 -0.2654725 -0.28141066 -0.22656313 0.99170023
0.38555342 -0.047152516 -0.74321055 -0.14628825 -0.6145691 0.6825702 0.73723096 0.3914978
0.9208031 0.017591251 -0.015391164 -1.8107414 -0.30428365 -0.07649344 1.1350459 -0.895089
0.36504206 -0.45436218 1.5746689 0.6911826 1.4757984 0.61371267 0.3986656 1.534313
-0.1668982 -0.42511126 -1.4921468 0.09283233 -0.6477919 -0.47334978 0.7737735 0.55827725
-0.26264653 -0.23674652 -0.6375474 2.2929657 -0.40452704 0.5361115 -0.3988455 -0.38030675
0.39803177 0.343387 -1.514146 0.7679375 0.1458282 -0.5155993 -0.17790401 0.549626
-0.3356107 1.6826025 -0.17806719 0.30344704 0.5727282 0.09746983 -0.6372887 0.37781495
-1.1430722 -0.54042387 -0.400199 -0.5145958 -0.30218607 0.012299846 -1.1167393 -0.025581699
0.495174 2.0998826 -0.4751302 0.0011663792 -0.5492575 -0.22227682 -0.068359844 1.3488172
-0.8989548 -0.1574797 -0.8812495 0.058752995 0.05526086 -0.15151496 -0.63821805 0.77506095
0.8123124 -0.35739818 0.42308408 -0.043312203 0.58757114 0.063375495 -0.5899234 0.23569737
1.8579867 -0.02167574 0.1991442 -0.47610715 -0.20893233 0.22770977 0.44947687 0.07147873
0.5554025 -0.14086466 -0.012398782 -0.7508288 0.25228685 0.47039184 0.43302086 1.1605963
0.4822294 1.3600729 0.81398773 -0.6686148 0.67468446 -0.9226845 -0.64510524 0.47066063
1.1568493 -0.45279425 0.68006283 0.31275174 0.4910204 0.38340113 -0.41084868 0.6828507
1.4671185 1.6754079 -0.5328576 -0.45292765 1.3006684 -0.15677394 -0.11442404 -0.39663208
-0.7985933 -1.405319 -0.08717155 -0.10984845 1.4670683 0.3800254 0.0517296 0.41121054
-0.202706 -0.9692333 1.7847272 0.1343876 0.5435358 0.034733344 -0.25748286 0.32463092
1.4972411 -0.6566844 0.5608801 -0.8074784 -0.35638896 0.80710876 0.9760378 0.02863345
-0.13727708 0.5448066 0.45994446 -0.76945585 0.2733393 2.406239 -0.84049064 -0.7854571
-0.36432588 0.7774658 -0.14960545 0.26471096 -0.01981703 -0.4821559 1.0176022 0.19595884
-0.45565864 -0.3157045 -0.20593013 -1.4896848 -0.10590257 0.39175987 0.55700284 -0.007422999
1.7747854 0.1749114 -0.4492159 -0.022882007 0.1463463 0.07848774 -1.148116 -2.3135295
-1.375974 -0.62062955 -0.37785387 0.0012705117 -0.108039714 -0.33589125 -0.4518687 -0.26312697
-0.7068 -0.80616283 0.53314424 -0.16629864 -0.36984193 0.9098457 -0.99031436 -0.2174382
0.54026246 0.13142397 0.16537224 0.41824237 -0.34946856 1.0702432 0.6621067 0.24559215
-1.1808741 0.6646374 -0.19628702 0.048622105 -0.7063955 0.58542615 0.14919259 -0.7181824

fc3.bias f4 [2]
00000000: bb96 abbe f5a1 94bf
-0.33513436 -1.1611925

bn.weight f4 [256]
00000000: f1b7 9c3e b095 4f3f 27dd 093e 6370 263f
00000010: f2d1 bcbd ab0c d13e 57db ce3f 6711 fe3e
00000020: 3ae1 8dbe 2c15 0140 ce54 c53e ebf7 143f
00000030: 96db 3a3e fb42 2d3f 56f9 5e3e 3a56 083f
00000040: 411e 513f 12f3 013e c51b 093f 7b40 8abe
00000050: f4dc 983f 68b4 e23e f717 333f f40b 403f
00000060: bbfb 49bd 9737 183e b0b6 2f3e 20e2 c33e
00000070: 945e 9f3f 6ea4 243f fea5 9f3d 767a d73c
00000080: c1a6 083d 5b9d 1dbf 2b01 183f 8519 213f
00000090: 8b8a db3f d1b1 643e 2d33 da3e 3d0f ea3f
000000a0: 22e1 173f b73f 143f 78ee e83e 2835 223f
000000b0: 85f9 593f 8abc e83e 771b 6c3e 0cc1 053f
000000c0: 5526 ed3e 0916 573f fb8d d73e adf3 9c3e
000000d0: 9106 6c3f c6d0 9f3d a243 f93e 3049 eb3e
000000e0: 9323 e63f 3dc9 afbe 1fb7 07bf 1a6a c13e
000000f0: 4135 953e 1bd9 3c3e 77b0 913e feed 2d3f
00000100: cc68 64be a19a 0ebd ae5b 183f bdf1 bc3e
00000110: 781d cb3e d5c6 253f c759 d23e d125 883e
00000120: 2b12 503f 94f1 463e 3b40 023f 780f bb3e
00000130: cb9f b3be 4472 a93f b7ec 903e b6f2 00be
00000140: 65d6 403f 486f df3e 589f 823e 5492 423f
00000150: 6f9e 6b3f 7327 803e b5b4 db3c 3f08 17be
00000160: 118e d13e b24b e93f 7be7 383e 0918 423f
00000170: 6127 503f 0fdc c33f a5be f33e c723 b23e
00000180: 3294 8c3e 1c3a 09be cdbe 7d3e 508b 743e
00000190: 46ae bc3f 3d24 413d 0381 e3be 4369 cc3d
000001a0: 05c2 ac3d 8a29 9d3d 9e91 153f e0fc 2fbd
000001b0: bada c83e eb73 7840 92ed 1e3f f68a d83e
000001c0: 4e7d be3f d209 2340 b822 923f 5388 fe3e
000001d0: 83e2 bd3e d11d bd3e 7e18 a63e 9f7a 993d
000001e0: 20c7 2f3e f601 b0bc 1541 9e3f 7d40 653e
000001f0: 5838 013f c637 b6bd 6032 ae3f 314b 973f
00000200: 0c15 63be caba 8a3e 7ce5 0f3f 3b6f 893f
00000210: 48a5 043f c25e 24be be4f 7b3e d81d 223f
00000220: 0eb6 b53c 533e 873e 3f25 d33e da01 64be
00000230: 3d13 883e 78f1 d6bd 23f0 ad3e 38d6 5b3e
00000240: e326 273f c53f 573e ad48 1d3f 24de cb3e
00000250: f6e8 2d3f efb0 b53e 28d2 18be 5780 59bf
00000260: 762b e33f 59d5 b73e f481 b23e 6c83 c13e
00000270: 313f 513f 8952 263e a161 ec3e 5069 2d3b
00000280: cd17 80be 126b 233e d26f 54bb d8f1 4b3f
00000290: c25e 0a3f 6e84 af3e f2be ba3e 29eb df3f
000002a0: bb5a 283f 69e0 4f3d 16de 243e 91c3 933e
000002b0: 33b1 4f3e 11b6 ddbb 37ab d43e 730e 163e
000002c0: 45e0 5f3f 39a1 2840 ca91 873f e768 113f
000002d0: 220f 133f 5551 543e 1964 7d40 1ae1 f73e
000002e0: 3f9a 993e 57b1 233f 2bce 323d 7012 46bf
000002f0: e4cd d83c 774c 353f 33b1 8d3e 2368 bb3e
00000300: 6437 ef3e 4684 993f 3da2 a43e 3c20 903f
00000310: ddcc b63f 9260 f93e c549 d53e 08be 923f
00000320: c888 9b3d 871d 3d3f 43cb 813f 4f34 613e
00000330: 73ba 683e 2475 183f 01c5 9ebe a895 fb3e
00000340: 26a7 d03d d71a 01be c59c 383d 06d1 763e
00000350: 88ae 833f 0f9d 103f c344 303e e95d d03e
00000360: 392d fc3e 6355 ba3d 45c8 833c 1aaf b13f
00000370: c9f1 b33f 65e1 193f f7aa 283e db6e 393f
00000380: 973e 04bd 52cd 793e 7100 123f 8a34 893f
00000390: 2671 2cbe 32fc ab3e 67dc ef3f c19b 433e
000003a0: a508 bb3f 9478 2840 7e2c 433f 4a1f 1a3e
000003b0: 90ed 5a3f da54 c33e 7d1d 903f a533 503f
000003c0: 2a1c 133f 111f c93d e13b 223e ce9b d13f
000003d0: 300a c83e 77aa 89be e86d aebe 4502 443f
000003e0: 3ac8 f43d ac3b 913e 113b 903e 5054 febe
000003f0: 7633 efbe 26d8 c23e 25e1 48be 9f5c cc3e
0.30609086 0.8108778 0.13463269 0.6501524 -0.092197314 0.40829977 1.6160687 0.49622652
-0.27710897 2.0169172 0.38541263 0.5819079 0.18247828 0.6768033 0.21774802 0.5325657
0.8168679 0.1269038 0.53558 -0.2700232 1.194243 0.44278264 0.6995844 0.7501824
-0.049312335 0.14864956 0.17159534 0.38258457 1.2450738 0.643134 0.07795332 0.026303511
0.033362154 -0.6156823 0.5937678 0.62929565 1.7151655 0.22333457 0.4261717 1.82859
0.593279 0.5790972 0.45494437 0.6336236 0.8514636 0.45456344 0.23057352 0.5224769
0.46318308 0.84018 0.4210051 0.3065466 0.9219752 0.07803492 0.48684412 0.45954275
1.7979606 -0.3433322 -0.53013796 0.37776262 0.29142192 0.18442194 0.28454944 0.6794127
-0.22305602 -0.034815434 0.5951489 0.36903182 0.3967092 0.6475652 0.4108412 0.26591352
0.8127772 0.19428092 0.5087926 0.3653524 -0.3508285 1.3237996 0.283056 -0.12592587
0.7532714 0.43639588 0.25512195 0.7600453 0.92038625 0.25030097 0.026819566 -0.1474924
0.409287 1.8226225 0.18057053 0.75817925 0.8131009 1.5301532 0.47606388 0.3479292
0.27456814 -0.13401073 0.24779816 0.23881269 1.4740684 0.0471537 -0.44434366 0.099810146
0.08435444 0.076739386 0.5842532 -0.04296577 0.39229375 3.882075 0.62081254 0.4229352
1.488199 2.5474744 1.1416845 0.49713382 0.37086877 0.3693681 0.3244056 0.07494091
0.17165804 -0.02148531 1.2363611 0.22387882 0.504766 -0.08897357 1.3609123 1.1819822
-0.22175997 0.27095634 0.5620954 1.073707 0.518147 -0.16051772 0.24542138 0.6332679
0.022181537 0.26414737 0.41239354 -0.22266331 0.26577178 -0.10495275 0.33972272 0.21468437
0.6529371 0.2102042 0.6143902 0.39817917 0.67933595 0.35486552 -0.14923918 -0.84961456
1.7747638 0.3590496 0.3486477 0.3779558 0.8173705 0.16242422 0.46168235 0.0026460476
-0.2501816 0.15958813 -0.0032415283 0.796659 0.5405084 0.34280723 0.36473805 1.749364
0.65763444 0.050751124 0.16100344 0.28860143 0.2028244 -0.006766089 0.41536877 0.1465395
0.87451583 2.6348403 1.0591366 0.56800693 0.57444966 0.2073415 3.9592345 0.48413926
0.30000493 0.63942474 0.04365365 -0.77371883 0.026465364 0.708198 0.27674255 0.36602888
0.46721947 1.1993492 0.32155028 1.1259837 1.4281269 0.4870649 0.41657844 1.1464243
0.07594448 0.7387318 1.0140156 0.2199261 0.22727375 0.5955374 -0.31009677 0.49137616
0.10188131 -0.12607895 0.045071382 0.24103174 1.0287638 0.5648965 0.1721373 0.40696648
0.49253252 0.090983175 0.016086707 1.3881562 1.4058162 0.6010955 0.16471468 0.7243478
-0.032286253 0.2439473 0.57031924 1.0719159 -0.16840038 0.33590847 1.8739136 0.19102384
1.4612013 2.6323595 0.76239765 0.15050998 0.8551874 0.38150674 1.1258999 0.81328803
0.5746485 0.098203786 0.15843154 1.6375673 0.39070272 -0.26887867 -0.34068227 0.76565963
0.11952253 0.2836584 0.28170064 -0.496737 -0.4671895 0.38055533 -0.19617136 0.39914414

bn.bias f4 [256]
00000000: bc6e 323e c466 613e 0abf e5bb dfd5 043f
00000010: bdd5 59bd c274 17bd 39f4 6abd 46a3 25c0
00000020: baf5 17be cc31 083f 576d 3a3d d5a9 933e
00000030: bd40 fa3d a96d ae3e 533d 0a3d cc25 ce3d
00000040: be87 dc3e f8fc 4e3d a5c3 0e3e 3f1d 9dbd
00000050: 63f4 a13e d3b5 8f3d 47fb ba3f df7b 8b3e
00000060: 707e 7d3c 36ac 67bc 6a2f 93bb c975 d5bd
00000070: d65b 0b3f 6e96 ac3e b7fc 8c3d 332f b73f
00000080: 11c8 24bc eff9 3140 59de 983f c49b 223e
00000090: 1a06 df3e 7e63 153f 8e90 093e 5d75 c83e
000000a0: 1699 a93e 9f92 0f3f c6a5 3d3f ecf1 0fc0
000000b0: 9240 ab3d 0e17 dd3d 11bd 0c3d 6403 df3e
000000c0: 4ac1 793e 6236 5cbc f54b 373e 787e ba3d
000000d0: 2585 053f b42b c53e 56c4 ab3e 199d a33e
000000e0: 8cdf 7b3e 26a9 cb3c f0ce 433c be1d 203c
000000f0: 8378 ba3d 52f5 823d 76bf 4d3e efe7 c83e
00000100: b473 8abc 8319 b3bb e1c0 a03f 0d3a 653e
00000110: 9aa5 6a3e 02a3 d83e 6d9a bd3e 395f 7abd
00000120: 84b6 693f bf78 303d 6580 0b3f 5503 a03f
00000130: aaf3 93bd 6c8c 1d3d 6059 683d 5db3 973c
00000140: f404 cb3f fe61 9f3c 3bfe 9c3b fe99 253f
00000150: eb6c 2e3f 0be0 38bd 9715 0abd 08a1 c93c
00000160: e818 433f 477a 5cbe 9342 a2bb 3d72 023e
00000170: 1dc4 f53e 8b99 34bf ea35 b23f 88d0 143e
00000180: 70a7 e63d fafa f9be f113 bf3d 543e cd3d
00000190: 9ba9 0d3f 594e 463c 66cc af3d a989 3f3d
000001a0: 01cd ad3b 3a87 79bc e3fb 223f a6a5 85bc
000001b0: 2675 723d 6326 2b3f 49e1 8a3e 6d48 17bd
000001c0: ca4d 443f 2f11 ca3c 2a14 693e f7bb 403f
000001d0: 8fb5 49be f475 6b3d d780 283d 2d99 babb
000001e0: 9501 34bd f8e7 beba 9236 103f f340 ac3d
000001f0: f08d 8a3e 5027 dfbc d640 11bf 6135 743e
00000200: 6c18 1cbf 3772 e03d 4b7c 173e 7252 1a3e
00000210: f8a4 ff3e 8071 623c eeb8 873e fc5c 443e
00000220: 0342 ffbc ca30 b83d c557 953e d25c d1bd
00000230: ab8c d93c 56fb f8bb b974 ed3d 54bb b73d
00000240: 402b 603f b128 423e d21d 123d 3ac1 f53e
00000250: 589e 763e 59ec 8a3d 295c c0bd 7885 2740
00000260: d9bc 2d3f a6fc d43e 87c7 8b3f dcc7 5fbd
00000270: 7622 073f eeac ce3c fecb e83d 0c3a 7abc
00000280: f08f 06bd 04b8 8b3d 7d42 4c40 5fe4 503e
00000290: 5a6e cdbf f881 f9bc d2eb 933d 21b4 b33e
000002a0: ee9b 963c 6456 023d 9620 993d 4719 5f3e
000002b0: 7ff1 22bf 0d0e 083d e94b 833d 2ca5 e7bd
000002c0: b0dd dc3e 3ebd 5a3f bc02 133e 0aac ac3e
000002d0: dcb0 b63c 1a49 a23e b4cf 373d 9cc3 95bc
000002e0: d643 933d 6e56 003f bfcc 9ebb a032 17bf
000002f0: 1099 b8bc 15d4 133e c5b2 da3d fb28 9a3e
00000300: 16a8 903d c3d4 5c3e 93b7 893d c87f 333f
00000310: de55 d73d 4267 7d3f 2f92 983b 4409 aa3c
00000320: 7a83 f3bc d3aa 4aba bc64 663e 96a9 be3d
00000330: 9295 b53c 6679 e3be 33f9 9b3c 7a1e 2e3f
00000340: 6c5d 233d 49f2 5dbc 7d4b 073c ddb5 b93d
00000350: ac40 163f 1a0e d33d 9ecf 363b 07b5 ec3e
00000360: 7cfc 363e fc93 2ebd 2cfe 98bb 9f09 9a3f
00000370: 3e76 0c3f 6270 e53e 5830 49bc 6d6c 103f
00000380: e4b5 6ebd 8557 7fbd 8074 d53c f342 bf3e
00000390: 8582 233c 3abc 813d 017c 563f 4d5f 603d
000003a0: 176f bc3e c858 2a3e 1cdb aebe 5d1f 363f
000003b0: 255b 8c3e cb3c 87bc 5cb8 3f3e a82d 613f
000003c0: 7830 0b3d 458f 8b3d 8aa9 863d 31d2 253e
000003d0: 7dcd 1f3c 5f75 f6bc 01eb 2cbc 39d6 7abc
000003e0: 2126 c53c 1157 9a3d c7ec 343f 49cc 4bbd
000003f0: 1924 d73e 53a1 493e 8477 173f 5f6d 2e3e
0.17425054 0.22011858 -0.007011299 0.5188884 -0.053182352 -0.036976583 -0.057361815 -2.5880904
-0.14839831 0.53200984 0.04551443 0.2884051 0.12219379 0.3406804 0.03374989 0.10065803
0.43072313 0.05053422 0.1394182 -0.07671594 0.31631765 0.07017102 1.4607934 0.27242944
0.01547204 -0.014140179 -0.004491736 -0.10422856 0.54437006 0.3370852 0.06884139 1.4311279
-0.010057465 2.7808797 1.1942855 0.15879732 0.43559343 0.5835494 0.1343405 0.3915204
0.33124608 0.560831 0.74081075 -2.2491407 0.08361925 0.10795413 0.034359995 0.43557274
0.2439014 -0.0134407 0.17900069 0.09106153 0.5215629 0.38509905 0.3354823 0.31955793
0.24596995 0.02486093 0.011951193 0.009772716 0.09105017 0.063944474 0.20092568 0.3923945
-0.016900875 -0.0054656877 1.2558862 0.22385426 0.22914734 0.42311865 0.3703188 -0.061125968
0.9129412 0.043083902 0.5449279 1.2501017 -0.072242096 0.038463995 0.05672586 0.018518144
1.5860887 0.019455906 0.004791049 0.646881 0.68134946 -0.04513554 -0.033711996 0.024612918
0.7620988 -0.2153102 -0.004951784 0.12738891 0.48001185 -0.7054679 1.3922703 0.14532673
0.11262405 -0.48824292 0.093299754 0.10021654 0.5533692 0.0121036405 0.08583908 0.046762142
0.0053039794 -0.015229994 0.636656 -0.016314339 0.059193753 0.6685545 0.27125004 -0.036934305
0.76681197 0.024666397 0.22761598 0.7528681 -0.19698165 0.057485536 0.041138496 -0.0056945295
-0.04394682 -0.0014564982 0.5633327 0.084108256 0.27061415 -0.027240425 -0.56739557 0.23848487
-0.60974765 0.10959285 0.14793508 0.15070513 0.4993055 0.013821006 0.26508278 0.19176096
-0.031159407 0.08993681 0.29168525 -0.10222782 0.026556334 -0.007598321 0.11594529 0.08971277
0.87565994 0.18960835 0.03567297 0.47998983 0.24083841 0.06783361 -0.09392578 2.6175213
0.67866284 0.41599005 1.0920266 -0.05463396 0.5278696 0.025228944 0.113670334 -0.0152726285
-0.032852113 0.068222076 3.1915581 0.20399617 -1.6049302 -0.030457482 0.072227135 0.35098365
0.0183849 0.03182067 0.074769184 0.21786986 -0.63649744 0.033216525 0.06410963 -0.11310801
0.43137884 0.8544501 0.14356512 0.33725005 0.02230113 0.31696397 0.044875816 -0.01828175
0.07190673 0.5013188 -0.004846185 -0.5906162 -0.022533923 0.14436372 0.10678629 0.3010939
0.0706331 0.21565537 0.06724467 0.70116854 0.10514425 0.98985684 0.0046560983 0.020756371
-0.029725779 -0.0007731143 0.22499365 0.0930969 0.022166047 -0.44428557 0.019039726 0.68015254
0.039884016 -0.013546535 0.008257744 0.09067891 0.5869243 0.10305424 0.0027894746 0.46231863
0.17869753 -0.042621598 -0.0046689715 1.2034186 0.54867923 0.44812304 -0.012279592 0.56415445
-0.058278933 -0.062339325 0.026056528 0.37355766 0.009979849 0.063347295 0.83782965 0.054778386
0.36803505 0.1663543 -0.34151542 0.71141607 0.27413288 -0.01650848 0.18722671 0.8796029
0.03398177 0.06814436 0.06575306 0.16193463 0.009753582 -0.030085264 -0.010554076 -0.015309864
0.024066033 0.07536138 0.70673794 -0.04975537 0.42019728 0.19690447 0.5916674 0.1703391

bn.running_mean f4 [256]
00000000: 523d 8941 7b67 863c 0400 0000 b5f5 1f40
00000010: b128 5340 5ac4 022d a1f5 8940 09a1 1542
00000020: 08a3 4440 5524 e63f 0a8e 1641 5ea7 7540
00000030: 7f30 d140 d97d dd3f 7148 5040 008f 023f
00000040: 5174 9141 16b4 9840 c8eb de3f 8bf0 f940
00000050: 2349 bf3f a739 023f 73f3 4b40 4f52 b740
00000060: cfae 6241 57d6 133f 0400 0000 22c2 ba40
00000070: 201f 3c41 515c d03f 9599 5541 05c4 0d42
00000080: 767f 3740 8f75 7b42 0400 0000 2d9f b13e
00000090: 2590 4c42 4cdb 1d41 4662 5340 8af6 3740
000000a0: 5bbc 0541 6976 ca3d 8c2b 9040 11f9 1a41
000000b0: 3b43 c83d 46bc 8340 4d0a 943a 85ec 5b3f
000000c0: 4bbc 7040 0400 0000 357a 3441 450c 8440
000000d0: e479 bd40 512e 563f 7870 8740 26e4 6740
000000e0: a7dc e241 9604 f937 fd8b 5a3b 0400 0000
000000f0: 3f29 133f c4e5 8141 a510 6640 92e4 f13f
00000100: af9d 263c e55f c33f 6d39 4b40 6905 1e3e
00000110: de65 2240 fdcb c23e 51c4 0341 f319 b33f
00000120: e868 4941 26ff 6f3f 9ed8 1841 8c6b 1641
00000130: 9b0c 6d40 e9e7 8d3c aa2f 913f c484 7c3f
00000140: a025 ae3f 17a9 a13c 0400 0000 845b b13f
00000150: d3af 9541 8975 433b e4f8 5541 ee27 0c40
00000160: 6476 073e 1631 803f 0400 0000 bf30 ad3f
00000170: 7cfb fe40 5653 c641 a518 ad3d 9f3a 1a40
00000180: dc45 7b40 8cf3 0a41 ee1c 8b3f 65fb 2f40
00000190: ca2a 1541 9b90 e93e aa1c f63d 32d4 c640
000001a0: acfa 3940 c90c dd3f 7b89 6941 8cb3 283e
000001b0: 6c49 4d3e 327c 3940 55eb 3c3f 5da5 df3a
000001c0: 36bf c440 0400 0000 78d1 ce3e edac fa3e
000001d0: 3242 913f 5b4d 0040 13c8 9940 4be4 963e
000001e0: 991e 2340 3e67 da3e 92a4 cf40 ec1d 2340
000001f0: 6ee4 fb3f d4d5 553e 601c 9f41 b824 183f
00000200: 6e27 1f41 d70c b63f b706 ea3f 0fa3 4141
00000210: 534a 5e41 150d 333f 570c 913f 7f2f 9f3e
00000220: bdb3 a23f 26bc 523e 8748 7940 cad4 8d41
00000230: 9967 ab3e 2d41 012f 8e2a 0f40 58d3 9740
00000240: 8128 573f 6223 fb3f 9f8b f83c 8fcd 7440
00000250: 08cc 973f fd48 183f fe00 2f40 0635 b141
00000260: dc85 1640 d4d2 a740 f52b ad3f 8d40 433f
00000270: 59a5 7042 3cd6 863c 2ec0 863f eb94 bc40
00000280: d489 3c3f 502e ed40 0400 0000 0df2 2f40
00000290: e179 3741 cf7f 773b 658b b13f 7fc7 323f
000002a0: 0400 0000 2c12 4341 538b e740 d461 7241
000002b0: 508b 0c42 0081 cb3f c9b2 6e3f 2ef3 aa3f
000002c0: f4a4 b840 59be 3b41 e667 4b3f 878a ee40
000002d0: c492 1f40 3eab f740 c552 2641 123f 623d
000002e0: db81 1440 a99b bc3f 0a27 6541 7458 3041
000002f0: 0866 3c41 4e8a 533f 772a 2a40 6bb5 933e
00000300: 8ab6 0b3f b3ca 243f 059a b73e e86f a841
00000310: e2be 6c3d f979 6c14 cf21 1a3b a3c9 233b
00000320: daf6 c340 9c15 3f2f 8c7c 0c3d e242 4641
00000330: 3e1e 273f 08f2 6a40 b67b f140 d167 8641
00000340: 0d1f b341 a7e7 ac3d 3f85 0440 9c0f cc3f
00000350: 9a96 df40 cab8 ba3f 77c6 1740 9789 4941
00000360: 063e 8d40 0d74 3240 e37e f240 f56d f640
00000370: 80a5 5840 0e66 b040 8ed8 533e 9d07 d540
00000380: 5220 1941 5e5a 6540 ec36 a940 fb88 3840
00000390: 887a 293b 9095 943d ca77 2d41 fe30 9e40
000003a0: bb4b 313f 9543 7140 7b7e 523f b320 d831
000003b0: 9b7f a441 4c9e d73a 3a9c ae41 0970 0841
000003c0: 216b ec3f 2b80 1441 ba2c e640 6547 af3e
000003d0: ca25 1138 3da6 733b 0e00 0000 dc84 2841
000003e0: 3d16 943f a82b 853f 5334 393e 9b8e f93e
000003f0: 1543 b93d 91e3 0040 321f 013e 5ed8 c941
17.154942 0.016406765 6e-45 2.4993718 3.2993586 7.433243e-12 4.311234 37.40726
3.0724506 1.7979838 9.4096775 3.8383403 6.53717 1.7304031 3.2544215 0.5099945
18.181795 4.771983 1.7415705 7.810613 1.4944195 0.5086922 3.186734 5.7287974
14.167678 0.5774893 6e-45 5.836198 11.757599 1.6278173 13.349996 35.441425
2.8671546 62.864803 6e-45 0.34691754 51.140766 9.866039 3.3028731 2.8744226
8.358485 0.09885866 4.505316 9.685807 0.09778448 4.1167326 0.0011294574 0.85907775
3.7614925 6e-45 11.279836 4.1264977 5.921129 0.83664423 4.232479 3.6233
28.35774 2.9685249e-05 0.00333476 6e-45 0.5748481 16.23719 3.594766 1.8897879
0.010169431 1.526364 3.17538 0.15431751 2.5374675 0.38046256 8.235429 1.3992294
12.588112 0.937487 9.552885 9.401257 3.7038944 0.017322497 1.1342671 0.98640084
1.3605232 0.019733949 6e-45 1.3856053 18.710852 0.0029824695 13.373264 2.189937
0.13228756 1.001498 6e-45 1.3530501 7.968199 24.790691 0.08451966 2.409828
3.9261389 8.68446 1.0868204 2.749719 9.322947 0.45618138 0.12017186 6.2134027
2.9059248 1.7269527 14.596065 0.16474742 0.2004754 2.8982053 0.7379659 0.0017062832
6.148341 6e-45 0.40394187 0.48960057 1.1348326 2.0047214 4.805673 0.2947105
2.5487425 0.42656893 6.488839 2.5487013 1.9679086 0.2088235 19.888855 0.5943103
9.947126 1.4222668 1.8283299 12.102309 13.893146 0.69941837 1.1331891 0.31090924
1.2711102 0.20579585 3.8950517 17.7289 0.33477476 1.1755637e-10 2.2369723 4.744549
0.8404618 1.9620173 0.030340014 3.8250463 1.185914 0.5948637 2.7344356 22.15089
2.3519201 5.244486 1.352904 0.7627037 60.161472 0.016459577 1.0527399 5.8931785
0.7364781 7.4119034 6e-45 2.7491486 11.467256 0.003776539 1.3870665 0.69835657
6e-45 12.1919365 7.2357574 15.148884 35.136047 1.5898743 0.93241554 1.3355463
5.770136 11.733972 0.7945541 7.45441 2.4933329 7.7396536 10.395207 0.05523593
2.3204257 1.4735004 14.322031 11.021595 11.77491 0.8263291 2.6588418 0.28849348
0.5457541 0.64371794 0.35859695 21.054642 0.057799228 1.193901e-26 0.0023518687 0.002499201
6.1238832 1.7379026e-10 0.034298465 12.391329 0.6528052 3.6710224 7.5463514 16.800692
22.390162 0.08442622 2.0706327 1.5942264 6.987134 1.4587643 2.3714883 12.596091
4.413821 2.7883332 7.577989 7.7009225 3.3851013 5.512458 0.20688078 6.6571794
9.570391 3.5836406 5.2879543 2.8833606 0.0025860388 0.07255089 10.841745 4.9434805
0.6925618 3.7697499 0.82224244 6.290145e-09 20.562307 0.0016450374 21.826283 8.527352
1.8470193 9.281291 7.19296 0.34234157 3.4605888e-05 0.0037177943 2e-44 10.532436
1.1569287 1.0403948 0.18086366 0.48741612 0.09045998 2.0138896 0.12609556 25.230648
