MADDPG/checkpoint_maddpg_critic_agent_0.pth (torch_old, 324306 bytes, 9 tensors)

fc1.weight f4 [256, 52]
0.2716669 1.4904169 -0.06407166 -0.2514253 -0.19652884 -0.14127128 -0.07716738 -0.24448912
0.5850293 0.30634007 -0.011811447 -0.39273685 -0.5018979 -0.028329216 -0.074455634 -0.36197656
1.1372077 -0.9060082 0.03784752 -0.46427053 -1.4920518 0.5793313 -0.013785959 -0.5742307
-0.48674527 2.7190614 -0.06347584 -0.19764754 0.2736046 -0.13201043 -0.02534846 -0.2086872
-0.37921178 2.527774 -0.03616629 -0.9723415 0.5191699 -0.05586378 -0.09744499 -1.0005968
0.04556968 1.5669525 -0.15958115 -0.6042846 1.5905973 0.55719274 -0.15582477 -0.5339249
-1.0780581 0.44002658 -7.719207 0.6871874 -0.6848715 0.5002827 0.02160732 1.9968634
-0.7578828 -0.66374475 -0.0024663117 1.9928917 -0.3117432 1.2303549 -0.17150299 2.2616038
-0.3844959 -1.451018 -0.15706915 2.291807 -0.07538526 1.9597551 -0.08284311 -0.23813638
0.28577057 -1.5596862 -0.08192 -0.27359977 -0.3946279 1.0588781 0.004676133 -0.11692002
0.75586194 -0.72239774 -0.0031831823 -0.12879077 0.18636173 0.8459956 0.16893487 0.58908147
0.36380374 -1.4062542 0.12563848 0.5612505 0.9899377 0.67109925 0.16471833 0.5761235
-0.28337166 -1.481666 0.1812453 0.54503626 0.112143464 3.7705626 1.440455 1.4589577
0.024972118 -0.7271966 -0.035415895 -0.05643064 0.30432355 -0.9376317 -0.0021045313 -0.040467534
0.517415 1.0072507 -0.048182346 -0.12794842 0.009172519 -0.6013827 -0.06029433 -0.09942974
1.1706221 3.150581 -0.050284594 0.11549938 -3.429916 0.8969547 -0.031942643 0.09402438
-0.7659242 -0.042735178 -0.018715546 0.2526047 -0.29248932 -0.95859593 0.015670694 0.3467469
-0.28004536 0.89482677 -0.025178537 0.49532834 0.033397067 -0.5927024 -0.09149588 0.43275145
1.3824025 1.2233176 -0.049668062 0.5819008 3.4393513 0.8579328 -0.11273456 0.6552028
1.8888744 0.44400582 -0.3213611 0.38716882 0.316228 0.22346158 -0.047269337 -0.14722358
-0.4497144 -0.9180257 -0.08790678 -0.12914836 0.9680379 -0.1244413 0.3647243 -0.4679567
-0.46369028 -0.92467946 0.26572844 -0.3999421 1.1530184 -0.6280908 0.20547962 0.027096204
-0.22319955 -3.7336113 0.18466315 -0.053575367 -0.06287363 1.8914974 -0.04550371 -0.3103497
0.46497273 -0.9786943 -0.114050694 -0.39317068 0.00959834 1.9567301 0.00056359335 -0.17253646
0.55746824 -0.8711123 -0.03919109 -0.07520013 0.401454 2.9290226 0.5321902 0.88767946
0.2592208 -3.795021 0.53865653 0.9598327 -1.2551105 -1.4723543 0.8869643 -0.74233705
0.39514282 3.4747233 -0.017785594 0.14544204 -0.009790135 0.3097078 -0.07015806 0.079631835
0.6747488 3.5610533 0.11601603 -1.0850117 -0.0656178 -0.6125447 0.10065211 -0.9995546
0.33911943 2.9791617 0.08188479 -1.7111299 0.12487121 -1.1477035 0.0075626518 -1.6678365
0.6104241 -1.5834794 -0.04719987 0.10696933 0.012645844 0.28117537 -0.08408397 0.191109
1.0834779 -1.5478369 -0.014159672 -0.18016277 0.040662266 -0.5489983 -0.0120366 -0.17921622
2.222328 -1.8745468 0.03125789 -0.7799359 -0.15357915 -1.0908047 -0.008600315 -0.76658154
00000000: ed17 8b3e fbc5 be3f 0138 83bd d1ba 80be
00000010: db3e 49be 6ba9 10be ee09 9ebd 5b5b 7abe
00000020: 7bc4 153f 9bd8 9c3e cd84 41bc ce14 c9be
00000030: 617c 00bf ac12 e8bc 327c 98bd fe54 b9be
00000040: 0690 913f 27f0 67bf 0006 1b3d deb4 edbe
00000050: 8efb bebf 0e4f 143f 81de 61bc c800 13bf
00000060: ad36 f9be 1a05 2e40 9fff 81bd 1e64 4abe
00000070: e715 8c3e be2d 07be 93a7 cfbc 19b2 55be
00000080: 0c28 c2be 0dc7 2140 1b23 14bd 5feb 78bf
00000090: 52e8 043f 6bd1 64bd 3d91 c7bd 8e13 80bf
000000a0: 46a7 3a3d e691 c83f 3e69 23be 65b2 1abf
000000b0: b198 cb3f 2fa4 0e3f 8790 1fbe 4daf 08bf
000000c0: cffd 89bf 2a4b e13e be03 f7c0 83eb 2f3f
000000d0: bd53 2fbf 8712 003f d601 b13c 3899 ff3f
000000e0: 9b04 42bf 2deb 29bf d8a1 21bb 1317 ff3f
000000f0: ce9c 9fbe 457c 9d3f 7b9e 2fbe 1ebe 1040
00000100: a6dc c4be f5ba b9bf bcd6 20be f7ac 1240
00000110: 9663 9abd 41d9 fa3f a6a9 a9bd 06da 73be
00000120: 8550 923e cca3 c7bf acc5 a7bd 4515 8cbe
00000130: ab0c cabe 5189 873f 3f3a 993b c373 efbd
00000140: 2b80 413f 0fef 38bf f09c 50bb bae1 03be
00000150: 9cd5 3e3e 2b93 583f 43fd 2c3e 0bce 163f
00000160: 7c44 ba3e 2300 b4bf 60a7 003e 1dae 0f3f
00000170: 8f6c 7d3f 29cd 2b3f ecab 283e d47c 133f
00000180: 1716 91be 3ba7 bdbf 5e98 393e 7f87 0b3f
00000190: 79ab e53d e650 7140 d460 b83f 20bf ba3f
000001a0: 5492 cc3c 8e29 3abf 4210 11bd d123 67bd
000001b0: 4cd0 9b3e a208 70bf 2dec 09bb 49c1 25bd
000001c0: 4f75 043f 97ed 803f da5a 45bd e904 03be
000001d0: 5548 163c 37f4 19bf 30f7 76bd d2a1 cbbd
000001e0: f2d6 953f 1ea3 4940 38f7 4dbd f08a ec3d
000001f0: be83 5bc0 d39e 653f 4ad6 02bd db8f c03d
00000200: 9c13 44bf 150b 2fbd 5851 99bc 6755 813e
00000210: 29c1 95be 8b66 75bf d45f 803c cf88 b13e
00000220: 1b62 8fbe 5e13 653f 3843 cebc ad9b fd3e
00000230: 5dcb 083d 58bb 17bf 3162 bbbd 9991 dd3e
00000240: 91f2 b03f ac95 9c3f bd70 4bbd 73f7 143f
00000250: 551e 5c40 7ca1 5b3f 61e1 e6bd 5fbb 273f
00000260: a3c6 f13f bb54 e33e 7189 a4be fe3a c63e
00000270: a3e8 a13e 1dd3 643e 7e9d 41bd c7c1 16be
00000280: f740 e6be bb03 6bbf 7808 b4bd 783f 04be
00000290: 55d1 773f 15db febd 25bd ba3e 0598 efbe
000002a0: d068 edbe cbb7 6cbf 8f0d 883e 36c5 ccbe
000002b0: 1b96 933f 8fca 20bf 4069 523e dcf8 dd3c
000002c0: 6c8e 64be 7df3 6ec0 5618 3d3e d871 5bbd
000002d0: e4c3 80bd 961c f23f 1962 3abd 28e6 9ebe
000002e0: e810 ee3e b68b 7abf 6993 e9bd ab4d c9be
000002f0: 5b42 1d3c 2276 fa3f 1cbe 133a 66ad 30be
00000300: 3db6 0e3f 3701 5fbf d686 20bd 8702 9abd
00000310: 618b cd3e 1b75 3b40 9e3d 083f f63e 633f
00000320: 97b8 843e a0e1 72c0 65e5 093f 99b7 753f
00000330: 76a7 a0bf 1b76 bcbf 1810 633f cd09 3ebf
00000340: 2950 ca3e de61 5e40 18b3 91bc c2ee 143e
00000350: cd66 20bc 0592 9e3e 07af 8fbd 0416 a33d
00000360: 56bc 2c3f 4ce8 6340 d099 ed3d aae1 8abf
00000370: a062 86bd bbcf 1cbf b222 ce3d cfe2 7fbf
00000380: 10a1 ad3e 96aa 3e40 36b3 a73d 4e06 dbbf
00000390: 7abc ff3d f3e7 92bf 1fd0 f73b ab7b d5bf
000003a0: c144 1c3f 74af cabf a754 41bd bc12 db3d
000003b0: 8430 4f3c 38f6 8f3e 3734 acbd 14b2 433e
000003c0: 67af 8a3f 851f c6bf f8fd 67bc 977c 38be
000003d0: 7a8d 263d 278b 0cbf 2935 45bc 7584 37be
000003e0: 9f3a 0e40 26f1 efbf 4608 003d e1a9 47bf
000003f0: da43 1dbe 7d9f 8bbf 56e8 0cbc b03e 44bf

fc1.bias f4 [256]
-2.7985845 -1.5904349 -4.7056265 -0.27416065 -0.33145553 -1.3639051 -2.8384976 -3.396719
-1.0493549 -2.1913 -2.9072602 -1.639499 -0.122947186 -1.9056835 -2.6400552 -1.8376095
0.32770425 -0.14746785 -1.2499734 -0.8821972 -1.3523697 -0.6741408 -0.6229679 -0.09185332
-0.37042448 -1.0534284 -2.2333179 -2.3207226 -0.5796102 -1.5950454 -0.9397364 -1.0764134
-0.6871278 -0.32877028 -1.9061881 -0.97804683 1.0204616 -4.557748 -1.4923062 -1.0604404
0.054874316 0.608532 -1.3599881 -0.6826781 -0.731485 -1.0122318 -0.41586775 0.97685677
-0.5692851 0.10342806 -1.3560367 -0.33837286 -0.025422055 -0.57250434 -2.0340126 -1.2434984
-1.5367876 -5.289051 -0.29761797 -0.71823657 -1.9177614 0.08127277 -0.6943211 -2.501086
-3.257753 0.59845424 2.4552453 -1.2232151 -0.5484834 0.113615945 -2.258104 -0.42367378
-1.2720306 -0.5110861 -1.2625747 -1.6026968 -0.22498852 -1.483793 -0.7328767 0.18699382
-1.6384945 -0.94465756 -1.3008292 -1.3206015 0.2612116 -1.2764844 -0.50469977 -1.9068317
-1.5319874 -0.2095506 0.42404005 -2.1271005 -2.9776237 -0.1725845 -6.4173203 -1.1361394
-1.7357477 -0.7253434 -1.3654034 -1.2666492 -0.71611303 -1.2219502 -0.760505 -0.2850298
-0.65756583 -0.74201113 0.071062155 -0.62634754 -0.61015713 -0.27184695 -0.20383106 -1.391885
-0.52171755 -0.68541974 -0.47684345 -0.40310284 -0.12453038 -2.0819335 0.21373296 0.9026078
-1.9120368 -1.6561831 0.7071311 -0.15816946 -3.58979 1.8834887 1.1133236 -1.0009075
-1.0040857 0.21681774 -1.7890148 0.27905905 -0.9582341 -2.6063719 -0.47444758 -1.3844507
-0.40140298 -0.7336401 -0.539017 -1.8905008 -0.12642378 -0.7896987 -0.236591 -1.2532954
-0.7499503 0.86087364 -1.2808207 -0.8574592 -1.2156916 -0.22565025 -0.65894777 0.010606788
1.0773227 -1.4890839 -1.3494202 1.7030759 0.33874038 -0.8991219 -0.027953885 -0.52118903
-0.46172523 -0.5364815 -0.896959 -0.8856253 -0.61287975 0.31977126 -0.18227401 -2.5329802
-1.823925 -0.7099398 0.34951267 -2.735788 -0.70348537 -0.5157491 -2.151632 0.39011088
-3.5743577 -0.57554495 -0.7033372 0.3165853 -0.6954009 -1.1415521 -2.0250826 -1.6286123
-3.5257766 -0.10275627 -1.5319861 -0.7678285 -0.43322393 0.7277481 0.24973103 -1.2225994
-0.9495658 -1.8997843 -2.215084 -1.4870416 -1.26059 -0.6826164 -1.7227353 -0.2915083
-3.8702984 -3.1805239 -1.0277807 -3.4066303 -1.8817636 -0.50157964 -1.115856 -1.8288331
-1.6000127 -1.3884972 -0.36489552 -0.4085333 -1.8393272 -0.6702783 0.18306492 -0.030530248
-0.9754488 -2.4849458 -0.6151618 -1.35141 0.8487827 -0.17349993 -1.8161845 -0.82020485
-5.8791018 -0.97093177 -1.3375895 -1.0334226 -0.07660473 -0.8257077 -0.48385975 -2.3780375
-0.05559008 -3.5540159 -0.65355265 -0.80004287 -1.4401187 -1.189229 -0.86505157 -6.846019
-0.2637408 -1.0177658 -2.0389516 0.0728014 -1.5412877 -0.21906868 -0.99706054 0.36104447
-1.6649052 -3.4341955 -0.7740899 -0.34472755 -1.7725804 -0.559726 -3.9425452 -2.5771108
00000000: 021c 33c0 5f93 cbbf 7e94 96c0 c95e 8cbe
00000010: 8ab4 a9be 7194 aebf f2a9 35c0 d863 59c0
00000020: 4351 86bf 423e 0cc0 8d10 3ac0 1adb d1bf
00000030: bccb fbbd 70ed f3bf aaf6 28c0 ca36 ebbf
00000040: dac8 a73e d001 17be 21ff 9fbf add7 61bf
00000050: 731a adbf 7e94 2cbf d37a 1fbf 981d bcbd
00000060: 47a8 bdbe bed6 86bf aeee 0ec0 b886 14c0
00000070: 5661 14bf 732a ccbf 9192 70bf eac7 89bf
00000080: 9ce7 2fbf 9454 a8be f9fd f3bf 4761 7abf
00000090: 7c9e 823f 12d9 91c0 e403 bfbf 83bc 87bf
000000a0: e4c3 603d c1c8 1b3f 1714 aebf fec3 2ebf
000000b0: 9a42 3bbf d090 81bf 9eec d4be 4913 7a3f
000000c0: abbc 11bf 17d2 d33d 9c92 adbf 353f adbe
000000d0: ea41 d0bc a58f 12bf 432d 02c0 f52a 9fbf
000000e0: 75b5 c4bf e83f a9c0 6261 98be 5ade 37bf
000000f0: 3579 f5bf 5772 a63d 07bf 31bf cb11 20c0
00000100: 067f 50c0 4c34 193f bd22 1d40 5092 9cbf
00000110: 6869 0cbf 7aaf e83d c784 10c0 c5eb d8be
00000120: e6d1 a2bf 8ad6 02bf 0c9c a1bf 2b25 cdbf
00000130: 6463 66be eeec bdbf cf9d 3bbf 4f7b 3f3e
00000140: 30ba d1bf 14d5 71bf 9281 a6bf 7809 a9bf
00000150: 87bd 853e d763 a3bf 0134 01bf 1013 f4bf
00000160: 2a18 c4bf 6f94 56be c71b d93e 6a22 08c0
00000170: 6391 3ec0 feb9 30be b05a cdc0 046d 91bf
00000180: fb2c debf 1bb0 39bf 8ac5 aebf 9021 a2bf
00000190: 2f53 37bf dd68 9cbf 75b0 42bf 6def 91be
000001a0: 3c56 28bf 71f4 3dbf 0989 913d 5058 20bf
000001b0: 4233 1cbf 862f 8bbe 17b9 50be 4a29 b2bf
000001c0: 488f 05bf ab77 2fbf d324 f4be 7f63 cebe
000001d0: c909 ffbd 663e 05c0 d0dc 5a3e 4e11 673f
000001e0: 9fbd f4bf cffd d3bf 8b06 353f 2df7 21be
000001f0: 1fbf 65c0 2816 f13f 6381 8e3f bd1d 80bf
00000200: e185 80bf 7805 5e3e 70fe e4bf d4e0 8e3e
00000210: d44e 75bf ccce 26c0 cbea f2be ae35 b1bf
00000220: b184 cdbe d6cf 3bbf 05fd 09bf eefb f1bf
00000230: 3c75 01be b229 4abf e944 72be fc6b a0bf
00000240: befc 3fbf 3762 5c3f eff1 a3bf 7282 5bbf
00000250: c89b 9bbf dc10 67be cdb0 28bf 18c8 2d3c
00000260: b6e5 893f 4d9a bebf cdb9 acbf 64fe d93f
00000270: 616f ad3e da2c 66bf 8cff e4bc a56c 05bf
00000280: 4067 ecbe da56 09bf 1b9f 65bf 57b8 62bf
00000290: b0e5 1cbf 0fb9 a33e 0aa6 3abe 591c 22c0
000002a0: 6076 e9bf 9dbe 35bf 53f3 b23e 2717 2fc0
000002b0: 9e17 34bf 2208 04bf 57b4 09c0 9dbc c73e
000002c0: 47c2 64c0 ea56 13bf e80d 34bf 7817 a23e
000002d0: cb05 32bf 611e 92bf f49a 01c0 5e76 d0bf
000002e0: 53a6 61c0 e171 d2bd 1f18 c4bf 6990 44bf
000002f0: 87cf ddbe b34d 3a3f 7eb9 7f3e 237e 9cbf
00000300: bf16 73bf 222c f3bf f0c3 0dc0 6157 bebf
00000310: 035b a1bf f3bf 2ebf 9782 dcbf 9340 95be
00000320: f8b2 77c0 b48d 4bc0 518e 83bf 3b06 5ac0
00000330: a1dd f0bf 8667 00bf 5fd4 8ebf 3417 eabf
00000340: 37cd ccbf 47ba b1bf 96d3 babe 472b d1be
00000350: 136f ebbf 5c97 2bbf 5f75 3b3e 921a fabc
00000360: 03b7 79bf 5a09 1fc0 3e7b 1dbf 01fb acbf
00000370: d349 593f f7a9 31be bc78 e8bf f2f8 51bf
00000380: 9a21 bcc0 fc8e 78bf 2236 abbf 3147 84bf
00000390: f1e2 9cbd 9461 53bf 77bc f7be c431 18c0
000003a0: 6cb2 63bd ff74 63c0 3a4f 27bf 9ccf 4cbf
000003b0: cf55 b8bf a838 98bf 0574 5dbf 9612 dbc0
000003c0: 0909 87be 2646 82bf 2f7e 02c0 e718 953d
000003d0: ea48 c5bf 8a53 60be 5c3f 7fbf d2da b83e
000003e0: 9d1b d5bf dcc9 5bc0 c12a 46bf 2180 b0be
000003f0: eae3 e2bf 344a 0fbf a952 7cc0 62ef 24c0

fc2.weight f4 [256, 256]
-0.042328797 0.0036225447 -0.016242396 -0.054048296 -0.054702736 -0.0132641485 -0.12123648 -0.0066749933
0.054993328 -0.12097597 -0.039546188 -0.06993844 -0.07761552 0.019740645 0.031380303 -0.123661794
-0.043189976 -0.19452192 -0.033875596 -0.055231653 -0.21595894 -0.02964725 -0.032729983 -0.08779566
-0.034897912 -0.088259265 -0.08237608 0.08859068 -0.046999916 -0.10287983 0.07964264 0.06186505
-0.061365202 -0.035283986 -0.16566205 -0.16886471 0.027376119 0.022202866 0.10801507 0.029270079
-0.079281576 -0.010624293 -0.06082241 0.014578684 -0.04048902 -0.044447735 0.0074082417 -0.07409741
0.12987407 -0.03222967 0.14482188 -0.22875862 -0.09784382 0.00043416698 -0.06678865 -0.22648399
-0.06889719 0.053075846 -0.005885593 -0.13693 -0.11513328 0.02742346 -0.061174717 -0.05881077
0.16656208 -0.04279836 0.12671576 -0.08452849 0.031908758 -0.061103795 0.019326337 -0.007534521
-0.016043443 0.138097 0.06451396 -0.061482627 0.06383798 0.10417615 0.052518684 -0.1278635
-0.014476687 -0.08242725 -0.0011668581 -0.19044891 -0.06440428 0.03416172 -0.009028081 -0.071235016
-0.026047215 0.0011921152 -0.17917438 -0.028467376 -0.025127405 0.09835763 -0.033249047 -0.17666365
0.037643407 -0.12096866 -0.05892623 -0.00054167287 -0.14274865 0.023877116 0.064218275 -0.086059384
-0.04580335 0.08203717 -0.049763992 -0.26923367 0.03577098 0.17406964 -0.07812478 -0.047879554
0.19132622 -0.01305608 0.0059214537 0.022484865 -0.011849295 -0.037546866 0.027315723 -0.04393201
0.016448274 -0.11222377 0.06092268 -0.016337726 -0.017157426 -0.06460603 -0.02699696 -0.07598119
-0.003929007 -0.08567002 -0.046264276 0.012046244 -0.014124055 0.058854416 0.034573436 -0.13342914
0.10812992 0.017545411 0.068125896 -0.018711202 -0.061983313 -0.09377618 0.018239798 0.31852072
-0.088776864 -0.1112039 -0.06444996 0.047205277 -0.11940264 -0.06973656 -0.050497282 -0.07549561
-0.07597558 -0.27074754 0.19999525 -0.0032513577 -0.06289148 -0.003580974 -0.16043347 -0.20353028
-0.016193163 -0.014539311 0.00051118963 -0.061361335 -0.08959655 -0.09309826 0.075553924 -0.09982939
-0.069547474 -0.08176384 -0.0042252284 0.04985771 -0.18809573 -0.13334996 0.10320102 -0.08160941
-0.008459657 -0.023674726 -0.073758855 -0.006504425 -0.049761556 -0.04152947 -0.11691237 -0.024946537
-0.059161503 -0.043788 -0.06166949 -0.12447428 -0.08841545 -0.035974145 -0.06383176 -0.07591495
-0.0008983853 -0.040380884 -0.06582266 -0.044273335 -0.026274292 0.09634934 -0.056928746 0.002825307
0.057075668 0.09333916 -0.044110317 -0.008529323 -0.016173286 -0.08663234 0.0040318533 -0.11882876
-0.1758128 -0.023239963 -0.093989395 -0.057272952 -0.00025246755 -0.16538143 0.04433439 -0.0010834627
-0.09202739 0.017758561 0.01600409 -0.06757531 -0.041974977 0.0053778514 -0.019867998 -0.054490216
-0.014026902 0.07096852 -0.012039757 0.02790779 -0.022034992 -0.024971122 -0.02213455 0.00020799994
-0.123994894 0.016241895 0.020909443 0.01300113 0.0073479554 0.15857635 0.05932424 0.018648027
0.051974576 -0.030596826 0.082503244 -0.13394383 0.09013521 -0.07578242 0.047758162 -0.12988827
0.015547425 -0.029348332 0.017692648 0.16825825 0.009756235 -0.06815192 0.024403606 -0.01913909
00000000: f660 2dbd 3768 6d3b c60e 85bc bf61 5dbd
00000010: fa0f 60bd df51 59bc d54a f8bd e7b9 dabb
00000020: af40 613d 40c2 f7bd 2ffb 21bd e33b 8fbd
00000030: e3f4 9ebd 22b7 a13c a288 003d 6542 fdbd
00000040: f9e7 30bd c130 47be 23c1 0abd 963a 62bd
00000050: 5724 5dbe cade f2bc e00f 06bd 36ce b3bd
00000060: 1df1 0ebd 46c1 b4bd cab4 a8bd 086f b53d
00000070: fc82 40bd a9b2 d2bd ae1b a33d 3566 7d3d
00000080: 145a 7bbd f185 10bd 50a3 29be dfea 2cbe
00000090: e243 e03c c9e2 b53c 0137 dd3d cec7 ef3c
000000a0: 615e a2bd 8411 2ebc eb20 79bd 6fdb 6e3c
000000b0: d1d7 25bd d40e 36bd d6c0 f23b 62c0 97bd
000000c0: b5fd 043e 4203 04bd 304c 143e b33f 6abe
000000d0: 5762 c8bd e8a0 e339 7dc8 88bd 6beb 67be
000000e0: f819 8dbd 0f66 593d efdb c0bb 6137 0cbe
000000f0: ffca ebbd 2aa7 e03c 5792 7abd 90e3 70bd
00000100: 408f 2a3e 554d 2fbd c7c1 013e 461d adbd
00000110: c2b2 023d f947 7abd 4452 9e3c 25e4 f6bb
00000120: 8a6d 83bc 4d69 0d3e e51f 843d 35d5 7bbd
00000130: 7dbd 823d 4e5a d53d d51d 573d a6ee 02be
00000140: a02f 6dbc 9ecf a8bd 43f1 98ba 0a05 43be
00000150: 64e6 83bd 29ed 0b3d 84ea 13bc aae3 91bd
00000160: f860 d5bc c040 9c3a 7d79 37be 6a34 e9bc
00000170: fdd7 cdbc ba6f c93d 2730 08bd 51e7 34be
00000180: f92f 1a3d 6bbe f7bd a15c 71bd 0dff 0dba
00000190: b42c 12be f199 c33c df84 833d e73f b0bd
000001a0: 4b9c 3bbd 1b03 a83d 54d5 4bbd ffd8 89be
000001b0: 9784 123d 503f 323e e2ff 9fbd 5a1d 44bd
000001c0: 05eb 433e 2be9 55bc c108 c23b 2e32 b83c
000001d0: 8c23 42bc beca 19bd 39c5 df3c 0df2 33bd
000001e0: 88be 863c 93d5 e5bd 0f8a 793d b2d6 85bc
000001f0: bb8d 8cbc 2b50 84bd bb28 ddbc 079c 9bbd
00000200: e6be 80bb c373 afbd 9c7f 3dbd 9c5d 453c
00000210: 9568 67bc 5411 713d e09c 0d3d a6a1 08be
00000220: 3873 dd3d 65bb 8f3c 9785 8b3d 3c48 99bc
00000230: 37e2 7dbd ba0d c0bd a16b 953c 2615 a33e
00000240: a5d0 b5bd dfbe e3bd 57fe 83bd 525a 413d
00000250: 5f89 f4bd 0bd2 8ebd 3dd6 4ebd 719d 9abd
00000260: 1699 9bbd 6c9f 8abe 8ecb 4c3e bb14 55bb
00000270: 40cd 80bd c6ae 6abb ac48 24be 3e6a 50be
00000280: 86a7 84bc 4a36 6ebc 5b01 063a 0656 7bbd
00000290: 657e b7bd 4daa bebd 04bc 9a3d 5a73 ccbd
000002a0: e86e 8ebd cd73 a7bd c973 8abb 9937 4c3d
000002b0: 2b9c 40be e48c 08be 0e5b d33d d622 a7bd
000002c0: 609a 0abc 80f1 c1bc e20e 97bd 1223 d5bb
000002d0: c6d2 4bbd ce1a 2abd c16f efbd ae5c ccbc
000002e0: 5553 72bd 0c5b 33bd 2699 7cbd 5fec febd
000002f0: 2913 b5bd a059 13bd 3aba 82bd 4c79 9bbd
00000300: 9e81 6bba 6d66 25bd 08ce 86bd f557 35bd
00000310: 2f3d d7bc ce52 c53d 1e2e 69bd c928 393b
00000320: 2dc8 693d 9a28 bf3d 05ad 34bd 93be 0bbc
00000330: d77d 84bc 4c6c b1bd a31d 843b 7e5c f3bd
00000340: 4508 34be bc61 bebc 837d c0bd 0b97 6abd
00000350: 9f5d 84b9 c059 29be fa97 353d fa02 8eba
00000360: db78 bcbd 677a 913c 021b 833c ed64 8abd
00000370: f4ed 2bbd b038 b03b 36c2 a2bc 2231 5fbd
00000380: 17d1 65bc f257 913d 6742 45bc e19e e43c
00000390: ba82 b4bc 3d90 ccbc 8453 b5bc 8f1a 5a39
000003a0: 09f1 fdbd b90d 853c 484a ab3c b102 553c
000003b0: 1ec7 f03b d761 223e f9fd 723d bfc3 983c
000003c0: 4be3 543d 32a6 fabc 76f7 a83d 9228 09be
000003d0: cf98 b83d d033 9bbd 109e 433d 6e01 05be
000003e0: a0ba 7e3c ea6b f0bc 2cf0 903c e44b 2c3e
000003f0: 9ed8 1f3c 3c93 8bbd 12ea c73c 95c9 9cbc

fc2.bias f4 [256]
-0.2656721 -0.17092673 -0.17193396 -0.15610966 -0.76569617 -0.14267074 -0.14062522 -0.23999766
-0.22327594 -0.5083394 -0.22075604 -0.26079458 -0.59968376 -0.1904338 -0.22257744 -0.23676994
-0.16844213 -0.26821643 -0.22791281 -0.22749574 -0.28422695 -0.6091989 -0.30195516 -0.31997833
-0.19234908 -0.2251581 0.008729864 -0.6959941 -0.25410396 -0.15099548 -0.2700402 -0.37387946
-0.18515831 0.040463034 -0.22274168 -0.44895157 -0.29063037 -0.21579908 -0.17891201 -0.40564728
-0.19430566 -0.3775549 -0.27245104 -0.23015617 -0.27529764 -0.20162107 -0.22044168 -0.67056847
-0.23574793 -0.23405372 -0.20126726 -0.13990083 -0.46176356 -0.20926136 -0.16661263 -0.64143115
-0.38125685 0.046421845 -0.27885592 -0.17854749 -0.67720544 -0.16462098 -0.6145716 -0.783924
-0.24122569 -0.18153532 -0.24057348 -0.15882108 -0.21606289 -0.21533495 -0.15997332 -0.1222926
-0.21951178 -0.13707544 0.08706302 -0.1069011 -0.109790444 -0.14211719 -0.15359625 -0.23514184
-0.15106353 -0.21263374 -0.43443137 -0.14098276 -0.13510385 -0.307847 -0.2166929 -0.31115133
-0.16741762 -0.5418334 -0.16422266 -0.5428067 -0.6176934 -0.6028989 -0.22071217 -0.17138782
-0.21494056 -0.5685802 -0.17384098 -0.7280005 -0.0015940046 -0.15694201 -0.18281625 -0.4125428
-0.50298727 -0.81879425 0.18545312 -0.17710717 -0.15715432 -0.25574046 -0.1444155 -0.185607
-0.15935612 -0.14858451 -0.7421779 -0.39675522 -0.6985937 -0.29087773 -0.1979501 -0.2048789
-0.17418672 -0.18271677 -0.07584704 -0.16136804 -0.1144329 -0.21923836 -0.28553358 0.024735931
-0.4187619 -0.21635292 -0.6080719 -0.21224833 -0.093075916 -0.2171162 -0.88344824 -0.5213244
-0.2881533 -0.2903403 -0.15451364 -1.2051877 -0.72229487 -0.14451918 -0.012642511 -0.1998814
-0.20713413 -0.2059314 -0.3035699 -0.045688488 -0.9416018 -0.20733306 -0.15142429 -0.23954594
-0.1624378 -1.6289457 -0.208469 -0.2340181 -0.6204364 -0.19771025 -0.17748752 -0.13782482
-0.2588728 -0.22047319 -0.15925626 -0.24736035 -0.1259975 -0.118339024 -0.21267267 -0.4199631
-0.19223696 -0.243983 -0.2248252 -0.19948822 -0.20731924 -0.16014558 -0.22387454 -0.41430697
0.07145642 -0.1875145 -1.0643164 -0.826793 -0.6827404 0.092748106 -0.16275539 -0.5782949
-0.15688756 -0.66569227 -0.23254354 0.50980484 -0.63767433 -0.14863564 0.024771731 -0.2752455
0.008566435 -0.16916187 0.15265048 -0.26002726 -0.3189979 -0.21062604 -0.24230517 -0.21233381
-1.2026726 -0.17167734 0.058693826 -0.22989699 -0.182329 -0.55169505 -0.6758003 -0.49327427
-0.19523212 -0.21832131 -0.14193535 -0.13979548 -0.48657182 -0.72601795 -0.22362617 -0.20628633
-0.13060059 -0.48079425 -0.18649061 -0.42201307 -0.15269145 -0.2490825 -0.27428854 -0.24713995
-0.23737031 -0.22876544 -0.6473341 -0.8259922 -0.1646031 -0.24135043 -0.5238626 -0.22276881
-0.1830704 -0.18186522 -0.5284579 -0.23391593 -0.5755231 -0.2808784 -0.2309694 -0.4342486
-0.19822615 -0.5541192 -0.038415235 -0.30950403 -0.25507924 -0.26692787 -0.1733083 -0.15857692
-0.16345747 -0.47162685 -0.53536904 -0.22804685 -0.23324223 -0.33696297 -0.41127822 -0.21683595
00000000: 2c06 88be 6b07 2fbe 750f 30be 36db 1fbe
00000010: aa04 44bf 4718 12be 0f00 10be f2c1 75be
00000020: 73a2 64be 8822 02bf df0d 62be de86 85be
00000030: e084 19bf 1401 43be 57eb 63be d273 72be
00000040: 187c 2cbe aa53 89be fa61 69be a5f4 68be
00000050: 3286 91be 76f4 1bbf de99 9abe 33d4 a3be
00000060: 28f7 44be d88f 66be b407 0f3c ab2c 32bf
00000070: ea19 82be 8f9e 1abe b642 8abe 216d bfbe
00000080: 249a 3dbe 91bc 253d 6516 64be fbdc e5be
00000090: 81cd 94be 6ffa 5cbe b634 37be 00b1 cfbe
000000a0: 10f8 46be e04e c1be b47e 8bbe 0fae 6bbe
000000b0: d0f3 8cbe c175 4ebe 77bb 61be 60aa 2bbf
000000c0: e867 71be c7ab 6fbe 0119 4ebe 2a42 0fbe
000000d0: 466c ecbe 9c48 56be 809c 2abe d534 24bf
000000e0: 1934 c3be d524 3e3d 34c6 8ebe 27d5 36be
000000f0: 565d 2dbf 6792 28be 9054 1dbf 3eaf 48bf
00000100: de03 77be 65e4 39be e558 76be fea1 22be
00000110: 973f 5dbe c480 5cbe 0cd0 23be 8b74 fabd
00000120: b2c7 60be 815d 0cbe 194e b23d f7ee dabd
00000130: d0d9 e0bd 2b87 11be 5648 1dbe 06c9 70be
00000140: 66b0 1abe a9bc 59be ca6d debe c95d 10be
00000150: aa58 0abe 1f9e 9dbe bee4 5dbe 3a4f 9fbe
00000160: 866f 2bbe 98b5 0abf fc29 28be 61f5 0abf
00000170: 2821 1ebf 9557 1abf 5f02 62be 4a80 2fbe
00000180: 6119 5cbe 798e 11bf 5f03 32be 3e5e 3abf
00000190: ebed d0ba 68b5 20be 2f34 3bbe cf38 d3be
000001a0: c6c3 00bf 809c 51bf 6ce7 3d3e 955b 35be
000001b0: 10ed 20be 6af0 82be a8e1 13be c30f 3ebe
000001c0: 402e 23be 8a26 18be 5fff 3dbf 8023 cbbe
000001d0: 09d7 32bf eded 94be 6eb3 4abe c6cb 51be
000001e0: 015e 32be 1b1a 3bbe b155 9bbd aa3d 25be
000001f0: cc5b eabd 0580 60be 7531 92be 02a3 ca3c
00000200: f667 d6be 9f8b 5dbe 9aaa 1bbf a057 59be
00000210: 969e bebd b653 5ebe aa29 62bf 8475 05bf
00000220: d488 93be 7ca7 94be d338 1ebe 9743 9abf
00000230: 51e8 38bf d6fc 13be 8922 4fbc b6ad 4cbe
00000240: f81a 54be aedf 52be 846d 9bbe da23 3bbd
00000250: d10c 71bf 1e4f 54be f80e 1bbe 884b 75be
00000260: 1856 26be 4b81 d0bf e678 55be 71a2 6fbe
00000270: ebd4 1ebf 8e74 4abe 4abf 35be f321 0dbe
00000280: fa8a 84be b9c3 61be 1314 23be 084c 7dbe
00000290: 7d05 01be bb5b f2bd ddc6 59be 6705 d7be
000002a0: c4d9 44be aed6 79be 9438 66be a446 4cbe
000002b0: 7f4b 54be 34fd 23be 5e3f 65be 0b20 d4be
000002c0: be57 923d cd03 40be 853b 88bf b5a8 53bf
000002d0: 13c8 2ebf b8f2 bd3d 59a9 26be 220b 14bf
000002e0: 22a7 20be cf6a 2abf e51f 6ebe 9282 023f
000002f0: a03e 23bf f133 18be 16ee ca3c faec 8cbe
00000300: 3c5a 0c3c c538 2dbe 6850 1c3e 4b22 85be
00000310: b153 a3be 5aae 57be d91e 78be 096e 59be
00000320: 2df1 99bf 2fcc 2fbe f068 703d 1e6a 6bbe
00000330: 74b4 3abe e33b 0dbf 4001 2dbf 728e fcbe
00000340: eeea 47be 9f8f 5fbe 8057 11be 8c26 0fbe
00000350: f11f f9be 50dc 39bf 42fe 64be b93c 53be
00000360: 29bc 05be aa2a f6be 65f7 3ebe 1912 d8be
00000370: 265b 1cbe 7c0f 7fbe 8c6f 8cbe 4112 7dbe
00000380: 3411 73be 7d41 6abe b0b7 25bf 3a74 53bf
00000390: b78d 28be 9124 77be dc1b 06bf 821d 64be
000003a0: cf76 3bbe e03a 3abe 0449 07bf a887 6fbe
000003b0: 7b55 13bf 4bcf 8fbe 3e83 6cbe d555 debe
000003c0: ccfb 4abe c2da 0dbf 4b59 1dbd 5077 9ebe
000003d0: bf99 82be c5aa 88be bb77 31be fd61 22be
000003e0: 6561 27be 1379 f1be f20d 09bf 1d85 69be
000003f0: 0dd7 6ebe 6986 acbe 0f93 d2be 3e0a 5ebe

fc3.weight f4 [1, 256]
0.0019081219 0.004621782 0.00075583224 0.008367553 0.031437892 -0.006453588 0.015097118 0.0018989574
9.113563e-05 -0.096403606 -0.029205205 -0.015529355 0.116076134 -0.0064337575 0.001299222 -0.007784137
-0.018938847 -0.012838922 0.0019956785 0.010503324 -0.04578721 -0.051330168 0.0214069 0.010465362
0.010238351 0.022964332 -0.12054986 0.04584974 -0.017430391 0.008744622 0.01565545 0.009839324
0.000121613506 -0.032006457 0.008476569 0.025590941 0.032505482 0.018247752 -0.0025667618 0.02748831
0.024050746 0.0060424195 0.0039110486 0.0068267235 -0.004416856 0.0132312365 0.014082899 0.004129406
0.016415672 0.015942182 0.0107620405 -0.014673774 0.0037338655 0.027138863 -0.017190175 -0.025283663
-0.03694125 -0.022059793 -0.030427888 0.010340551 -0.055231497 -0.0024555058 0.03818263 0.075164095
0.0010351227 0.010951507 -0.001396839 -0.025762655 -0.00582573 -0.01468374 -0.0035919328 0.015072944
0.006045899 -0.00046913116 0.025488317 0.018367698 0.016734175 0.008990378 0.019401262 0.019951178
0.016457511 0.0011745584 0.036990236 -0.0093416395 0.030308602 -0.021356618 -0.021834271 0.025083264
-0.004669542 -0.057668697 -0.0048426325 0.13413142 -0.056108482 0.008318564 0.006262302 -0.0009296634
-0.0069875303 0.0754899 -0.014336986 0.035885252 0.022357244 -0.017691145 -0.006502945 -0.04183174
-0.101580225 -0.04616717 -0.020891678 -0.00035052898 -0.03022123 -0.030439273 0.0025898358 -0.0017094881
-0.0026825333 -0.013393223 0.027102353 0.07897364 0.02277185 0.011970683 0.011286495 0.007040201
0.015896533 -0.024197802 -0.016868837 -0.010906165 -0.099575676 -0.0004660303 0.010498758 0.029081853
0.1088952 -0.037628405 -0.06050075 0.0030787548 -0.01865414 -9.994395e-05 -0.06013738 0.04230207
-0.021105696 -0.0067508975 -0.005135889 -0.051116213 0.037283927 -0.028327469 0.020203302 0.012950077
0.0021772964 -0.013798954 0.017829265 0.03265269 -0.051259 -0.022108747 0.0052072885 -0.023759326
-0.0052722096 0.036836058 0.028936991 0.0025659497 -0.049298324 0.0013505282 0.26300418 -0.008701755
-0.010356392 -0.01287507 0.0062115598 0.019547718 -0.0033536558 0.0050865677 -0.0015099333 -0.04991155
-0.008751823 -0.021672344 -0.00808259 0.01906591 0.015113569 0.0014373758 0.006151315 0.027753066
0.03307692 -0.013131211 0.031253077 -0.028876297 0.027487459 -0.08742822 -0.016963702 -0.034692965
0.026896259 -0.025181202 -0.013994693 -0.039156556 -0.041089423 -3.3595014e-05 0.025705216 -0.002963591
0.03673025 0.0096267415 -0.015749868 0.01730357 0.022670453 0.015314858 -0.023316365 0.008848366
0.08297834 -0.0065412275 -0.033887535 0.023028994 -0.007420873 0.07769063 0.08026765 -0.07041396
0.0126031125 0.027726742 0.012602237 -0.0019431385 -0.057579648 0.03985547 -0.030069325 -0.0032526264
-0.004608302 -0.046507705 -0.01765307 -0.04296638 0.024635883 -0.022147713 -0.008914088 0.026337022
-0.0065217204 -0.015549754 0.090807885 0.050130483 0.010449076 0.017913736 -0.061230738 -0.002954206
-0.020108733 0.017774288 0.044542037 -0.011233441 0.024872124 -0.009519261 0.011568028 -0.14266281
-0.013539554 -0.06623662 -0.019050373 0.020313166 -0.007808529 -0.01173755 -0.010228024 0.02287382
-0.019322665 -0.068539344 -0.05232429 0.00564292 -0.0020104111 -0.057470668 0.14534445 -0.011426742
00000000: f219 fa3a 5172 973b 0b23 463a 1018 093c
00000010: 05c5 003d 9f78 d3bb e759 773c 70e6 f83a
00000020: 1220 bf38 416f c5bd c13f efbc d66e 7ebc
00000030: 53b9 ed3d 45d2 d2bb a84a aa3a 1312 ffbb
00000040: a425 9bbc 585a 52bc eec9 023b 2216 2c3c
00000050: 5f8b 3bbd 953f 52bd 865d af3c e976 2b3c
00000060: c2be 273c b21f bc3c d8e2 f6bd f0cc 3b3d
00000070: 2eca 8ebc 9a45 0f3c dc3f 803c 1e35 213c
00000080: c10a ff38 3419 03bd 4fe1 0a3c 18a4 d13c
00000090: 7824 053d 4f7c 953c 1e37 28bb 2a2f e13c
000000a0: 1206 c53c 7dff c53b 4128 803b b5b2 df3b
000000b0: 46bb 90bb d4c7 583c f6bb 663c f84f 873b
000000c0: 297a 863c 2e99 823c 4553 303c 456a 70bc
000000d0: deb3 743b 5252 de3c 69d2 8cbc af1f cfbc
000000e0: b54f 17bd bdb6 b4bc e843 f9bc 6a6b 293c
000000f0: 6c3a 62bd 8dec 20bb 6465 1c3d a2ef 993d
00000100: f4ac 873a f36d 333c 2416 b7ba 340c d3bc
00000110: c4e5 bebb 1294 70bc a266 6bbb 82f4 763c
00000120: ad1c c63b b8f5 f5b9 e0cc d03c db77 963c
00000130: 1c16 893c 614c 133c 65ef 9e3c a770 a33c
00000140: e7d1 863c a4f3 993a 1383 173d ad0d 19bc
00000150: bf49 f83c 13f4 aebc c9dd b2bc 6b7b cd3c
00000160: f502 99bb 0336 6cbd f2ae 9ebb bf59 093e
00000170: 02d2 65bd 964a 083c ff33 cd3b a8b4 73ba
00000180: a7f7 e4bb 739a 9a3d ade5 6abc 6afc 123d
00000190: 8a26 b73c 05ed 90bc a816 d5bb c257 2bbd
000001a0: 4b09 d0bd c919 3dbd 0625 abbc 34c7 b7b9
000001b0: 8392 f7bc c85b f9bc 3cba 293b e710 e0ba
000001c0: 71cd 2fbb 406f 5bbc c105 de3c efbc a13d
000001d0: 088c ba3c af20 443c feea 383c 7db1 e63b
000001e0: 7239 823c 783a c6bc 8430 8abc c5af 32bc
000001f0: 55ee cbbd 8755 f4b9 fc02 2c3c 113d ee3c
00000200: 7204 df3d 3e20 1abd a2cf 77bd efc4 493b
00000210: 91d0 98bc 0099 d1b8 9d52 76bd ef44 2d3d
00000220: dae5 acbc a236 ddbb f64a a8bb 3c5f 51bd
00000230: 08b7 183d 020f e8bc 6581 a53c 8f2c 543c
00000240: f9b0 0e3b 0215 62bc ae0e 923c d4be 053d
00000250: f5f4 51bd 671d b5bc e7a1 aa3b eba2 c2bc
00000260: 80c2 acbb 68e1 163d 450d ed3c 7e29 283b
00000270: 0aed 49bd 3504 b13a 7ca8 863e ce91 0ebc
00000280: dbad 29bc f5f1 52bc 578a cb3b 8922 a03c
00000290: 02c9 5bbb 39ad a63b f4e8 c5ba 0e70 4cbd
000002a0: ce63 0fbc 338a b1bc d76c 04bc 1c30 9c3c
000002b0: e79e 773c 5466 bc3a f890 c93b 665a e33c
000002c0: aa7b 073d 4a24 57bc 3a03 003d fc8d ecbc
000002d0: 612d e13c 910d b3bd 76f7 8abc 361a 0ebd
000002e0: 8b55 dc3c cf48 cebc ff49 65bc a062 20bd
000002f0: 624d 28bd 5fe8 0cb8 bf93 d23c ce38 42bb
00000300: 7572 163d 7bb9 1d3c de05 81bc 37c0 8d3c
00000310: 63b7 b93c 2ceb 7a3c f601 bfbc bdf8 103c
00000320: 8cf0 a93d cb57 d6bb a8cd 0abd 4da7 bc3c
00000330: cb2a f3bb 441c 9f3d 5e63 a43d 3235 90bd
00000340: 497d 4e3c 3123 e33c 9d79 4e3c e9b0 feba
00000350: a3d8 6bbd 7d3f 233d f253 f6bc 042a 55bb
00000360: 3d01 97bb dd7e 3ebd 2c9d 90bc 84fd 2fbd
00000370: 31d1 c93c 1f6f b5bc 650c 12bc bdc0 d73c
00000380: 28b4 d5bb 65c4 7ebc 7cf9 b93d 9f55 4d3d
00000390: 9a32 2b3c d4bf 923c 15cd 7abd 5a9b 41bb
000003a0: 12bb a4bc 629b 913c b671 363d 770c 38bc
000003b0: a0c0 cb3c adf6 1bbc d387 3d3c 3316 12be
000003c0: 01d5 5dbc 11a7 87bd 870f 9cbc cc67 a63c
000003d0: b0de ffbb da4e 40bc 7193 27bc e161 bb3c
000003e0: 914a 9ebc 5b5e 8cbd ff51 56bd 3ee8 b83b
000003f0: 1ac1 03bb 5d66 6bbd 2dd5 143e 3b37 3bbc

bn1.weight f4 [256]
0.0878553 0.08206238 0.13987269 0.03907892 0.0840894 0.06945866 0.07395601 0.0646005
-0.045430854 0.07295097 0.17861438 0.11936042 0.0765418 0.083078146 0.14251012 0.10057941
0.07894315 0.049114663 0.038619507 0.047594234 0.030158224 0.06487289 0.07485759 0.033761486
0.6221273 0.08229178 0.20390233 0.5710449 0.093845695 0.27424386 -0.05902307 0.10211349
0.10436649 0.23480071 0.039672945 0.8215466 0.16459441 0.07731693 0.7262461 0.09522765
0.07372121 0.08573373 0.74210715 0.029164795 0.123799644 0.1609463 0.11491642 0.5522234
-0.06410464 0.5563669 0.028573146 0.49192914 0.13729002 0.039751828 0.122005776 -0.067681484
0.047198873 0.12717113 0.03822238 0.056904495 0.18560053 0.04044977 0.04042779 0.08712397
0.38649848 0.039052527 0.33158752 0.100531116 0.076855086 0.12539855 0.043871596 0.10110109
0.05431645 0.054754894 0.043459106 0.32199478 0.06866703 0.299908 -0.03709694 0.26091382
0.07696305 0.096490346 0.043669153 0.056017477 0.104895 0.10588251 -0.07281605 0.09414872
0.4035244 0.043865148 0.07676659 0.09009157 0.27467227 0.11554905 0.14084293 0.19512174
0.06829911 0.12300329 0.048958004 0.11894051 0.024518542 0.49941564 0.10178045 0.0442454
0.13739845 0.045696042 0.075568594 0.07435126 0.050585315 0.05443195 0.067465775 0.5329157
-0.05004456 0.057710335 0.057490353 0.0059974887 0.033893988 0.15110151 0.07723145 0.2268372
0.074651435 0.6881397 0.14723828 0.045609847 0.118010044 0.1102561 0.18428896 0.08133249
0.0507792 0.15932041 0.14657155 -0.06812691 0.062778376 0.4040615 0.06441163 0.1338732
0.02731277 0.07571039 0.06826874 0.049317613 0.06626353 0.08356922 0.04853374 -0.11535965
0.091852896 0.10582787 0.05840098 -0.0041499054 0.25532436 0.056909673 0.023602767 0.1487073
0.14688638 0.05199784 0.041172907 0.25944057 0.057709612 0.0440778 0.007375457 -0.022739477
0.111970305 0.0489615 0.078551225 0.17530827 0.048891056 0.08814325 0.09383663 0.06678591
0.03309893 0.05998593 0.10974791 0.10565362 0.04674908 0.076586954 0.11039326 0.10384359
0.22500125 0.08609389 0.0724765 0.11676117 -0.012366752 0.059173055 0.32212418 0.013821796
0.1388707 0.17853041 0.062732704 0.03477829 0.05465684 0.14252213 0.08588231 0.18326667
0.05604247 0.18351088 0.10205098 0.06777089 0.2827318 0.050422985 0.2023771 0.024797885
0.47089398 0.5772128 0.03553477 0.27770445 0.102157794 -0.12372633 0.043428827 0.0891558
0.049141247 0.37707865 0.22000381 0.061457563 0.051355157 0.056113917 0.049440756 0.11295243
0.041884348 0.083052225 0.04707823 0.2651207 0.069900386 0.006846468 0.045925833 0.03907148
0.4571026 0.064124934 0.070857465 -0.058503408 0.06592886 0.14044587 0.114958055 0.1624795
0.31694067 0.12501787 0.081387185 0.05297746 0.042087816 0.065882266 -0.016908946 0.46800864
0.14176995 0.07711483 0.11857672 0.054441497 0.5717992 -0.04347734 0.07022425 0.1114498
0.15358625 0.6510119 0.09772777 -0.08989844 0.053660396 0.0448977 0.18606594 0.2119109
00000000: 7bed b33d 5210 a83d c93a 0f3e 3811 203d
00000010: 1037 ac3d 5840 8e3d 4076 973d 444d 843d
00000020: b415 3abd 5167 953d b0e6 363e 3c73 f43d
00000030: f2c1 9c3d e024 aa3d 2cee 113e 94fc cd3d
00000040: f2ac a13d 752c 493d 7d2f 1e3d 2cf2 423d
00000050: 610e f73c 14dc 843d f04e 993d 7c49 0a3d
00000060: bc43 1f3f 9888 a83d c6cb 503e 0030 123f
00000070: 2c32 c03d b169 8c3e 2dc2 71bd e120 d13d
00000080: 19be d53d 996f 703e 1980 223d e150 523f
00000090: 708b 283e 5758 9e3d 44eb 393f b706 c33d
000000a0: 25fb 963d 2a95 af3d bcfa 3d3f 02eb ee3c
000000b0: ab8a fd3d 1bcf 243e 4d59 eb3d 835e 0d3f
000000c0: 4b49 83bd 106e 0e3f 3b12 ea3c 23de fb3e
000000d0: c195 0c3e d0d2 223d 2ade f93d 979c 8abd
000000e0: 9b53 413d 2639 023e 128f 1c3d b014 693d
000000f0: 110e 3e3e a8ae 253d 9c97 253d 0d6e b23d
00000100: 21e3 c53e 8bf5 1f3d d7c5 a93e 42e3 cd3d
00000110: 3366 9d3d 7a68 003e b4b2 333d 170e cf3d
00000120: ed7a 5e3d ab46 603d 2d02 323d 80dc a43e
00000130: 4da1 8c3d 8b8d 993e f6f2 17bd 7f96 853e
00000140: ce9e 9d3d bb9c c53d 6dde 323d 9572 653d
00000150: 31d3 d63d eed8 d83d 9520 95bd 0bd1 c03d
00000160: c09a ce3e f1ab 333d cd37 9d3d ee81 b83d
00000170: d8a1 8c3e fba4 ec3d 2139 103e fecd 473e
00000180: 67e0 8b3d 26e9 fb3d 3088 483d 1597 f33d
00000190: 1cdb c83c 68b3 ff3e 4572 d03d aa3a 353d
000001a0: 2eb2 0c3e c62b 3b3d b5c3 9a3d 7945 983d
000001b0: 8c32 4f3d 09f4 5e3d 7f2b 8a3d 2a6d 083f
000001c0: 86fb 4cbd ac61 6c3d 017b 6b3d 9586 c43b
000001d0: 6cd4 0a3d 5bba 1a3e 862b 9e3d 0348 683e
000001e0: dae2 983d ec29 303f a2c5 163e 64d1 3a3d
000001f0: 40af f13d f3cd e13d 3fb6 3c3e a691 a63d
00000200: dafd 4f3d e424 233e da16 163e 1f86 8bbd
00000210: f391 803d 26e1 ce3e 3fea 833d 0e16 093e
00000220: 08bf df3c 0d0e 9b3d 7bd0 8b3d 4401 4a3d
00000230: 2cb5 873d 5726 ab3d 51cb 463d ae41 ecbd
00000240: 5f1d bc3d 48bc d83d de35 6f3d eefb 87bb
00000250: e0b9 823e 1e1a 693d 975a c13c ba46 183e
00000260: 6269 163e b0fb 543d eca4 283d 65d5 843e
00000270: ea60 6c3d ec8a 343d d1ad f13b 2448 babc
00000280: b050 e53d db8b 483d 77df a03d 0384 333e
00000290: fd41 483d 7384 b43d 6b2d c03d 0dc7 883d
000002a0: be92 073d ceb3 753d 83c3 e03d ed60 d83d
000002b0: f77b 3f3d 9fd9 9c3d dd15 e23d f3ab d43d
000002c0: ba66 663e fe51 b03d 8f6e 943d 7b20 ef3d
000002d0: eb9d 4abc 725f 723d 76ed a43e d074 623c
000002e0: 1f34 0e3e add0 363e 017a 803d ae73 0e3d
000002f0: dadf 5f3d 52f1 113e 11e3 af3d 42aa 3b3e
00000300: ca8c 653d 47ea 3b3e 1b00 d13d 77cb 8a3d
00000310: 39c2 903e 5588 4e3d f13b 4f3e ef24 cb3c
00000320: 0419 f13e 38c4 133f e88c 113d 472f 8e3e
00000330: 1b38 d13d 3b64 fdbd 6de2 313d 5197 b63d
00000340: 5548 493d 7410 c13e ae48 613e edba 7b3d
00000350: c959 523d b5d7 653d 6482 4a3d 9b53 e73d
00000360: ec8e 2b3d 4917 aa3d 1ad5 403d e6bd 873e
00000370: ef27 8f3d 5658 e03b ba1c 3c3d 6b09 203d
00000380: 5a09 ea3e ef53 833d b81d 913d 45a1 6fbd
00000390: b605 873d 0bd1 0f3e 216f eb3d 0761 263e
000003a0: 0c46 a23e af04 003e 53ae a63d e5fe 583d
000003b0: 4664 2c3d 48ed 863d a184 8abc d49e ef3e
000003c0: 242c 113e 61ee 9d3d 5ad8 f23d 0cfe 5e3d
000003d0: 6f61 123f 4c15 32bd bbd1 8f3d cb3f e43d
000003e0: b745 1d3e b7a8 263f 7f25 c83d ac1c b8bd
000003f0: 01cb 5b3d a7e6 373d 1288 3e3e 2cff 583e

bn1.bias f4 [256]
0.018034525 0.03353525 0.04056472 0.010149629 0.035244703 0.015239014 0.012609597 0.02763196
-0.0066316985 0.038269922 0.08895358 0.043541066 0.017870883 0.028503643 0.03513629 0.034002658
0.01658438 0.0018159357 0.017715143 0.0053238887 -0.011833515 0.025754143 0.01345333 0.017964376
0.36039352 0.03031271 0.14323464 0.3528802 0.030321851 0.1701282 -0.018554293 0.02822351
0.03542878 0.04937663 0.006690415 0.45635867 0.026761914 0.020563578 0.26801792 0.027393857
0.0052594864 0.015034396 0.43028933 -0.0013050303 0.04749566 0.04235742 0.028082743 0.37789443
-0.012643095 0.28306007 -0.010324489 0.36463994 0.020991443 0.011594226 0.044762928 -0.016025713
0.004053164 0.10550389 0.0023474488 0.022974415 0.06843869 0.00981588 0.01659452 0.01744951
0.10671711 0.010363743 0.1944226 0.03490538 0.033424612 0.031201204 0.017341474 0.032299075
0.010806204 0.007955123 0.0026208097 0.107760526 0.013041398 -0.07217468 -0.0037653712 0.02989461
0.021391034 0.029339917 0.011325893 0.011418287 0.03335692 0.052015033 -0.0066439733 0.017552566
0.15857385 0.0016900597 0.009549255 0.027155146 0.18175018 0.023239845 0.037190527 0.066668846
0.0043822075 0.04225003 0.003932617 0.04125687 0.017317003 0.2058384 0.04089526 0.011760396
0.03293871 0.0014065407 0.016398596 0.0043829186 0.009275265 0.0073660156 0.014527692 0.34281483
-0.020670742 0.013567092 0.008268234 -0.0019259349 0.0044296337 0.048489016 0.0025090321 0.11888799
0.02990919 0.4655749 0.039843094 0.00025071113 0.04735203 0.028020827 0.042339183 0.020578384
0.010201325 0.04580324 0.036095776 -0.018051378 0.014700144 0.09352904 0.020968547 0.07815589
0.008407203 0.02974202 0.01545785 0.016056474 0.007382499 0.030488802 0.018824264 -0.036120407
0.01799859 0.03653843 0.008516078 0.0013883348 0.054185756 0.006881028 0.010398067 0.036593728
0.029497458 0.031112064 -0.0049208803 0.057089694 -0.0031177213 0.0018899745 0.0016092655 -0.009086312
0.024859289 0.011786542 0.033574812 0.040027767 0.020826118 0.018657416 0.024551136 0.044749375
0.016257923 0.015388842 0.025543265 0.025922103 0.02066991 0.023021363 0.043829422 0.027688691
0.06720826 0.019516746 0.019563295 0.020458998 -0.0004615018 0.014032273 0.13613336 0.00075194344
0.14375988 0.108019404 0.029794723 0.013856341 0.01497238 0.05895022 0.035918325 0.068080276
-0.00020538927 0.09419762 0.07415079 0.02191013 0.21911412 0.0031893426 0.063765936 -0.0014562611
0.08469724 0.21866791 0.0045132367 0.15333791 0.12104392 -0.04156427 0.006213301 0.02179148
0.02070521 0.30611265 0.068506256 1.6727727e-05 0.012494999 0.026466424 0.007904575 0.03855218
0.010645007 0.038864985 0.019303102 0.18057658 0.017602997 -4.1745658e-05 0.006248692 0.017512916
0.23514543 0.027536973 0.006294795 -0.014422746 0.02442503 0.042425446 0.037749153 0.08569981
0.038757436 0.041853294 0.027530601 0.015133969 0.0070978063 -0.0011770944 -0.00726948 0.10506104
-0.0011013027 0.042650495 0.027796695 -0.0016080498 0.25106832 -0.022213157 0.010826766 0.025431067
0.059503127 0.42637315 0.030105768 0.0013297326 0.020962503 0.010716351 0.14756875 0.094503894
00000000: 24bd 933c 425c 093d 3127 263d a14a 263c
00000010: c05c 103d 0fad 793c 7c98 4e3c 6c5c e23c
00000020: b84e d9bb ecc0 1c3d 4b2d b63d 1e58 323d
00000030: f565 923c 7980 e93c 12eb 0f3d 5f46 0b3d
00000040: f7db 873c b104 ee3a 591f 913c 0474 ae3b
00000050: 5ce1 41bc 5afa d23c 5b6b 5c3c 072a 933c
00000060: 8085 b83e 5c52 f83c 1aac 123e b7ac b43e
00000070: 8865 f83c 1636 2e3e 2cff 97bc fe34 e73c
00000080: c51d 113d 263f 4a3d 453b db3b d8a7 e93e
00000090: cd3b db3c f374 a83c a539 893e 1569 e03c
000000a0: c557 ac3b d452 763c e24e dc3e 8d0d abba
000000b0: cf8a 423d f97e 2d3d c80d e63c 617b c13e
000000c0: fc24 4fbc 40ed 903e 0c28 29bc 16b2 ba3e
000000d0: 3ff6 ab3c b5f5 3d3c 5559 373d 5b48 83bc
000000e0: 67d0 843b 6c12 d83d a8d7 193b d734 bc3c
000000f0: 9529 8c3d c9d2 203c 3bf1 873c 46f2 8e3c
00000100: 808e da3d b0cc 293c b816 473e f2f8 0e3d
00000110: 3fe8 083d ab99 ff3c b50f 8e3c 094c 043d
00000120: 810c 313c 3456 023c e4c1 2b3b 8db1 dc3d
00000130: 96ab 553c 52d0 93bd 72c4 76bb 8be5 f43c
00000140: 403c af3c 445a f03c 3d90 393c c413 3b3c
00000150: 44a1 083d b70d 553d b0b5 d9bb 66ca 8f3c
00000160: 2f61 223e fe84 dd3a 7a74 1c3c 7874 de3c
00000170: b81c 3a3e 7d61 be3c 1855 183d ad89 883d
00000180: 9f98 8f3b 5e0e 2d3d 2fdd 803b f7fc 283d
00000190: 63dc 8d3c 4dc7 523e ca81 273d adae 403c
000001a0: beea 063d ad5b b83a 5956 863c 969e 8f3b
000001b0: 48f7 173c 9e5e f13b 8f05 6e3c 6d85 af3e
000001c0: b055 a9bc 8248 5e3c 7d77 073c a76f fcba
000001d0: 7626 913b 6b9c 463d 936e 243b 8c7b f33d
000001e0: 1e04 f53c d55f ee3e 8332 233d e171 8339
000001f0: 34f4 413d ef8b e53c da6b 2d3d 0094 a83c
00000200: 7523 273c 2e9c 3b3d 2ad9 133d 7ce0 93bc
00000210: dfd8 703c 278c bf3d 3bc6 ab3c 3210 a03d
00000220: 5dbe 093c 89a5 f33c ec42 7d3c de88 833c
00000230: e4e8 f13b a7c3 f93c 5835 9a3c fef2 13bd
00000240: c771 933c 52a9 153d 0587 0b3c c9f8 b53a
00000250: e2f1 5d3d 3f7a e13b a75c 2a3c 4ee3 153d
00000260: a7a4 f13c bade fe3c 563f a1bb e2d6 693d
00000270: af52 4cbb 05b9 f73a fded d23a c1de 14bc
00000280: b5a5 cb3c 571c 413c be85 093d 28f4 233d
00000290: 899b aa3c 70d7 983c 771f c93c 1f4b 373d
000002a0: 562f 853c 7b21 7c3c 1c40 d13c 975a d43c
000002b0: f153 a93c 4c97 bc3c 7b86 333d 65d3 e23c
000002c0: 7ca4 893d 95e1 9f3c 3443 a03c a199 a73c
000002d0: b9f5 f1b9 9ee7 653c 8b66 0b3e 121e 453a
000002e0: ca35 133e 4739 dd3d 1014 f43c b505 633c
000002f0: b74e 753c c975 713d 181f 133d ac6d 8b3d
00000300: c35d 57b9 afea c03d 5fdc 973d df7c b33c
00000310: 745f 603e 4a04 513b b797 823d 04e0 beba
00000320: bf75 ad3d 7bea 5f3e c6e3 933b 9d04 1d3e
00000330: e0e5 f73d 4c3f 2abd f298 cb3b 0c84 b23c
00000340: f99d a93c ccba 9c3e 024d 8c3d 8552 8c37
00000350: d3b7 4c3c 1dd0 d83c 3182 013c e4e8 1d3d
00000360: 6568 2e3c e430 1f3d 8a21 9e3c 11e9 383e
00000370: 2934 903c 0f18 2fb8 d4c1 cc3b 3f77 8f3c
00000380: f7c9 703e 3895 e13c 9144 ce3b 624d 6cbc
00000390: 0017 c83c 4ec6 2d3d db9e 1a3d 6283 af3d
000003a0: 1ec0 1e3d 5c6e 2b3d db87 e13c 77f4 773c
000003b0: b794 e83b bc48 9aba d134 eebb 3e2a d73d
000003c0: 9659 90ba 49b2 2e3d e5b5 e33c 33c5 d2ba
000003d0: 078c 803e 5ef8 b5bc bf62 313c d054 d03c
000003e0: 8db9 733d 954d da3e 5fa0 f63c 6c4a ae3a
000003f0: 8eb9 ab3c a293 2f3c 431c 173e 428b c13d

bn1.running_mean f4 [256]
4.029874 7.7256846 3.6559777 2.4972534 2.2164102 4.2384553 5.222781 5.1113234
0.29564035 14.606452 18.442577 2.8827376 3.326425 13.800171 3.2794027 4.3252454
0.83333653 0.871863 0.70834374 0.4365716 11.025132 4.2124944 3.2359848 2.3699663
85.14631 2.636474 8.458361 38.92708 2.472889 24.430538 0.6376631 8.2284775
12.112331 0.3986289 0.6539658 83.23426 0.595829 1.7792383 72.85897 1.5070947
0.6224344 0.8906697 59.36065 0.16042903 2.7748506 0.9430922 1.551308 63.534134
2.0005472 65.51968 10.239016 81.37436 3.7824373 2.0974889 5.872476 0.86316663
7.210904 27.72678 5.2939835 0.6063602 5.786334 0.8025355 2.869388 11.713499
1.7423106 0.7433073 16.250034 1.0156591 2.281571 1.3821374 3.5096912 4.7934194
0.328213 0.41275334 1.8378721 2.212648 0.31056973 34.389595 0.2542611 0.068584815
1.4518824 0.9786853 4.2043567 1.9960653 3.101851 10.511865 0.22257735 1.8257519
1.7148699 3.8144648 0.50067604 5.8506103 15.760489 1.279521 5.959595 6.5987954
3.7387934 7.2181344 6.3482075 1.448223 1.854166 84.74035 7.687568 1.621185
2.0488183 0.3081279 0.8005566 5.06337 2.5816503 6.07659 1.1379938 78.87659
1.1566203 1.2691306 2.4697785 0.0009290933 1.232807 2.8391883 1.8130391 10.590079
8.072234 86.1907 0.876975 0.30345532 2.9405215 0.9245927 0.9798614 1.9173572
7.2146854 1.7021288 0.86818427 2.5065506 2.39097 1.2999039 2.9794042 31.771448
4.4156103 3.7430153 2.9286592 5.757684 0.31563726 7.6295314 8.288599 80.89944
0.7659023 7.380508 1.3219086 0.14567122 0.8575074 0.49396026 2.1156154 3.096909
2.3350844 24.49271 5.474366 11.822441 2.3114712 2.134304 3.5387588 1.9676391
0.79392385 1.7983534 4.0131927 1.0805898 11.074785 0.69124454 4.2419763 5.094004
2.1703186 4.10738 1.146719 7.1779885 2.8056624 4.733728 10.948841 3.855127
2.6636877 0.71772474 2.0542786 0.6298222 1.2563647e-12 3.8634229 1.5278659 7.618854
35.023575 4.569492 19.504284 0.8386109 1.3935567 7.7205324 7.454967 1.3691728
0.80030984 1.4994954 53.588825 3.4875157 56.36668 0.78945905 3.5590374 1.4894794
14.727582 2.4502528 2.4620104 4.17378 16.096666 3.3010287 1.6290133 1.9125806
9.798743 4.1028576 1.1246783 2.7692358e-33 0.91556865 9.602503 1.4270442 2.234539
1.2283942 2.0277982 4.9919004 7.8907285 0.85333943 6e-45 5.4741817 3.0080645
3.2443073 3.62213 2.028398 0.26374754 3.3830676 1.5981698 5.1047983 18.446482
0.024639579 13.951109 4.3679776 12.400669 3.7595177 1.3392715 3.1807625 0.7570914
6e-45 2.5855467 0.9959357 3.4617445 52.11353 4.894307 0.4546942 0.741505
11.151041 3.950528 8.311718 9.713121e-26 4.7041173 2.9499733 8.613125 5.9788227
00000000: baf4 8040 cf38 f740 8afb 6940 00d3 1f40
00000010: aad9 0d40 6da1 8740 0621 a740 f68f a340
00000020: 2c5e 973e 07b4 6941 668a 9341 c67e 3840
00000030: 26e4 5440 80cd 5c41 bce1 5140 6968 8a40
00000040: 8b55 553f 6a32 5f3f 0456 353f 5086 df3e
00000050: f166 3041 c1cc 8640 601a 4f40 87ad 1740
00000060: e94a aa42 fdbb 2840 7255 0741 54b5 1b42
00000070: d043 1e40 be71 c341 e43d 233f d8a7 0341
00000080: 1ccc 4141 1619 cc3e 4d6a 273f f177 a642
00000090: 4088 183f 15be e33f cbb7 9142 7be8 c03f
000000a0: dc57 1f3f ee02 643f 4e71 6d42 8247 243e
000000b0: 2797 3140 7e6e 713f 4391 c63f f422 7e42
000000c0: f708 0040 130a 8342 02d3 2341 acbf a242
000000d0: 7413 7240 423d 0640 53eb bb40 7df8 5c3f
000000e0: babf e640 72d0 dd41 5068 a940 6c3a 1b3f
000000f0: a629 b940 f772 4d3f 0ea4 3740 7e6a 3b41
00000100: 0904 df3f 6349 3e3f 1200 8241 1e01 823f
00000110: 4205 1240 e1e9 b03f c89e 6040 b163 9940
00000120: 890b a83e 6854 d33e 653f eb3f 069c 0d40
00000130: ff02 9f3e f28e 0942 832e 823e 3276 8c3d
00000140: 48d7 b93f 1f8b 7a3f 178a 8640 117f ff3f
00000150: ba84 4640 9930 2841 51eb 633e 3db2 e93f
00000160: db80 db3f 3120 7440 4e2c 003f 3338 bb40
00000170: f72a 7c41 58c7 a33f 01b5 be40 5529 d340
00000180: 6448 6f40 f5fa e640 8424 cb40 5f5f b93f
00000190: 5055 ed3f 0f7b a942 8f00 f640 fd82 cf3f
000001a0: d71f 0340 f1c2 9d3e 47f1 4c3f 2107 a240
000001b0: c239 2540 6d73 c240 c8a9 913f d0c0 9d42
000001c0: 220c 943f df72 a23f da10 1e40 658e 733a
000001d0: 9fcc 9d3f 43b5 3540 aa11 e83f f770 2941
000001e0: df27 0141 a361 ac42 6f81 603f 7f5e 9b3e
000001f0: 8131 3c40 1bb2 6c3f 32d8 7a3f f66b f53f
00000200: b4de e640 5bdf d93f 5341 5e3f 536b 2040
00000210: a705 1940 4063 a63f 8fae 3e40 ed2b fe41
00000220: ae4c 8d40 908d 6f40 276f 3b40 f33e b840
00000230: 359b a13e 1f25 f440 1a9e 0441 83cc a142
00000240: 2c12 443f 1f2d ec40 4d34 a93f d62a 153e
00000250: 9b85 5b3f 5ce8 fc3e 3e66 0740 c233 4640
00000260: 0672 1540 12f1 c341 022e af40 b828 3d41
00000270: 25ef 1340 7098 0840 067b 6240 99db fb3f
00000280: 983e 4b3f 7230 e63f 136c 8040 c450 8a3f
00000290: 5232 3141 67f5 303f 45be 8740 1502 a340
000002a0: 80e6 0a40 a86f 8340 b0c7 923f 15b2 e540
000002b0: f98f 3340 b37a 9740 742e 2f41 67ba 7640
000002c0: dc79 2a40 cfbc 373f 4d79 0340 073c 213f
000002d0: 4fd1 b02b 5242 7740 1c91 c33f a7cd f340
000002e0: 2418 0c42 4739 9240 c608 9c41 34af 563f
000002f0: 1160 b23f 9a0e f740 178f ee40 0e41 af3f
00000300: 1be1 4c3f 77ef bf3f f55a 5642 7533 5f40
00000310: 7b77 6142 fd19 4a3f 45c7 6340 43a7 be3f
00000320: 2da4 6b41 f1d0 1c40 9491 1d40 9b8f 8540
00000330: f9c5 8041 0e44 5340 8283 d03f 71cf f43f
00000340: a7c7 1c41 9c4a 8340 75f5 8f3f 220f 6609
00000350: b562 6a3f daa3 1941 62a9 b63f b002 0f40
00000360: 053c 9d3f 72c7 0140 a6bd 9f40 d980 fc40
00000370: 7474 5a3f 0400 0000 7f2c af40 2184 4040
00000380: bba2 4f40 fad0 6740 46d1 0140 eb09 873e
00000390: 2e84 5840 d490 cc3f 825a a340 6592 9341
000003a0: f1d8 c93c be37 5f41 79c6 8b40 2469 4641
000003b0: f09b 7040 406d ab3f 9d91 4b40 bed0 413f
000003c0: 0400 0000 9979 2540 a4f5 7e3f 398d 5d40
000003d0: 4174 5042 2a9e 9c40 aecd e83e 46d3 3d3f
000003e0: aa6a 3241 73d5 7c40 ccfc 0441 387c f015
000003f0: 2188 9640 5dcc 3c40 5ccf 0941 8452 bf40
