MADDPG/checkpoint_maddpg_critic_agent_1.pth (torch_old, 324306 bytes, 9 tensors)

fc1.weight f4 [256, 52]
000000 00 8d e0 3f 60 5c 95 bf 3c 62 31 be dd 41 19 bf
       1.754303 -1.1668816 -0.1732263 -0.59866124
000010 0d 58 b4 bf e0 08 b6 bf d4 ca 3e be 5b 7b 17 bf
       -1.4089371 -1.4221458 -0.1863206 -0.591726
000020 42 fc c5 3f eb b2 ee bf 16 fd 41 3e 58 27 4f bf
       1.5467608 -1.8648351 0.18944201 -0.8091941
000030 df 5a 7e bf 94 cb 9f bf 94 d8 01 3e 6f 47 47 bf
       -0.9935741 -1.2484002 0.12680274 -0.77843374
000040 96 31 ba 3f a2 e9 13 c0 85 64 e5 3e 8c bd b4 3e
       1.4546382 -2.3111348 0.44803253 0.35300863
000050 5b 06 06 be 4d aa 3a be 23 f4 ca 3e a0 e4 78 3e
       -0.13088362 -0.18229027 0.39639387 0.24305964
000060 17 13 ad 3e 38 ff 4e be 04 3e 28 bd ad 05 7b bc
       0.33803627 -0.20214546 -0.041074768 -0.015321177
000070 a0 35 be 3f 77 d9 b4 bf b3 2f 41 bb ae ee d7 bc
       1.4860115 -1.4128865 -0.0029477894 -0.026358929
000080 48 1a 44 3e 2c f9 8b be e3 ce 28 3d ca c3 29 be
       0.1915065 -0.2733854 0.041212928 -0.16578594
000090 50 63 81 3f a9 51 a3 bf 5a 5b a4 bc f2 b9 46 be
       1.0108433 -1.2759296 -0.020063091 -0.1940687
0000a0 f4 f4 0c 3e 7b a6 97 bf bb 41 83 bd 22 88 3a bf
       0.13765317 -1.1847681 -0.064090215 -0.7286397
0000b0 89 ef 6a 3e bd 55 51 be 73 20 77 bd 82 85 28 bf
       0.22942938 -0.20442863 -0.06033368 -0.65828717
0000c0 77 08 21 40 16 be 32 3c 47 4a bf 3e 24 f7 71 40
       2.5161417 0.010909578 0.37361357 3.7807093
0000d0 93 74 e3 3c d2 02 15 c0 78 53 0a bd cd 95 7a bf
       0.027765548 -2.3282971 -0.03377101 -0.9788483
0000e0 49 62 5a bf f2 47 01 bf fd ed 6c bd 61 9a 7b bf
       -0.8530622 -0.50500405 -0.05784415 -0.9828244
0000f0 a3 a8 ca be fc 49 00 c0 a9 39 e1 bc ee 85 16 3e
       -0.39581785 -2.0045156 -0.027493315 0.14699528
000100 36 01 f5 be e2 fc 49 bf 65 f7 55 bc 09 72 35 3e
       -0.47852486 -0.78901494 -0.013059472 0.17719282
000110 fe 18 9f be 26 85 1b c0 9a 56 85 bc 2c 90 06 c0
       -0.31073755 -2.4300017 -0.016276646 -2.1025496
000120 f1 44 b2 3d c4 eb 8a bf d6 8c 7b bc 4c d5 08 c0
       0.08704556 -1.08532 -0.015353402 -2.1380186
000130 dc e6 8e be d9 b7 7c 3f e6 64 9a 3d f7 61 43 be
       -0.27910507 0.9871803 0.07538776 -0.1908034
000140 f0 dd 59 3f d0 4b 10 bf de 4c 8a 3d 26 89 4f be
       0.85104275 -0.5636568 0.067529425 -0.20267162
000150 25 b1 c4 3d 83 f4 98 3f 35 48 8d 3d 41 30 6d be
       0.096041 1.1949619 0.06898538 -0.23162939
000160 1e 69 ea 3e ba 86 3e bf af 78 d2 3c 18 d8 84 be
       0.45783323 -0.74424326 0.025692312 -0.25946116
000170 35 31 02 3e 56 cd 11 3f 3e bc bb bc 81 cc 42 bf
       0.12714083 0.5695394 -0.02291691 -0.760933
000180 38 5b ad bd 5c ef 80 bf 06 6a d1 bb ee c1 4a bf
       -0.08464664 -1.0073047 -0.006390813 -0.79202163
000190 ad 79 7f 40 38 d1 2e bd a3 e9 be c0 24 6a 06 40
       3.9918015 -0.042679995 -5.96602 2.1002283
0001a0 22 51 16 3f d0 51 cd 3f 46 5e 05 be fe 92 0b bd
       0.5871755 1.6040592 -0.13024244 -0.03407573
0001b0 bc 25 57 bd cf 0e 36 bf 07 84 c6 bd 02 60 94 bc
       -0.05252622 -0.71116346 -0.09693151 -0.018112186
0001c0 9a 68 25 3f 0a 05 07 40 22 ad 32 bc fe b9 43 3f
       0.64612734 2.1096826 -0.010905536 0.76455677
0001d0 e3 84 ae be 5e 5b cf bf 69 8d bc bc eb 06 4b 3f
       -0.3408576 -1.6199758 -0.023016648 0.7930743
0001e0 69 a6 44 3f 64 5a b8 3f ca 74 81 3e 4d f3 2d c0
       0.7681642 1.4402585 0.25284415 -2.717975
0001f0 37 b1 43 be 68 6a 8e bf 58 d9 8a 3e 1d 53 2f c0
       -0.19110571 -1.1126223 0.27118945 -2.7394478
000200 9d be 23 be 35 f5 aa 3e 64 46 35 be 6e 16 93 be
       -0.15990682 0.33390203 -0.17702633 -0.2872805
000210 1d cf 83 3d de 6c 3b bf 32 10 12 be 82 c6 45 be
       0.06435988 -0.73212993 -0.1426399 -0.19314006
000220 4b 78 72 3e 30 16 8c be 18 f9 cc 3c 80 9c 21 bf
       0.236787 -0.27360678 0.02502112 -0.63129425
000230 bb 51 c4 3e f0 3e ce bf ae 2a 29 bd ad a1 31 bf
       0.38343605 -1.6112957 -0.04130047 -0.6938732
000240 a0 9f 0e 3e bd 58 49 bf f6 27 5e 3d ff 65 11 3e
       0.1392808 -0.7865103 0.05423733 0.14199065
000250 83 5b 4d 3e 1a 69 93 bf 95 a7 10 bc f3 77 5c 3e
       0.2005444 -1.151645 -0.008829017 0.21530132
000260 2c d4 a7 3e 3e 89 c4 40 44 03 fe 3f dd f2 1d c0
       0.32779062 6.141753 1.9844747 -2.4679482
000270 e7 76 56 bf 5b d1 25 3f 54 40 8a 3e 0c 12 c4 bc
       -0.8377518 0.64772576 0.27002203 -0.023934387
000280 d5 ed e6 bf ce cb 4f bd 5b e5 6a 3e 6d 01 c0 bb
       -1.804133 -0.050731473 0.22939055 -0.005859545
000290 cb ef 56 40 a1 88 71 be cf 5e 97 bd f6 55 f7 bc
       3.3583858 -0.23587276 -0.0739113 -0.030192357
0002a0 71 8e 9b c0 ca 6a 09 3d 56 0b 31 be 4b ee 1a 3d
       -4.861138 0.033549108 -0.1728948 0.03782491
0002b0 de 73 64 40 61 df c5 be 53 f1 b2 bd 93 17 44 3d
       3.569572 -0.38646987 -0.08737435 0.047874045
0002c0 a6 de 0d c1 22 87 34 3e 6a 93 dd bd 53 56 06 bd
       -8.866858 0.17629674 -0.108191326 -0.03279717
0002d0 82 91 20 bd 75 9c 26 be 64 e4 e1 3c ae 5a 24 3d
       -0.039201267 -0.16270621 0.027574725 0.04012554
0002e0 f0 e1 e8 3f a8 1f e4 bd 22 d3 27 bd 86 e7 2e bd
       1.8193951 -0.111388505 -0.040972836 -0.042701267
0002f0 b9 87 e0 3d 87 2c 04 3c d2 c4 72 3c 76 a7 8b bd
       0.10963387 0.008067257 0.014817433 -0.0681905
000300 9f 8e 9e 40 98 69 b2 3d c7 49 cc bc 28 d4 ee 3c
       4.95491 0.08711547 -0.024937524 0.029153898
000310 fc 93 8f bd 97 87 9a 3c 7f ec ab 3a 1a 1d 71 3c
       -0.07010648 0.018863482 0.0013116746 0.014716411
000320 2c 72 0e 41 fa 43 eb 3d 96 ce fe 3b 17 e7 b1 3d
       8.902874 0.11487575 0.007776092 0.08686655
000330 20 4a 12 bd 79 78 57 be 0a d8 2a bd cc 94 fc bc
       -0.035715222 -0.2104205 -0.041709937 -0.03083267
000340 d1 38 d7 3b d2 b5 da 3f 35 59 19 3e 08 68 b6 be
       0.0065680523 1.7086737 0.14975436 -0.35626245
000350 de 63 16 bf a6 38 52 bf 87 70 c7 3d 82 19 d8 be
       -0.58746135 -0.8211769 0.0973826 -0.4220696
000360 e1 3e 17 3e d1 6a 8f 3f ba 51 84 be 97 61 bd bf
       0.1477008 1.1204473 -0.25843602 -1.4795407
000370 6e b2 b1 be 42 49 fe bf 96 2f 8c be 87 71 b2 bf
       -0.34706444 -1.9866107 -0.27380055 -1.3940896
000380 6d 17 c0 be 59 41 31 3f 8c b0 5b 3e bf b0 85 be
       -0.37517872 0.6924034 0.21454066 -0.2611141
000390 82 d4 2f 3e 02 1c 31 c0 4a 95 0f 3e 12 0d 5f be
       0.17170909 -2.7673345 0.14021793 -0.2178233
0003a0 9a a4 01 bf 4c 2f 2f 3f 2d b6 d3 3e 62 50 a6 be
       -0.5064179 0.68431544 0.41349927 -0.32483202
0003b0 f6 1e 17 3f 6f 86 59 bf 1e d4 c0 3e ff 77 76 be
       0.5903162 -0.84970754 0.37661833 -0.24069212
0003c0 19 13 1a 3f 67 ad 83 3f c9 32 bd 3d eb ba 85 bf
       0.6018539 1.0287293 0.09238202 -1.0447668
0003d0 df eb a4 3e f0 26 f6 bf e8 8b c1 3d e7 9b 85 bf
       0.32211205 -1.9230633 0.09450513 -1.0438203
0003e0 2b b6 28 3f 55 a4 60 3f e5 b1 77 be 15 d0 04 bf
       0.65902966 0.8775075 -0.24188955 -0.5188001
0003f0 8f 3a 4d be e4 77 2d c0 83 41 90 be 17 65 01 bf
       -0.2004187 -2.7104425 -0.2817498 -0.50544876

fc1.bias f4 [256]
000000 9c 6a 23 bf 96 33 df 3b 91 36 cd bf aa d1 1c be
       -0.6383455 0.0068115694 -1.6032277 -0.15314355
000010 bd b6 a0 bc 4c 82 b7 bd 97 21 cc be a4 03 ab c0
       -0.019618386 -0.08960399 -0.39869377 -5.3441944
000020 38 00 7a bf 54 1d e1 be cc e0 91 bf cb 09 aa bf
       -0.97656584 -0.43967688 -1.1396728 -1.3284239
000030 f3 ec 14 bf 27 10 05 3f a7 76 82 be 6c 61 01 c0
       -0.58174056 0.5197777 -0.2548115 -2.0215712
000040 27 c4 ac bf a4 50 f5 be 2a 60 d3 c0 b5 08 55 3e
       -1.3497361 -0.47913086 -6.605489 0.20804103
000050 9a e5 c6 3f 21 e0 2f 3e 65 3a 61 bf 19 55 83 3e
       1.5538819 0.17175342 -0.8797973 0.25650862
000060 9b 57 bc be 2f 42 a1 bf 36 ab 1c bf d4 d0 c8 be
       -0.36785588 -1.2598323 -0.6119875 -0.39221823
000070 ca bf ba bc dc c5 e7 3e 85 84 a5 c0 10 bf 91 3f
       -0.02279653 0.45268142 -5.1724267 1.1386433
000080 40 e4 8b bf 10 6e 71 3d a3 20 f9 be f0 dc ce 3e
       -1.0929031 0.058942854 -0.48657712 0.40402937
000090 cf 70 a6 be f8 d0 6c bf 1c c7 bd bf c3 92 b7 be
       -0.3250794 -0.9250636 -1.4826388 -0.35854158
0000a0 5c 2d 9e be 2b 6a 45 bf 70 cf c1 be 15 8d 20 3f
       -0.3089398 -0.77115124 -0.37853575 0.62715274
0000b0 a9 96 13 bf e8 0a 8f bf 24 39 aa bf 59 5e 89 3f
       -0.57651764 -1.1175203 -1.3298688 1.0731918
0000c0 d7 20 1d 3e b1 ed 0e 3a 32 f4 c2 bf ac b9 e0 bf
       0.15344559 0.0005452289 -1.5230772 -1.7556663
0000d0 29 f9 20 bf e0 48 df be 88 36 b4 bf d0 11 eb be
       -0.6288019 -0.43610287 -1.4079142 -0.45912027
0000e0 77 99 19 bf 3c 4a 72 3e b1 f2 a7 bf 5f fc a6 be
       -0.59999794 0.2366113 -1.3120939 -0.3261442
0000f0 8a 27 88 bf 8c 5f d7 be 3d f6 dc 3e 9c 35 9f bd
       -1.0637066 -0.42065084 0.43156615 -0.07773897
000100 f8 9c 77 bf 69 88 5d be 26 a9 5d c0 f3 a6 56 be
       -0.9672389 -0.21634068 -3.463449 -0.20962124
000110 cf e6 a7 be c8 b5 0c c0 0f 37 cf bf 09 ee 0a bf
       -0.3279328 -2.198595 -1.6188678 -0.5426946
000120 31 a3 60 bf fe ac f8 bd e9 36 44 c0 a8 f1 ab bf
       -0.8774901 -0.12142371 -3.0658514 -1.3433123
000130 34 3b 84 be 8f 5d fe bf 72 06 a3 bf e4 8d 2b 3f
       -0.25826418 -1.9872302 -1.2736342 0.6701338
000140 78 93 87 bf 42 d4 dc 3e 12 10 5d c0 83 96 d7 bc
       -1.0591879 0.4313069 -3.4541059 -0.026316887
000150 45 2b 50 bf 5a 11 e3 be 4a bd 70 be f9 49 c9 bf
       -0.81316024 -0.44349176 -0.23509708 -1.57257
000160 0f da d1 be 85 85 66 c0 27 1e 31 bf f6 1a 00 3f
       -0.40986678 -3.6018994 -0.69186634 0.5004114
000170 9b 4a 3d c0 a6 94 23 3f 74 37 18 c0 ec 09 b3 be
       -2.9576786 0.63898695 -2.3783846 -0.34968507
000180 44 1c 48 3e 56 0f 1f c0 67 ad 35 be 91 b0 92 bd
       0.19542032 -2.485311 -0.17741929 -0.071625836
000190 db 2b 95 3e 9e f7 20 bf 4c 86 e4 bf 5a 2b e4 3e
       0.29135022 -0.62877834 -1.7853484 0.44564325
0001a0 e5 ac ad bf 2a 51 99 bf bb 80 98 3d b1 44 19 c0
       -1.3568388 -1.1977894 0.074464284 -2.3948176
0001b0 98 1d 9f bf e9 0b f3 3e 4a ef 8b bf c9 e1 02 c0
       -1.2430906 0.47470024 -1.09324 -2.0450308
0001c0 08 20 e5 3e cd 5e 0f c0 02 6d 12 bd 9d a2 90 be
       0.44751 -2.2401612 -0.03574849 -0.28249064
0001d0 c0 6a cb bf cc db 83 bf e3 3f a2 3f 6e 90 2e 3d
       -1.5891953 -1.0301452 1.2675747 0.042618208
0001e0 64 e8 cb bf 2d 8e 80 be a1 81 1d 40 a8 35 7d 3f
       -1.5930295 -0.25108472 2.461037 0.9891
0001f0 44 df 19 c0 de 39 ac bf be 2a 19 bf 47 b0 88 3e
       -2.404252 -1.345516 -0.59830844 0.2669699
000200 4a 1c 37 bf e8 b3 5d bf b1 98 3f bc b4 ee 73 bf
       -0.7152754 -0.8660264 -0.011694119 -0.9528611
000210 80 df 88 3e 66 f0 3e 3e d5 e8 3b be c2 32 02 bf
       0.26733017 0.18646392 -0.18350537 -0.508587
000220 83 7f e7 be 81 c7 82 3e 1a 86 5c bf ec 31 3e bf
       -0.4521447 0.25542834 -0.8614212 -0.74294925
000230 bc 17 80 be 99 b1 a6 bf 3e 83 84 bf ba c1 c3 3e
       -0.25018108 -1.3022949 -1.0352552 0.3823374
000240 0d 19 b9 bf 57 da 8a bf 20 ea 6a 3e 38 4d 80 3e
       -1.446077 -1.0847882 0.22940874 0.25058913
000250 fc c9 83 be 6e 13 99 3f 45 41 41 bf 3f e4 d5 3c
       -0.2574004 1.1959054 -0.7549022 0.026109813
000260 ed 11 3b 3f cd b4 53 bd 16 4c bc bf 87 37 53 bf
       0.7307423 -0.051686097 -1.471072 -0.82506603
000270 40 56 70 bf 33 97 48 c0 4e 72 17 c0 52 e4 7b 3e
       -0.9388161 -3.1342285 -2.3663516 0.24598816
000280 5b b1 cc bf 5a a8 89 bf be 42 42 3e 10 f7 ae bf
       -1.5991625 -1.0754502 0.18970773 -1.3669147
000290 79 82 87 bf 74 95 0f 3f 0f 88 f1 bf 98 e5 9c c0
       -1.0586692 0.5608742 -1.8869647 -4.9030266
0002a0 d2 b9 10 bf ca b2 26 3f 36 b9 0d bf 0d 9b a1 bf
       -0.5653354 0.6511656 -0.55360734 -1.2625443
0002b0 c5 72 9e bb 93 d6 d8 be ee 27 8d be 5c 91 4f 3e
       -0.004835459 -0.42351207 -0.27569526 0.20270294
0002c0 41 47 f4 bf 28 0c 2c c0 bb 39 23 bf 8d 02 43 bf
       -1.9084245 -2.688242 -0.63759965 -0.7617577
0002d0 0e d6 3a 3f 19 cb 8b be 12 6e 18 c0 f5 50 c8 bf
       0.7298287 -0.2730339 -2.3817182 -1.5649706
0002e0 35 d5 72 bf 38 fe 9e bf 10 1d 7a 3e 2f 8f ac bf
       -0.9485658 -1.2421331 0.24425149 -1.3481196
0002f0 86 ca 07 bf 83 4b 4b 3e 48 de c4 3e 9e de 46 bf
       -0.530434 0.19853024 0.38450837 -0.77683437
000300 9b 52 a6 be 0c 2b 40 bf db 13 41 bf 03 4c 0d bf
       -0.32484898 -0.75065684 -0.7542092 -0.5519411
000310 88 bc 2f c0 9a b7 4d bf 5c 6b 79 3e cf 30 da 3e
       -2.745882 -0.8035828 0.2435736 0.42615363
000320 bc a8 30 c0 b8 5b 34 c0 d4 ae 3d bf 26 ef 52 3f
       -2.7602987 -2.818098 -0.7409489 0.8239616
000330 3e 9c 0f bf 44 60 3d bf 09 c1 6b 3e a5 c7 b8 bf
       -0.5609778 -0.73975015 0.23022856 -1.4435927
000340 94 3a bb bf 1a 12 89 c0 6e de d5 3e 60 6f c4 bc
       -1.4627252 -4.2834597 0.41771263 -0.023978889
000350 c1 ed 37 3f 51 ed a3 bf c5 b1 fc be ce c4 2d be
       0.7184716 -1.2806798 -0.49354377 -0.16969606
000360 c2 e9 0b bf c1 e9 30 c0 a5 87 ab bf 46 65 fe bf
       -0.5465356 -2.7642672 -1.340077 -1.9874656
000370 71 48 10 3f df 3c 0c 3d 82 c3 55 3f 50 53 60 c0
       0.56360537 0.03423774 0.83501446 -3.505085
000380 e2 e9 2f c0 0b ce 8a bf 2e cf 90 bf 37 4c 29 bf
       -2.74865 -1.0844129 -1.1313226 -0.6613192
000390 9a 4e 0b 3e 32 12 eb be b4 0c 5a 3d 3e 09 c4 bf
       0.13604203 -0.4591232 0.05323477 -1.531532
0003a0 50 83 8b be a4 e2 5e 3f 14 76 92 be 94 98 6c be
       -0.2724862 0.87064576 -0.2860571 -0.23105079
0003b0 b7 6d c0 bf b1 a9 04 c0 5b c1 a3 3d 3b 09 9f bf
       -1.5033482 -2.0728571 0.07995864 -1.2424692
0003c0 5f f7 bd 3d 73 60 c7 bf d6 ef d9 3f 74 a7 26 3f
       0.09275698 -1.5576309 1.7026317 0.65099263
0003d0 77 55 03 c0 75 0d 33 bf d5 fa f9 bf 32 57 7c 3e
       -2.0520914 -0.6994241 -1.9529673 0.24642637
0003e0 d1 f9 53 c0 78 2a c3 be 75 d9 a7 bf af 23 9f bf
       -3.3121226 -0.3811834 -1.3113238 -1.2432765
0003f0 4b 39 98 bf 88 75 a5 bf 9b 97 18 be 07 0c 5c bf
       -1.1892484 -1.2926493 -0.14901583 -0.8595585

fc2.weight f4 [256, 256]
000000 a9 5a 8f 3c 6b 44 ab 3d e3 8f 4c 3d 24 40 b2 bd
       0.017499285 0.08362659 0.04994191 -0.0870364
000010 fc 39 a1 bd b1 82 bb 3d a3 5c 58 bd 0a 4a a0 bc
       -0.07872388 0.09155787 -0.05282272 -0.019566555
000020 25 f4 05 3e dd 16 0b bd 09 44 53 3d c0 8f f4 bd
       0.13081415 -0.03395735 0.051578555 -0.11941481
000030 dd 22 c4 bd 26 83 dc bc 85 21 86 3d 32 23 ce bb
       -0.09576962 -0.026918005 0.06549362 -0.0062908167
000040 34 fc ae 3d 10 3e 8c be 41 27 9d bd 47 69 46 bd
       0.08544198 -0.273911 -0.07673503 -0.048440244
000050 09 91 86 be 98 78 87 3d b6 68 5e bd 8e 6c 80 3d
       -0.26282528 0.06614798 -0.05429908 0.06270705
000060 e8 48 78 be b9 63 94 3d 1b 68 65 bd 3e 57 66 3d
       -0.24246562 0.07245583 -0.056007486 0.056235544
000070 76 85 1e 3d d4 e1 3d bd 1e cb 6b 3d f5 28 43 3d
       0.038701497 -0.046357945 0.057566755 0.04764648
000080 be b2 c0 3c 65 83 c4 bd ea ea 96 be 30 1d 39 be
       0.02352273 -0.09595374 -0.294761 -0.1807754
000090 0e 4f 89 3d 23 6f 1d 3d 98 1a 84 bd 32 dc 1f bd
       0.067045316 0.038436066 -0.06450385 -0.039028354
0000a0 e4 31 52 bc 0e 00 17 bc e0 29 8f bd 34 17 11 3d
       -0.012829278 -0.009216322 -0.06990409 0.03542252
0000b0 97 5e 39 bd c4 f5 06 be 33 d1 86 bb 88 93 1c 3d
       -0.045256224 -0.1317969 -0.004114294 0.038226634
0000c0 db dc a1 3d ae c3 31 be 5a 56 01 3e cc 24 54 be
       0.07903453 -0.17359802 0.12630597 -0.20717162
0000d0 30 9d 1a be 21 1b 0c 3d 87 3d 20 bd ea 92 54 be
       -0.15099025 0.03420556 -0.039121177 -0.20759168
0000e0 81 c9 f8 bd f1 03 57 bb cf b1 40 3e 48 35 bc 3d
       -0.12147809 -0.0032808746 0.18817829 0.0918985
0000f0 da 49 03 3d 69 ff cd 3c 17 7e 8f 3d d3 5f 20 3e
       0.032052852 0.025146203 0.070064716 0.15661554
000100 dc 14 89 3e a8 15 0d 3d 7f 8d 96 3d db 41 20 be
       0.26773727 0.03444448 0.07351207 -0.15650122
000110 d2 01 05 3e b4 b4 1f 3d dd 6a eb 3d 4c 9d 41 3a
       0.12988976 0.03899069 0.11494992 0.0007385805
000120 a0 61 a5 bd 31 ca 38 3e ee 6d bf bc d2 eb 1b bd
       -0.08075261 0.1804588 -0.023367848 -0.038066693
000130 af 65 92 3d 47 39 18 3c 52 c6 6d bc ca 7f 97 bd
       0.07148301 0.009291 -0.014512615 -0.07397421
000140 71 b1 bd bc c9 1e 1b bd e0 e8 fb bc 65 2f 8c be
       -0.0231559 -0.037871156 -0.030750692 -0.2737991
000150 aa 12 c4 bd 08 c7 45 bd 43 d2 d6 3c cf f9 89 3d
       -0.095738724 -0.048285514 0.026223307 0.067371
000160 74 aa 14 bd 16 e9 fe 3b 65 cb 9b be 50 35 56 3d
       -0.03629537 0.007779251 -0.30428615 0.052296937
000170 a0 fb 8b 3c b2 22 00 3e b3 94 c2 bc 94 a1 63 be
       0.017087758 0.12513235 -0.023752546 -0.22229606
000180 f6 07 08 3c f0 98 42 3d e4 9d 2a bd 01 4b af 3d
       0.008302679 0.047509134 -0.041654482 0.08559228
000190 a0 dc 24 bd 20 77 53 3d 2c d4 97 3d 12 70 d5 bd
       -0.040249467 0.05162728 0.074135154 -0.10421766
0001a0 1a 02 81 3d de f9 df bb e7 ca 51 bd 02 ec 2f be
       0.06299229 -0.0068352064 -0.051218893 -0.17179874
0001b0 f1 94 79 bd 90 b4 2f 3e 99 d3 c0 bd 3f 8a 8d bd
       -0.060933057 0.17158723 -0.09415359 -0.06911134
0001c0 4c 5b d0 3d 4a b3 6b 3b 9c 31 d1 bd 10 28 c6 3d
       0.101736635 0.003596502 -0.1021454 0.0967561
0001d0 e3 0d 7b 3d 56 35 00 be 5c 49 65 bd 97 ab 3f bd
       0.06129254 -0.12520346 -0.055978164 -0.0467945
0001e0 7e 9f bb 3d f3 1b 59 3d 26 19 8a 3d 70 07 c1 3b
       0.0916128 0.05300517 0.06743078 0.005890779
0001f0 a6 fa 0a be ce 5b 12 bd 28 69 ea bc 69 8d 0f bc
       -0.13572177 -0.035732083 -0.028614596 -0.008761742
000200 55 54 34 bd 50 23 e5 bd 50 cc 47 be 57 0d 2e 3c
       -0.044025738 -0.11188376 -0.19511533 0.010623298
000210 eb 19 86 bd 8b c9 19 3d e9 b8 b4 3d 66 20 9a bd
       -0.06547912 0.037545722 0.08824331 -0.07525711
000220 09 3d 81 3d e1 46 81 3c 5c eb 69 bc b3 9a 99 3d
       0.0631047 0.015780868 -0.014277305 0.0750021
000230 51 64 0f bd 8c 41 e9 bb 72 cd 58 bd 9d 39 9f 3e
       -0.03500778 -0.0071184095 -0.052930303 0.31098643
000240 ba 6c 43 bd 19 c1 07 bd c4 20 05 bd 78 43 de 3d
       -0.04771111 -0.033143137 -0.03250195 0.108527124
000250 15 a7 dd 3d d9 0a 03 bd 58 be 62 3d 63 02 3e bd
       0.10822884 -0.031992767 0.055357307 -0.046388995
000260 9f 61 9d bc d5 05 6a be 12 46 16 3e f5 65 f6 ba
       -0.019211588 -0.22853787 0.14675167 -0.0018798696
000270 00 dc 51 bc 0c 20 58 bc 78 8a 0a be 99 df f1 bd
       -0.0128088 -0.013191234 -0.13529384 -0.11810226
000280 ae 78 4d 3c 85 c8 05 3d bd 26 e9 bb b4 57 d8 3c
       0.012540979 0.032661933 -0.0071152137 0.026409008
000290 1b a6 cc bd ff 13 9a bd 88 d9 c8 bc c4 6d cc bd
       -0.099926196 -0.07523345 -0.02451779 -0.09981874
0002a0 7f cc dc bd a9 d4 7d 3d 8d 29 33 bd ea 7a b5 3d
       -0.10781192 0.061970387 -0.043740798 0.088613346
0002b0 21 b8 e5 bd 99 0c 93 bd a6 0b c3 3c f4 e5 e4 bc
       -0.112167604 -0.07180137 0.023809265 -0.027941681
0002c0 d6 f6 9a bd f5 84 21 be 06 e3 e4 3c 1c 0c b1 3c
       -0.075666115 -0.15773375 0.027940284 0.02161222
0002d0 cd ef f6 bd 95 3a 29 be 07 57 30 bc b0 8b 4c 3b
       -0.12057457 -0.16526254 -0.010762936 0.003121119
0002e0 36 72 ba bd 00 f5 41 3d c8 25 5f 3c af 0c 7d bc
       -0.09103815 0.04735279 0.013619848 -0.015444919
0002f0 fc df bf bd 10 09 40 3d f9 42 c3 bc 01 36 a4 bd
       -0.093688935 0.046883643 -0.023835646 -0.08018113
000300 75 94 6f bd 6d 20 7f bd d1 f6 32 3d 24 2c eb bd
       -0.05849119 -0.062286783 0.043692414 -0.114830285
000310 91 8a 4c bd d0 83 9e 3c 31 83 a2 bd 8a 2f 57 3d
       -0.049936835 0.019349962 -0.07935179 0.05253557
000320 f5 7b 37 3e 7b cc a1 bd cb 8f 81 3d b4 09 c2 3c
       0.1791838 -0.0790033 0.063262545 0.023686267
000330 eb c3 16 bd 74 92 9b bd ba bd 2c bd b2 f8 02 bc
       -0.036807936 -0.07596293 -0.042173125 -0.007993864
000340 45 43 c8 bd d5 56 e2 bc 17 d9 7e bd 23 5f 74 bd
       -0.09778456 -0.027629295 -0.06221875 -0.059661042
000350 68 44 6a bd 2c 00 90 be 14 89 33 3d 8c 50 31 3d
       -0.057194144 -0.2812513 0.0438319 0.043289706
000360 bb c6 27 be ef 32 31 3d c3 a4 90 bd ac 1c 00 be
       -0.16384403 0.043261465 -0.07062676 -0.12510937
000370 2d fb 8e bd dd 00 31 3c ea f2 5b bd 5e 3b fe bc
       -0.06981502 0.0108034285 -0.053698458 -0.031034168
000380 57 4d 30 3d c5 a1 10 bd fd ae b3 bd 17 f3 db 3c
       0.043042507 -0.035310525 -0.08773611 0.026849313
000390 18 64 7b bd b5 17 25 3c 52 16 9f 3d dd a5 4c bc
       -0.061374754 0.010076453 0.07767929 -0.012490717
0003a0 b0 ee fe 3b 09 92 06 3e 36 8f b7 3d cf e8 3f bd
       0.0077799186 0.13141645 0.08962862 -0.046852883
0003b0 4f e1 0c be ac 21 e0 bc be 4d 4d 3b 43 b6 85 3d
       -0.13757823 -0.027359806 0.0031326856 0.06528904
0003c0 7c 7a 60 3d 36 7a 9e 3d 6a e4 70 3d 59 f8 23 bd
       0.05480431 0.07738154 0.058811583 -0.040031765
0003d0 53 c5 36 3c 25 e8 9f 3d a2 df 5a bd 2c 2f ab bd
       0.011155444 0.0780795 -0.05343593 -0.08358607
0003e0 9e 8b 5f 3d a6 d7 f2 bc d5 2f 5b 3d 1f 20 29 3e
       0.05457651 -0.029643845 0.053512413 0.1651616
0003f0 16 36 fb 3a e4 ad 2e bd 6a 52 f7 3d 36 83 0f 3d
       0.0019165899 -0.042646304 0.12076266 0.035037242

fc2.bias f4 [256]
000000 20 3f 5d be f0 ba 71 bf a0 55 fc bd 92 a0 99 be
       -0.21606112 -0.9442587 -0.12321019 -0.30005318
000010 60 49 fd bd 2e 22 cb bd 94 73 65 bf 82 75 54 be
       -0.12367511 -0.09918629 -0.89629483 -0.2074795
000020 9f 5b 2e be ab 01 4b bf c5 68 6e be fb aa 09 be
       -0.17027138 -0.7929942 -0.23282154 -0.1344413
000030 be ab 55 be dc 22 59 be 24 ae ff be 97 0f 52 bf
       -0.20866296 -0.21204704 -0.49937546 -0.8205504
000040 0b 34 37 be d8 4a b5 bd 50 48 2d be 90 29 4b bf
       -0.17890947 -0.08852166 -0.16922116 -0.79360294
000050 91 8c 0b bf 4a 78 cc bd 75 f9 7f be 7d d9 59 be
       -0.5451136 -0.09983881 -0.24997504 -0.21274371
000060 c8 43 85 be f8 5d 52 be 91 eb 2e bf a8 ae 58 be
       -0.26028275 -0.20543659 -0.68328196 -0.21160376
000070 c6 5d 99 be 44 63 41 be 57 3c 05 be c0 cb 60 be
       -0.29954356 -0.18885523 -0.13011299 -0.21952724
000080 81 aa 7d be 65 58 ca be ac 92 2b be 6f 60 18 be
       -0.24772073 -0.39520565 -0.1675517 -0.14880536
000090 bc 95 59 be fb 7e 13 be 45 49 20 be 70 2a 3e be
       -0.21248525 -0.14403908 -0.1565295 -0.18570876
0000a0 c3 c6 52 be 0d 80 74 be 70 9c 52 be 45 bf bb be
       -0.20583634 -0.23876972 -0.20567489 -0.36669365
0000b0 28 0f 04 bd f7 16 21 be cb cb 2b be 95 46 24 be
       -0.032241017 -0.15731417 -0.1677696 -0.1604255
0000c0 09 00 2e be d4 78 85 be 44 55 20 be 77 e3 85 be
       -0.16992201 -0.26068747 -0.15657526 -0.26150104
0000d0 18 5a 43 be 0d db 19 be 1f 26 f4 bd 2b 88 5e be
       -0.19077337 -0.15024967 -0.119213335 -0.21731631
0000e0 75 dd 1c bf 69 e4 50 be e0 5d 64 be 1d a5 49 be
       -0.61275417 -0.20399632 -0.22301435 -0.19691892
0000f0 6f 7d 33 bf 86 fc 98 be 94 f1 8f 3d 6b 09 2f be
       -0.7011327 -0.2988016 0.07028499 -0.17093436
000100 af 6e cf bd 61 6f af be 43 db ed bd f1 6d b9 be
       -0.10128533 -0.34264663 -0.116140865 -0.3621669
000110 3f a0 cc bd 2c c6 42 be 59 23 60 be 40 de 5b be
       -0.09991502 -0.19020909 -0.21888484 -0.214715
000120 75 c4 23 be 3e ae 0b be 07 17 d1 be e2 aa 24 bf
       -0.15992911 -0.13640687 -0.4083788 -0.64323246
000130 b5 ba 3f be c8 8a 94 be ec 31 39 be d7 b0 43 be
       -0.18723567 -0.29012132 -0.1808545 -0.19110428
000140 f9 cb ff be 52 94 89 be c1 87 50 be 89 cb 0e be
       -0.49960306 -0.26870972 -0.20364286 -0.1394483
000150 62 cb bb be cb 55 ae be de ac 3f be b1 f3 04 bf
       -0.36678606 -0.3404983 -0.18718287 -0.51934344
000160 18 a9 d7 bd 59 ee fa bd 3b 08 22 be ed ae 5e be
       -0.10530299 -0.122524925 -0.15823452 -0.21746416
000170 a4 7e 67 be 93 3c 8e be e1 24 5f be d5 18 d4 bd
       -0.22606903 -0.2778059 -0.21791412 -0.10356299
000180 0d da 25 bf 54 97 1a be 16 eb 3a bf a0 47 7c be
       -0.64785844 -0.1509679 -0.7301496 -0.24636698
000190 55 17 2b be 6a 86 5a be 09 8e e1 bd 8f 23 51 be
       -0.16708119 -0.21340337 -0.11013419 -0.20423721
0001a0 39 f1 55 be e9 2f 30 be 71 13 bd be 50 d4 68 be
       -0.208928 -0.17205776 -0.36928895 -0.22737241
0001b0 c1 a2 21 be 0c 82 90 bf 35 91 4d be 88 ef 55 be
       -0.15784742 -1.1289687 -0.20074923 -0.20892155
0001c0 d9 a8 3e be 2e 28 ba be 94 8f 1f be c1 15 6b be
       -0.18619098 -0.3635878 -0.15582114 -0.22957517
0001d0 97 0f 4d be 85 bf 37 be 1f 84 4f be 06 c2 21 be
       -0.20025478 -0.17944153 -0.20265244 -0.1579667
0001e0 59 1b 05 be cf 31 1a be 85 98 cb 3d 50 29 1c be
       -0.12998714 -0.15058063 0.099412 -0.15250134
0001f0 03 fd 7c be 3e 3c 5a be 52 6a aa bd c0 97 85 be
       -0.24705891 -0.21312043 -0.0832106 -0.2609234
000200 46 10 77 be c0 0a 0d bf 45 2f 37 bf bb f8 15 bf
       -0.24127302 -0.5509453 -0.715565 -0.5858266
000210 3a 3c e9 be 98 ba 4e be 7e cb 09 be f9 5e 2b be
       -0.45553762 -0.20188367 -0.13456532 -0.16735448
000220 40 4b 57 be 9c a9 45 be 51 8a f4 bd d7 28 bd be
       -0.210248 -0.19302982 -0.11940444 -0.3694522
000230 75 ef 8c bd 01 c5 25 be 7d 9a 24 bf d6 81 47 be
       -0.0688161 -0.16188432 -0.6429823 -0.19483122
000240 cf 45 2e be b3 8e 4c be 65 0f 74 bf 6b c2 1e 3d
       -0.17018817 -0.1997631 -0.9533599 0.03875963
000250 18 f9 57 be 97 42 40 be 4c fe 09 be 1e 2a 7d be
       -0.21091115 -0.18775402 -0.13475913 -0.24723098
000260 79 e3 2c be 39 ef 97 be 7a ba 3a be 68 25 3e be
       -0.16883649 -0.296747 -0.18235198 -0.18568957
000270 bf f8 22 bf 6c 8b 51 be 52 8f 0c be 97 8a c0 bd
       -0.63660806 -0.20463341 -0.13726547 -0.09401434
000280 24 6e 09 be 27 94 41 be 39 57 01 be 2b 2c 58 be
       -0.13420922 -0.18904172 -0.12630929 -0.21110599
000290 a0 a7 12 bf d2 cb 3c be 88 3c e2 be 42 a1 4f bf
       -0.57287025 -0.18437126 -0.44186807 -0.81105435
0002a0 4f 44 9e be e8 9c 49 be 7c 25 e3 be be 3f 2e bf
       -0.3091149 -0.19688761 -0.44364536 -0.6806601
0002b0 6f 38 30 be cb 7e 6d be d4 36 0d be ac 29 52 be
       -0.17209028 -0.23192899 -0.13790447 -0.20523709
0002c0 1a 03 16 bf 22 06 44 be 22 64 68 be f1 d1 1a be
       -0.5859848 -0.19142964 -0.22694448 -0.15119149
0002d0 5b 4b 3a be ea ec 27 be 0d 11 3e be 3e dc f0 be
       -0.18192808 -0.1639897 -0.18561192 -0.4704303
0002e0 88 fc 2d be ad 6b b7 bd 11 f4 30 be 28 1d 95 be
       -0.16990864 -0.089560844 -0.17280604 -0.29123807
0002f0 11 33 25 3e d4 42 a3 be 39 c7 83 be ce db a2 be
       0.16132762 -0.31886923 -0.25737932 -0.31808323
000300 c7 2a bb bd d5 cb 1f be 4c ab 11 be 28 91 0a be
       -0.091390185 -0.156051 -0.14225501 -0.13531935
000310 9f 7c fc be 78 c1 37 be 28 09 81 bc 28 9e 5f be
       -0.49313828 -0.17944896 -0.015751436 -0.21837676
000320 77 2f 69 be 32 4d 8d bd 8b 34 4a bd a3 c9 0e bf
       -0.22772013 -0.068994895 -0.049366515 -0.55776423
000330 41 04 53 be 52 53 53 be 7c 85 37 be d4 86 98 bd
       -0.20607091 -0.20637253 -0.17922014 -0.074475914
000340 2d 21 4b be bd d1 58 be a8 e6 08 be 54 10 b6 be
       -0.19836874 -0.21173759 -0.13369238 -0.35559332
000350 e9 d7 dd be 76 36 8a bf 5e e6 24 bf 00 c2 3d be
       -0.4332879 -1.079787 -0.6441401 -0.18531036
000360 fd ac 09 be b1 dd 49 be 65 85 67 bf 4b 5e 17 be
       -0.13444896 -0.19713475 -0.9043792 -0.14782064
000370 c6 93 5a be 09 5b 6f be fa 4b b1 be fa 95 3e bf
       -0.21345434 -0.23374571 -0.34628278 -0.74447596
000380 4e 62 82 be e5 b6 f2 be 05 ab b0 be ba 59 3b be
       -0.25465626 -0.47405162 -0.34505478 -0.18295947
000390 3a 97 21 be 69 5a 27 be 4b c5 58 be 1b 5a 8b be
       -0.15780345 -0.16343082 -0.21169011 -0.27217183
0003a0 2a 12 a9 be e5 ba 54 be 2d 7e 18 be f4 4b 59 be
       -0.3302167 -0.2077442 -0.14891882 -0.2122038
0003b0 9b c7 3d be 37 21 93 be fe 3c 7a be e0 3f 38 be
       -0.18533175 -0.28736278 -0.24437329 -0.17993116
0003c0 aa 81 15 be fc fd 2f bf 80 b7 4d be 7d a5 88 be
       -0.14600244 -0.68746924 -0.20089531 -0.26688758
0003d0 4d 28 80 be 0b 5c 69 bf a3 b8 33 bf 4c 26 28 be
       -0.25030747 -0.9115607 -0.7020361 -0.16420859
0003e0 ed c0 ec bd dd ab ca 3c 90 32 4c be 0d ea 2b be
       -0.11560235 0.024740154 -0.19941163 -0.16788502
0003f0 70 5f 60 bf c8 49 2d bf dd e4 ed be 8d 7c 48 be
       -0.87645626 -0.67690706 -0.4646367 -0.19578762

fc3.weight f4 [1, 256]
000000 80 26 25 3b 10 e0 f9 3c e3 e8 ce 3c 2c bd fb bc
       0.002519995 0.03050235 0.025257533 -0.030729853
000010 c7 34 e0 3b 3c 0b ae bb 24 6e 0b 3d c8 25 85 3c
       0.006842229 -0.005311398 0.034040585 0.016253367
000020 99 5f 28 bd 3e 33 4a bd 83 46 08 3c 8f 93 f0 3c
       -0.041106794 -0.049365275 0.008317593 0.029367236
000030 3b dc b7 3c 8c de 74 bc a5 b9 52 bd 4f 37 e5 bc
       0.022443881 -0.014945637 -0.051446576 -0.027980475
000040 20 13 f8 ba 96 f4 10 3a ed 50 c0 3b d7 d7 b3 bd
       -0.0018926598 0.000552961 0.005869022 -0.087814026
000050 86 d2 e7 3c 52 d2 8b 3c 09 81 b3 bc 8d d9 c6 bc
       0.028298628 0.017068062 -0.021912115 -0.024273658
000060 f3 68 a0 3a 0a 75 58 3c 7e 0e ab bc 32 04 84 bc
       0.0012238309 0.013211498 -0.020880934 -0.016115282
000070 4e 63 f1 ba 4b 4d 91 3c a5 69 0d 3d b0 e9 81 3c
       -0.0018416436 0.017737051 0.03452458 0.015858501
000080 3e be aa 3c b5 28 2f 3e 76 7b 9e bc 38 ba 08 bd
       0.020842668 0.17105372 -0.01934598 -0.033380717
000090 f1 4b 4b 3c e3 37 e4 3b ca d1 75 3c 47 69 0e bd
       0.012408243 0.00696467 0.015003631 -0.03476837
0000a0 28 3a 85 bc e0 d5 50 bc c2 20 05 3d ef 10 92 3d
       -0.016263083 -0.012746304 0.032501943 0.07132136
0000b0 d0 81 a1 3c a7 5b 7d bb 1e f1 1e bb d8 1e 32 3c
       0.01971522 -0.0038659365 -0.0024252604 0.010871612
0000c0 1c d3 42 3c 79 9d 53 bc 23 14 40 bc 18 e8 ab 3d
       0.011891153 -0.012915962 -0.011723551 0.08393878
0000d0 ab 66 02 3c dc 5f b4 bc 8b ba c6 bb bc 0c b8 bc
       0.007959048 -0.022018366 -0.006064718 -0.02246701
0000e0 b1 05 bf bd fd b5 70 bd 4f 7a 98 3c 3b 14 84 3c
       -0.093272574 -0.058767308 0.018613009 0.016122928
0000f0 0b ee 04 3e 88 10 34 bd 19 b3 85 3c bb 68 11 bc
       0.12981431 -0.043961078 0.016320752 -0.008875067
000100 59 f9 a5 bc 10 75 3a bb 11 60 df bb 28 a2 bc bd
       -0.0202605 -0.0028451122 -0.006816872 -0.09210616
000110 75 b3 7b 3c 8c 8a ad 3c d6 db b2 3c 1e 9f 62 bc
       0.01536261 0.021184228 0.021833342 -0.013831882
000120 3b 11 bb 3c 4c 8b 14 3c cb 20 98 bd b4 b7 19 bd
       0.022835365 0.009066414 -0.0742813 -0.03752871
000130 70 81 cf 3a 07 ba 3e 3c 4f 3d 1d 3b 26 bf fb 3b
       0.0015831422 0.011641032 0.0023992842 0.007682699
000140 93 b1 6a 3c 52 f2 60 3c f5 91 97 3c f5 75 ff 3b
       0.014324564 0.013729649 0.018502215 0.007796044
000150 39 97 80 bd b4 1e bc 3c 51 97 1b bd 5e 29 09 3d
       -0.062788434 0.02296386 -0.037986103 0.033486716
000160 a3 2e 37 bc 40 93 87 3c 54 1d e8 3b a3 38 51 3c
       -0.011180553 0.016549706 0.0070835743 0.012769851
000170 8c 29 74 bc 52 51 83 3c 28 25 02 3c b0 be 14 bc
       -0.014902484 0.016029987 0.007943429 -0.009078667
000180 9c 81 50 bd a9 fb 5f 3c e7 b8 06 3d c2 b8 7f bc
       -0.050904855 0.01367084 0.03289118 -0.015608015
000190 a1 eb 5b bb e9 9a 1f bd 9b 57 ca bc 23 68 21 bd
       -0.0033557194 -0.038966093 -0.024699977 -0.039405953
0001a0 50 f2 c6 3b c0 5f cc bc 51 59 87 bd e6 c9 06 bb
       0.0060713664 -0.024948 -0.06608833 -0.0020567118
0001b0 eb 0b 17 bc c7 25 39 bd 34 78 e0 3c e8 a9 92 3b
       -0.00921915 -0.045202043 0.027401067 0.004475821
0001c0 ef 44 a5 bc fb 72 1e bd c9 2e 87 bc cd 05 aa 3c
       -0.020174472 -0.038683873 -0.016501801 0.02075472
0001d0 bd b4 f9 3c 44 e8 90 bc db 3c aa 3c 88 c2 84 bc
       0.03048169 -0.017688878 0.020780971 -0.016206041
0001e0 17 6d b4 bb 2c 37 18 bc 39 b1 8e bc 2d 32 81 3b
       -0.0055061686 -0.009290498 -0.01741849 0.003942749
0001f0 0f 9f 1f 3c cd b1 b4 bb 1b 31 44 bc c3 ec 74 3c
       0.009742512 -0.0055143596 -0.011974598 0.0149490265
000200 2c d6 63 3c 68 45 53 bd 03 d2 e7 3d d4 26 38 3d
       0.013906043 -0.051579863 0.113193534 0.044958904
000210 58 22 cb 3c 31 cd 16 bb 77 b7 84 3c 1f b2 2a bc
       0.02479665 -0.0023010487 0.016200764 -0.010418444
000220 bf df c3 3c 3d 7a e3 3b fb 85 82 3c 3f ae ba bd
       0.023910401 0.006942062 0.015933027 -0.09115266
000230 0f 69 7c 3c b5 28 eb bb c1 92 99 bd 0f 4f 1d bc
       0.015405907 -0.0071764835 -0.07498694 -0.009601369
000240 fe e1 f2 3c 0b d6 41 bc 92 36 23 3d dd 91 80 3c
       0.029648777 -0.011830817 0.039846964 0.015694553
000250 e1 7c 2d 3d ea 28 7b 3b f4 1f fd 3b d0 94 a5 3b
       0.042355422 0.0038323947 0.0077247564 0.00505314
000260 56 ec f5 bc ec cc 1c bc 12 8a cf 3c 5a 1c 35 3c
       -0.03001992 -0.009570342 0.025334392 0.011054123
000270 db 9b 86 bd 54 6b d3 bb dd 7c f2 3a 5d 92 b8 3a
       -0.06572696 -0.0064520035 0.0018500347 0.0014081706
000280 4e d0 e9 bc ea fa 61 bd eb 16 47 ba 3f a5 7f 3c
       -0.02854171 -0.05517093 -0.00075946626 0.015603363
000290 29 ba 72 bd 70 61 9f 3c 5a 66 c7 bc b8 b1 82 bd
       -0.059259567 0.019455642 -0.024340797 -0.063815534
0002a0 f9 0a 96 3c 7e 0d b7 39 59 46 fb 3c 48 03 f5 bc
       0.018315779 0.00034914532 0.030673193 -0.029908791
0002b0 ac c4 2b 3b 90 c9 4c bc bf ee 12 bc f1 39 bd 3c
       0.0026209755 -0.012499228 -0.008968054 0.023098918
0002c0 a1 91 98 3c f6 fd 97 3c 98 62 74 3b ee 84 91 bb
       0.018624129 0.018553715 0.0037290212 -0.0044408953
0002d0 4e 26 57 3c 1d fb bc bc db 6a a5 bc ae 97 60 bd
       0.013131691 -0.023068959 -0.020192554 -0.054832153
0002e0 a0 d1 ad 3a a4 ac dc 3c 42 0c 81 3c 0f be 96 bc
       0.0013261326 0.02693779 0.015752915 -0.018401174
0002f0 c8 3a fc bc 0c 97 df 3c 84 47 3e bc f5 ab 83 3c
       -0.030789748 0.027293704 -0.01161373 0.016073206
000300 96 ab ad 3c fb fe eb bb 64 5a b8 3c 8a bc 2d bc
       0.021199983 -0.007202027 0.02250404 -0.010604033
000310 47 5f 19 bd 52 0d 39 3c a0 c9 ff bc 2c 4b 9c 3c
       -0.03744438 0.01129468 -0.031224072 0.019078813
000320 8e df 8e bb 7e e4 18 3d 81 a5 db bc a1 b5 02 3d
       -0.004360146 0.037327282 -0.026812317 0.031911496
000330 89 8c a7 bc 1f f1 cd bc 06 fe 9c ba df 48 2c bd
       -0.020452755 -0.02513939 -0.001197756 -0.042061683
000340 98 fe 7c 3d 04 42 c4 bb 08 f2 d4 bb e0 6a d0 3c
       0.061766237 -0.005989315 -0.006498579 0.025441587
000350 4c 7a 5e bd f9 ba 0e bd 80 38 81 3d 1b 83 e7 3b
       -0.05431585 -0.03484628 0.06309605 0.0070651895
000360 ba 0d 5f bc 61 c6 d4 bc 1a e3 03 3d a5 12 4b 3c
       -0.0136141125 -0.0259735 0.032199003 0.012394582
000370 b0 2f 8b bc 0a b1 22 3c be f0 5a 3d 9d 01 ef 3c
       -0.016990513 0.009929905 0.053452246 0.029175574
000380 7c a3 98 bc ca aa b4 3c f1 c8 01 3d 42 02 27 3b
       -0.018632643 0.022054095 0.031685773 0.0025483523
000390 19 0b 8a bc b6 89 4f 3c e9 19 18 bc d7 f8 e8 bc
       -0.016850995 0.01266711 -0.009283521 -0.028438969
0003a0 4f 44 19 bd 2b 64 d9 3b c6 45 e9 bc 83 9b 01 bd
       -0.03741866 0.0066342554 -0.028475653 -0.03164245
0003b0 cd 7a 5e 3b f8 d1 95 3c 57 c0 84 bd 18 72 90 3c
       0.0033947707 0.018288597 -0.064819984 0.01763253
0003c0 8b 69 36 bb b3 f3 12 bd 11 4d 36 bc 6e b5 8f bc
       -0.0027833905 -0.03587694 -0.0111267725 -0.017542567
0003d0 30 a7 83 bc b9 e5 14 3d 52 9e d2 bc dd 5c f9 3b
       -0.016070932 0.036351893 -0.025710259 0.007609947
0003e0 6b 55 3c 3c b9 b8 07 bd 4a f3 ae 3c 38 c4 af bb
       0.011494975 -0.03313515 0.021356244 -0.0053639673
0003f0 39 56 92 3c 1e 05 f1 bc 67 f6 cd bc 6d 49 91 bc
       0.01786338 -0.029421385 -0.025141908 -0.017735207

bn1.weight f4 [256]
000000 6d fc 44 3e c1 d6 a0 3d 4d 27 f3 3d 0f 3f b3 3f
       0.19236918 0.07853461 0.118727304 1.4003619
000010 ac b9 a2 3d 7a 71 0a 3e bc f7 8b 3d 91 15 ec 3e
       0.0794557 0.1351985 0.06834361 0.46110204
000020 17 c5 84 3d ef 6d d7 3c e0 f8 f9 3d 8c 84 43 3e
       0.064829044 0.026297538 0.12205672 0.19093531
000030 fc 1e f6 3d 52 59 9c 3d b0 7d 9c 3d 1b 96 88 3d
       0.120176286 0.07634224 0.076411605 0.06669255
000040 3c 1c 56 3d 1f 7b 9d 3d 02 0d 5a 3f 37 72 af 3e
       0.05227302 0.07689499 0.851761 0.34266827
000050 70 c1 ec 3d 28 37 2c 3d 99 2e d7 3d 14 38 5d 3e
       0.11560333 0.04204479 0.10506935 0.21603423
000060 50 df 30 3e 24 ab 7c 3f be b2 68 3e 4a aa 41 3e
       0.17272687 0.9869864 0.22724435 0.18912616
000070 3e 5c ae 3d 9c 92 13 3e b1 05 ab 3e a7 53 65 3d
       0.085136876 0.14411396 0.3340278 0.05598798
000080 c4 7d c5 3d 9e 5a 92 3d 4e 16 e4 3d 5f 09 ba be
       0.096431285 0.0714619 0.11137067 -0.36335275
000090 df 54 89 3d 28 ab a5 3d 4e fc ab 3c 26 95 ff 3c
       0.06705641 0.08089286 0.020994332 0.03119905
0000a0 b2 53 e8 3d 82 b4 3f 3d ed 5c 9d 3d fe 47 3a 3e
       0.113440886 0.046803005 0.0768374 0.18191525
0000b0 14 f5 84 3d 73 27 27 3e 1b e6 85 3d e3 8a ef 3e
       0.064920574 0.16323642 0.0653803 0.4678565
0000c0 94 79 8b 3e dc dd 23 3d 14 3c 81 be ff 4f ba 3d
       0.27241194 0.040006503 -0.25241148 0.09097289
0000d0 f0 0a 58 3d 5c 20 2d 3e b5 47 a9 3d 92 2e b6 3d
       0.052744806 0.16906875 0.0826563 0.08895601
0000e0 85 8b a9 3d ed 72 f5 3e 85 80 dd 3d c3 eb 3e 3d
       0.08278564 0.47939244 0.10815529 0.04661156
0000f0 62 8d c4 3d 9f d9 f6 3d ff 69 9e 3d c5 31 ab bd
       0.09597279 0.12053227 0.07735061 -0.08359102
000100 a5 ed a7 3d 1b 2f 8f 3d 16 fc e3 3e 6b 73 14 3e
       0.08199624 0.069914065 0.44528264 0.14497153
000110 3a 5c b0 3d 1e 2c 88 3d 10 f0 db 3d 12 72 e5 bd
       0.08611341 0.0664904 0.10739148 -0.11203398
000120 63 93 90 3d 09 f3 98 3d db 67 f8 3d 5b b1 ca 3d
       0.07059362 0.0746823 0.12129184 0.09897109
000130 77 e4 d3 3d 96 8f fd 3d aa 3f 2a 3e 40 34 a8 3d
       0.103463106 0.123809025 0.16625848 0.08213091
000140 cb bc 72 3d b9 5b 95 3d 81 3d 34 3e 1a 06 27 3e
       0.05926208 0.07292885 0.17601587 0.16310921
000150 1b b8 b4 3d ca a4 f5 3d dc 9f c8 3d a9 bd 35 3f
       0.08824178 0.11994322 0.09796116 0.70992523
000160 e8 12 8a bd 50 bb 0d 3e 59 06 3f 3e a9 0d 5a 3d
       -0.06741887 0.13840985 0.18654765 0.053235684
000170 61 db 34 3e 8b b0 b9 3d b9 33 ac 3e a2 f6 14 3e
       0.17661811 0.09066876 0.3363321 0.14547208
000180 70 bd 89 3d 8b b4 0a 3e de 1c 07 3e de eb 8a 3d
       0.067255855 0.13545434 0.13194606 0.06783269
000190 1d 10 b8 3d ca f9 66 3d 03 38 dd 3d db 31 86 3d
       0.08987448 0.05639056 0.10801699 0.06552478
0001a0 ba 38 d8 3d fa b8 f1 3d 56 d8 ce 3d 04 a0 99 3d
       0.10557695 0.118028596 0.100998566 0.07501224
0001b0 57 15 b6 3d 8b da c8 3c cb 43 bb 3c 95 ed 0a 3e
       0.08890789 0.024518272 0.022859475 0.13567193
0001c0 06 60 2b 3d 2c 60 2f 3e d5 6b 4f 3f d2 cf 5b 3d
       0.041839622 0.1712653 0.81023914 0.05366499
0001d0 3e ec 79 3e 61 5b 43 3d 00 f8 63 3e 4c c9 95 3d
       0.24406525 0.047694568 0.22262573 0.07313785
0001e0 be 14 1b 3d f4 59 e8 3d c2 72 54 3e 27 b8 b9 3e
       0.03786158 0.11345282 0.20746902 0.3627331
0001f0 35 7f 5f 3e 1a a6 77 3d 2e 5a 89 3d ed eb e4 3d
       0.2182587 0.06046114 0.067066535 0.11177812
000200 11 3d fd 3e 6e a0 ee 3a dc f2 b3 3c 68 fc 04 3d
       0.49460652 0.0018205771 0.02196639 0.032467276
000210 f8 8c 80 3d 44 07 cb 3d 6f 16 cc 3d 21 8e 94 3d
       0.06276888 0.09913495 0.09965216 0.072536714
000220 bb 4c 2c 3d 34 58 ed 3d 6f 13 b3 3d be 8a 64 3d
       0.042065363 0.11589089 0.08743941 0.055796377
000230 f2 1d 28 3e b0 e6 81 3d 53 4a 8b 3d 32 8a 40 3d
       0.16417673 0.06342828 0.068012856 0.047006793
000240 79 a3 81 3d e7 37 9e 3d e5 de 15 3f 81 8d 06 3e
       0.06330008 0.07725506 0.58543235 0.13139917
000250 aa 8d a7 3d cb 91 08 3e ca 6c 57 3d 3b ab d5 3d
       0.08181317 0.13336866 0.052593984 0.1043305
000260 63 c7 47 3d 25 cf 39 3d 5a b4 af 3e d4 41 00 3e
       0.048774134 0.045363564 0.34317285 0.12525111
000270 8f e9 e9 3d 56 d1 e7 3e d7 ed 54 3e a5 d6 bb 3d
       0.11421501 0.45276898 0.20793854 0.091717996
000280 f5 f4 a0 3d 9f 70 dd 3d 26 b0 b8 bd c9 fd dd 3d
       0.07859222 0.108124964 -0.09017973 0.10839421
000290 b4 fd a9 3d 2e 21 86 3d ef b3 e9 3d bf 9a 54 3e
       0.08300343 0.06549297 0.11411273 0.20762156
0002a0 23 cf 48 3f 80 1a 9f 3d ee 31 7b bd d3 44 da 3d
       0.78441066 0.07768726 -0.061326914 0.106576584
0002b0 6f 96 84 3a 65 36 c5 3d 92 1b a6 3d 7b f1 9c 3d
       0.0010115633 0.096295156 0.08110727 0.07663246
0002c0 bb 78 c2 3d 9b aa e4 3d 91 87 da 3d af 85 f9 3e
       0.09495684 0.11165353 0.106703885 0.48734805
0002d0 a3 df 8b 3d cf 4e 79 3d 54 10 8f 3d bd f9 8f 3d
       0.06829765 0.060866173 0.06985536 0.07030056
0002e0 ca 35 38 3e 52 1a 0c 3e cd f4 c7 3d 42 d5 d6 3d
       0.17989269 0.13681915 0.09763489 0.104898944
0002f0 9a 4f b1 3d e0 3b d0 3d b9 66 09 3f ea cd 3f 3e
       0.08657761 0.1016767 0.5367237 0.18730894
000300 d7 7a 9c 3d ba 00 1a 3e d5 6d 3a 3d d9 36 95 3d
       0.07640617 0.1503934 0.0455149 0.07285852
000310 53 f3 90 3d e1 8b 64 3e e3 e7 c7 3d 99 3d 44 bd
       0.070776604 0.22318985 0.09761026 -0.047910307
000320 23 12 3a 3e c7 e0 c0 3e 03 b4 91 3d a2 d5 6c 3d
       0.18170981 0.37671492 0.07114413 0.057820924
000330 d6 1f 89 3d ea ba 27 bc 95 61 81 3d 76 c9 26 3d
       0.06695525 -0.010237435 0.063174404 0.040719472
000340 e1 6a e1 3d 2c 4d 1f 3e 7d 90 04 3e 77 b7 f9 3d
       0.11006714 0.15556782 0.12945743 0.12193196
000350 9e 6f f7 3d f4 5a 09 3e 38 b9 90 3d 4c 35 08 3e
       0.12081836 0.13413602 0.07066578 0.13301581
000360 be 2d d1 3d f9 9f bb 3e 25 eb 9b 3d 99 d7 b6 3d
       0.10213803 0.36645487 0.0761321 0.08927841
000370 78 38 59 3e e7 4b 05 3e a9 10 66 3e c3 8e 15 3e
       0.21212947 0.13017236 0.22467293 0.1460524
000380 49 8c 6c 3e 25 64 38 3d 44 e7 8b 3d d0 69 7d 3d
       0.2310039 0.04501738 0.0683122 0.06186849
000390 1e 49 75 3d 1b 89 99 3f 4d 89 b0 3c 49 40 74 3d
       0.059884183 1.1994966 0.021549845 0.05963162
0003a0 d3 1a aa 3d 9e fd 02 3e 7f b3 85 bd 2e 59 87 3e
       0.083058976 0.1279206 -0.06528377 0.26435226
0003b0 8b 47 a6 3d 38 05 1d be 9f ab 53 3d 87 2a 50 3f
       0.081191145 -0.15334022 0.051677343 0.8131489
0003c0 1f 84 65 3e 75 32 10 3e 48 f5 46 3e 91 aa f5 3e
       0.22413681 0.14081748 0.19429505 0.47981694
0003d0 63 6c 80 3d 32 f2 f7 bd e6 f2 49 3e 93 81 be 3d
       0.06270673 -0.12106742 0.19721565 0.09302058
0003e0 34 4c a9 3e 5a 83 dc 3d 4c c9 22 3e 34 7a db bd
       0.3306595 0.10767241 0.15897101 -0.10716668
0003f0 fa 9d 7b 3d 77 ae 1b 3e 50 2e ae bd b8 ad 89 3d
       0.061429955 0.15203272 -0.08504927 0.06722587

bn1.bias f4 [256]
000000 4a 56 90 3d 54 79 ad 3c d2 ae f2 3c b8 11 11 3f
       0.07047708 0.021176018 0.029624376 0.5666766
000010 02 9d 7e 3c a7 e2 60 3c 01 b6 22 3c 87 fd 0f 3e
       0.015540363 0.013725913 0.009931088 0.14061557
000020 96 c8 91 3c 76 b0 55 3c 19 28 03 3d c7 04 28 3e
       0.017795842 0.01304256 0.032020662 0.16408072
000030 56 0d 98 3c 79 a4 b9 ba 8e d2 29 bd f5 d4 39 3c
       0.018561047 -0.0014163397 -0.041460566 0.011342277
000040 38 f2 36 3b e3 70 74 3c 73 6d dc 3e 55 3d b9 3e
       0.002791537 0.014919492 0.43052253 0.36179605
000050 b7 b2 4d 3d 38 9d ca 3c 6b b2 2a 3d c7 35 1f 3d
       0.050219264 0.02473317 0.04167406 0.038869645
000060 9e f1 bb 3d eb 24 0f 3f 03 35 57 3e bb 39 7c 3d
       0.09176944 0.5591571 0.21016316 0.061578494
000070 92 c6 8f 3c 2b a7 65 3d be d1 e5 bd 9b 79 a1 3c
       0.01755074 0.056067627 -0.11221646 0.019711306
000080 1f a6 9c 3c 26 32 79 3b e5 bf a7 3c 63 59 1f 3f
       0.019122181 0.0038024276 0.020477245 0.6224577
000090 88 5e d0 3c eb 23 8e 3c 4f 2e 6a 3b 49 c0 48 3c
       0.025435701 0.017351111 0.0035733168 0.012252876
0000a0 c1 97 52 3d e8 82 ba 3b 84 de 9f 3c 67 59 38 3d
       0.051414255 0.005691875 0.019515283 0.045007136
0000b0 70 8f a5 3c e1 eb 97 3d f0 18 1c 3c b2 3a 3f 3e
       0.020209998 0.07418037 0.00952743 0.18674734
0000c0 79 03 b8 bc f6 11 3b 3c a3 d4 06 be e1 32 38 3d
       -0.022462593 0.011417856 -0.13167052 0.044970397
0000d0 cb 86 c0 3b a1 6a 08 3d 18 e6 e0 3c 64 9d fe 3c
       0.0058754436 0.033304814 0.027453467 0.03108091
0000e0 cc ad 05 3d f9 2a 57 3e 72 aa 23 3d 77 e4 79 bb
       0.03263645 0.21012487 0.03995747 -0.003813056
0000f0 b3 ba d0 3c bd 1b 09 3d ed 0d 14 bc 66 1e ae bb
       0.02547965 0.03347372 -0.009036523 -0.0053136824
000100 0c 4e 90 3c d2 36 59 3c 6b 7e e0 bb 7a fb 2a 3d
       0.01761534 0.013257699 -0.0068510077 0.041743733
000110 e4 f8 78 3c 13 bd 98 bc ba 52 0f 3d fa 58 f2 bc
       0.015196059 -0.018644845 0.034991004 -0.029583443
000120 cc bf a2 3c aa 88 39 3c 43 0b 2a 3d a8 7c c1 bb
       0.019866847 0.011324087 0.041514646 -0.0059047528
000130 ff 13 c0 3c c3 d5 a6 3d 05 7b 61 3d 4e 0f 6f 3d
       0.023447035 0.081462406 0.05504896 0.058364205
000140 d9 70 02 3c 94 29 7c 3c 66 08 94 bd 5f 73 b5 3d
       0.007961475 0.015390772 -0.072281644 0.08859896
000150 70 b4 c1 3c 66 91 1d 3d e6 14 a9 3c 75 c4 c8 3e
       0.02364561 0.03846874 0.020639848 0.39212385
000160 d8 77 df bc 5b b8 b4 3d 4d 09 9f 3d 40 eb 1d bb
       -0.027278826 0.088242255 0.07765446 -0.0024096519
000170 81 9f 99 bd df 02 9d 3c 18 49 06 3e e1 fe b4 3d
       -0.07501126 0.019166408 0.1311382 0.08837677
000180 71 6c 98 3b f9 30 4f 3d ca 75 8f 3d ab 4e 18 3c
       0.004651599 0.050583813 0.07004888 0.0092961
000190 97 b3 72 3c fa a0 5a 3c 71 04 32 3d 51 5c 2b 3c
       0.014813325 0.013344044 0.043461267 0.010459022
0001a0 14 e4 5c 3c 33 00 17 3d fa 6b d8 3c fd 9e b6 3c
       0.013482112 0.036865424 0.026418675 0.022292608
0001b0 74 9b 92 3c cd a7 1e bb 79 9f 28 3c b9 59 94 3d
       0.017896391 -0.0024208904 0.0102919275 0.07243676
0001c0 a2 71 34 3b 4e 0e 21 3d 84 d0 34 3e 92 01 12 3c
       0.002753355 0.039320283 0.17657667 0.008911507
0001d0 aa 71 6a 3d 17 eb 66 3c 29 81 ca 3d 9b a5 bf 3c
       0.057237305 0.014094136 0.098879166 0.023394397
0001e0 e6 30 16 3c 97 fd 10 3d 4b 8f 40 3d 5c 94 4a 3e
       0.009166932 0.035398092 0.047011655 0.19783157
0001f0 c2 cc 61 3d e8 49 c8 3c 4f f2 25 3c b6 22 e7 3c
       0.055126913 0.024449304 0.010128572 0.028214794
000200 00 4f 6a 3e d5 fb bb ba ac fa 45 3b 39 22 5e 3a
       0.22881699 -0.001434202 0.0030209227 0.00084737275
000210 f7 ee 21 3c c5 3a 72 3c a8 4f c3 3c 11 fa 26 bc
       0.009883634 0.01478452 0.023841694 -0.010191456
000220 97 a1 14 3c 8b ae d8 3c dd ec 5f 3c 04 18 6b 3c
       0.009071729 0.026450416 0.013667312 0.0143489875
000230 4b c9 4b 3d cc 85 45 3c dc 74 65 3c b1 5c bb 3b
       0.049752515 0.012055825 0.014004912 0.005717837
000240 07 9c e6 3c a9 a1 a4 3c cc 9a 19 3d 64 54 29 3d
       0.028150572 0.020096617 0.03750114 0.041340247
000250 f1 b8 15 3d 6f 9d c0 3c ef c9 15 3c f1 3d ab 3c
       0.036553327 0.02351257 0.009142383 0.02090356
000260 13 36 85 3c 83 39 65 3b 89 0e ac 3d c0 ba 2e 3d
       0.016261136 0.0034976907 0.0840121 0.042658567
000270 27 ed cd 3c 4d 30 db 3d 76 19 7d 3d f3 81 aa 3c
       0.025137497 0.10702572 0.06179186 0.020813918
000280 d1 b6 71 3c 3c 14 c9 3c 5c 19 c3 bc ee 41 39 3d
       0.0147530595 0.024545781 -0.023815803 0.04522889
000290 e4 94 9d 3c 19 82 cc 3c fa 09 57 3d 17 ae 1a 3d
       0.019236036 0.02496438 0.05249975 0.03776368
0002a0 49 64 16 3f 6c b9 91 bb 7b c2 79 bc 7d 5f 55 3d
       0.58746773 -0.004447153 -0.015244122 0.052093018
0002b0 59 df a9 3b d4 a5 ff 3c 6e f7 81 3c f1 14 c2 3b
       0.005184096 0.031207003 0.015865054 0.0059229066
0002c0 db 7a 03 3d a5 1e f5 3c a7 e5 84 3d 3b 52 c5 3e
       0.032099586 0.029921839 0.06489115 0.385393
0002d0 f2 0b 16 3c ab a2 f2 3b dc 33 9d 3c 20 e1 fa 3c
       0.009158121 0.0074046454 0.019189768 0.030624926
0002e0 21 80 af 3d 1f bb 19 3d 19 29 f4 3c 48 e9 32 3d
       0.085693605 0.03753197 0.029804753 0.043679506
0002f0 ac 85 d2 3c 7f 51 a9 ba a0 5e f5 3e cd ea ed 3d
       0.025698505 -0.0012917964 0.47923756 0.1161705
000300 78 34 49 3c 4d 93 cd 3c 49 05 a5 3c 3b b3 49 3c
       0.012280576 0.025094653 0.020144122 0.012310798
000310 92 23 09 3d 0b 81 88 3d 04 71 21 3c 18 35 61 bb
       0.033481188 0.06665238 0.009853605 -0.0034363922
000320 7c 02 00 3e 97 cc 2d 3e c4 24 49 3b da 0d c9 3c
       0.12500948 0.16972576 0.003069208 0.024542738
000330 47 6e 48 3c 92 d2 f0 ba c0 ed 18 3c f2 7b 25 ba
       0.012233323 -0.0018373302 0.009334028 -0.000631272
000340 ad 56 72 3d a3 13 e8 3d 46 9b c7 3c 9d cd 0b 3d
       0.05916469 0.113318704 0.024366032 0.034131635
000350 49 cb 2b 3d 8a ce e9 3c 12 34 b9 3b 9a 62 3b 3d
       0.041941915 0.028540868 0.005651959 0.04574833
000360 50 87 01 3d b9 fb 9c 3e bc 16 c2 3c c5 6d 6a 3a
       0.031623185 0.306608 0.023692481 0.00089427485
000370 96 61 01 3e 18 14 3a 3d 19 b7 6f 3d 5e e8 f2 3d
       0.12634882 0.04542932 0.058524225 0.11860727
000380 da f8 eb 3d fa 41 cd 3b c5 8e 38 3c ab cc 6c 3b
       0.11522074 0.0062639685 0.011264508 0.0036132734
000390 f8 89 b7 3b 7e 39 ff 3e 5c 1e a4 3b ef 6d 29 3d
       0.005601164 0.4984855 0.005008502 0.041364606
0003a0 3a 02 88 3c 58 da 5a 3d 57 28 eb bb bd 52 f7 3d
       0.016602624 0.053430885 -0.0071764397 0.12076328
0003b0 ab 3d a5 3c 7b a3 57 bd 8f 53 d5 3c 41 63 d0 3e
       0.020171007 -0.05264614 0.02604082 0.40700725
0003c0 48 7f e6 3d 0b 52 72 3d c2 4e d1 3d 1b 94 b2 3e
       0.11254746 0.059160274 0.102201 0.3487862
0003d0 5d b7 56 3d 6f 6e f0 bc fd 71 b6 3d 00 a3 ba 3c
       0.052420963 -0.029349534 0.0890846 0.022782803
0003e0 9e 08 d0 3e 4c 1b 8f 3d 33 da 40 3d 7c fa 2d bc
       0.40631574 0.06987628 0.04708309 -0.010618802
0003f0 08 85 c1 3c b4 f4 ed 3c ff a9 ca 3b d0 06 b1 3b
       0.023623005 0.029047348 0.006184816 0.0054024234
